input/checkpoints/checkpoint-25.pth.tar (torch, 546829 bytes, 144 tensors)

exp_avg f4 [100, 18]
0.0 0.0 0.0 0.0 0.0 0.0 0.0 0.0
0.0 0.0 0.0 0.0 0.0 0.0 0.0 0.0
0.0 0.0 0.0 0.0 0.0 0.0 0.0 0.0
0.0 0.0 0.0 0.0 0.0 0.0 0.0 0.0
0.0 0.0 0.0 0.0 0.0 0.0 0.0 0.0
0.0 0.0 0.0 0.0 0.0 0.0 0.0 0.0
0.0 0.0 0.0 0.0 0.0 0.0 -6e-45 6e-45
-0.00014032955 -6e-45 -6e-45 -6e-45 6e-45 -6e-45 6e-45 6e-45
6e-45 -0.001232398 6e-45 6e-45 0.00016345711 -0.0016893197 0.0003460533 6e-45
0.0 0.0 0.0 0.0 0.0 0.0 0.0 0.0
0.0 0.0 0.0 0.0 0.0 0.0 0.0 0.0
0.0 0.0 0.0 0.0 0.0 0.0 0.0 0.0
0.0 0.0 0.0 0.0 0.0 0.0 0.0 0.0
0.0 0.0 0.0 0.0 0.0 0.0 0.0 0.0
0.0 0.0 0.0 0.0 0.0 0.0 0.0 0.0
0.0 0.0 0.0 0.0 0.0 0.0 0.0 0.0
0.0 0.0 0.0 0.0 0.0 0.0 0.0 0.0
0.0 0.0 0.0 0.0 0.0 0.0 0.0 0.0
0.0015860636 6e-45 6e-45 -6e-45 -6e-45 6e-45 6e-45 6e-45
6e-45 6e-45 6e-45 -6e-45 0.00017975237 2.304113e-05 -0.00016642731 6e-45
-6e-45 6e-45 0.0 0.0 0.0 0.0 0.0 0.0
0.0 0.0 0.0 0.0 0.0 0.0 0.0 0.0
0.0 0.0 0.0 0.0 0.0 0.0 0.0 0.0
0.0 0.0 0.0 0.0 0.0 0.0 0.0 0.0
0.0 0.0 0.0 0.0 0.0 0.0 0.0 0.0
0.0 0.0 0.0 0.0 0.0 0.0 0.0 0.0
0.0 0.0 0.0 0.0 0.0 0.0 0.0 0.0
0.0 0.0 0.0 0.0 0.0 0.0 0.0 0.0
0.0 0.0 0.0 0.0 0.0 0.0 0.0 0.0
0.0 0.0 0.0 0.0 0.0 0.0 0.0 0.0
0.0 0.0 0.0 0.0 0.0 0.0 0.0 0.0
0.0 0.0 0.0 0.0 0.0 0.0 0.0 0.0
00000000: 0000 0000 0000 0000 0000 0000 0000 0000
00000010: 0000 0000 0000 0000 0000 0000 0000 0000
00000020: 0000 0000 0000 0000 0000 0000 0000 0000
00000030: 0000 0000 0000 0000 0000 0000 0000 0000
00000040: 0000 0000 0000 0000 0000 0000 0000 0000
00000050: 0000 0000 0000 0000 0000 0000 0000 0000
00000060: 0000 0000 0000 0000 0000 0000 0000 0000
00000070: 0000 0000 0000 0000 0000 0000 0000 0000
00000080: 0000 0000 0000 0000 0000 0000 0000 0000
00000090: 0000 0000 0000 0000 0000 0000 0000 0000
000000a0: 0000 0000 0000 0000 0000 0000 0000 0000
000000b0: 0000 0000 0000 0000 0000 0000 0000 0000
000000c0: 0000 0000 0000 0000 0000 0000 0000 0000
000000d0: 0000 0000 0000 0000 0400 0080 0400 0000
000000e0: 6d25 13b9 0400 0080 0400 0080 0400 0080
000000f0: 0400 0000 0400 0080 0400 0000 0400 0000
00000100: 0400 0000 6a88 a1ba 0400 0000 0400 0000
00000110: af65 2b39 2a6c ddba 7d6e b539 0400 0000
00000120: 0000 0000 0000 0000 0000 0000 0000 0000
00000130: 0000 0000 0000 0000 0000 0000 0000 0000
00000140: 0000 0000 0000 0000 0000 0000 0000 0000
00000150: 0000 0000 0000 0000 0000 0000 0000 0000
00000160: 0000 0000 0000 0000 0000 0000 0000 0000
00000170: 0000 0000 0000 0000 0000 0000 0000 0000
00000180: 0000 0000 0000 0000 0000 0000 0000 0000
00000190: 0000 0000 0000 0000 0000 0000 0000 0000
000001a0: 0000 0000 0000 0000 0000 0000 0000 0000
000001b0: 0000 0000 0000 0000 0000 0000 0000 0000
000001c0: 0000 0000 0000 0000 0000 0000 0000 0000
000001d0: 0000 0000 0000 0000 0000 0000 0000 0000
000001e0: 0000 0000 0000 0000 0000 0000 0000 0000
000001f0: 0000 0000 0000 0000 0000 0000 0000 0000
00000200: 0000 0000 0000 0000 0000 0000 0000 0000
00000210: 0000 0000 0000 0000 0000 0000 0000 0000
00000220: 0000 0000 0000 0000 0000 0000 0000 0000
00000230: 0000 0000 0000 0000 0000 0000 0000 0000
00000240: 77e3 cf3a 0400 0000 0400 0000 0400 0080
00000250: 0400 0080 0400 0000 0400 0000 0400 0000
00000260: 0400 0000 0400 0000 0400 0000 0400 0080
00000270: e97b 3c39 7348 c137 fe82 2eb9 0400 0000
00000280: 0400 0080 0400 0000 0000 0000 0000 0000
00000290: 0000 0000 0000 0000 0000 0000 0000 0000
000002a0: 0000 0000 0000 0000 0000 0000 0000 0000
000002b0: 0000 0000 0000 0000 0000 0000 0000 0000
000002c0: 0000 0000 0000 0000 0000 0000 0000 0000
000002d0: 0000 0000 0000 0000 0000 0000 0000 0000
000002e0: 0000 0000 0000 0000 0000 0000 0000 0000
000002f0: 0000 0000 0000 0000 0000 0000 0000 0000
00000300: 0000 0000 0000 0000 0000 0000 0000 0000
00000310: 0000 0000 0000 0000 0000 0000 0000 0000
00000320: 0000 0000 0000 0000 0000 0000 0000 0000
00000330: 0000 0000 0000 0000 0000 0000 0000 0000
00000340: 0000 0000 0000 0000 0000 0000 0000 0000
00000350: 0000 0000 0000 0000 0000 0000 0000 0000
00000360: 0000 0000 0000 0000 0000 0000 0000 0000
00000370: 0000 0000 0000 0000 0000 0000 0000 0000
00000380: 0000 0000 0000 0000 0000 0000 0000 0000
00000390: 0000 0000 0000 0000 0000 0000 0000 0000
000003a0: 0000 0000 0000 0000 0000 0000 0000 0000
000003b0: 0000 0000 0000 0000 0000 0000 0000 0000
000003c0: 0000 0000 0000 0000 0000 0000 0000 0000
000003d0: 0000 0000 0000 0000 0000 0000 0000 0000
000003e0: 0000 0000 0000 0000 0000 0000 0000 0000
000003f0: 0000 0000 0000 0000 0000 0000 0000 0000

exp_avg_sq f4 [100, 18]
0.0 0.0 0.0 0.0 0.0 0.0 0.0 0.0
0.0 0.0 0.0 0.0 0.0 0.0 0.0 0.0
0.0 0.0 0.0 0.0 0.0 0.0 0.0 0.0
0.0 0.0 0.0 0.0 0.0 0.0 0.0 0.0
0.0 0.0 0.0 0.0 0.0 0.0 0.0 0.0
0.0 0.0 0.0 0.0 0.0 0.0 0.0 0.0
0.0 0.0 0.0 0.0 0.0 0.0 7e-43 1.2453489e-20
5.556998e-06 7e-43 7e-43 7e-43 7e-43 7e-43 7e-43 7e-43
7e-43 2.3229273e-05 7e-43 7e-43 3.3345735e-09 2.4414296e-05 1.1294181e-05 7e-43
0.0 0.0 0.0 0.0 0.0 0.0 0.0 0.0
0.0 0.0 0.0 0.0 0.0 0.0 0.0 0.0
0.0 0.0 0.0 0.0 0.0 0.0 0.0 0.0
0.0 0.0 0.0 0.0 0.0 0.0 0.0 0.0
0.0 0.0 0.0 0.0 0.0 0.0 0.0 0.0
0.0 0.0 0.0 0.0 0.0 0.0 0.0 0.0
0.0 0.0 0.0 0.0 0.0 0.0 0.0 0.0
0.0 0.0 0.0 0.0 0.0 0.0 0.0 0.0
0.0 0.0 0.0 0.0 0.0 0.0 0.0 0.0
3.919573e-06 7e-43 7e-43 7e-43 7e-43 7e-43 7e-43 7e-43
7e-43 7e-43 7e-43 7e-43 1.2167838e-05 5.1242574e-07 3.105019e-08 7e-43
7e-43 1.7065915e-16 0.0 0.0 0.0 0.0 0.0 0.0
0.0 0.0 0.0 0.0 0.0 0.0 0.0 0.0
0.0 0.0 0.0 0.0 0.0 0.0 0.0 0.0
0.0 0.0 0.0 0.0 0.0 0.0 0.0 0.0
0.0 0.0 0.0 0.0 0.0 0.0 0.0 0.0
0.0 0.0 0.0 0.0 0.0 0.0 0.0 0.0
0.0 0.0 0.0 0.0 0.0 0.0 0.0 0.0
0.0 0.0 0.0 0.0 0.0 0.0 0.0 0.0
0.0 0.0 0.0 0.0 0.0 0.0 0.0 0.0
0.0 0.0 0.0 0.0 0.0 0.0 0.0 0.0
0.0 0.0 0.0 0.0 0.0 0.0 0.0 0.0
0.0 0.0 0.0 0.0 0.0 0.0 0.0 0.0
00000000: 0000 0000 0000 0000 0000 0000 0000 0000
00000010: 0000 0000 0000 0000 0000 0000 0000 0000
00000020: 0000 0000 0000 0000 0000 0000 0000 0000
00000030: 0000 0000 0000 0000 0000 0000 0000 0000
00000040: 0000 0000 0000 0000 0000 0000 0000 0000
00000050: 0000 0000 0000 0000 0000 0000 0000 0000
00000060: 0000 0000 0000 0000 0000 0000 0000 0000
00000070: 0000 0000 0000 0000 0000 0000 0000 0000
00000080: 0000 0000 0000 0000 0000 0000 0000 0000
00000090: 0000 0000 0000 0000 0000 0000 0000 0000
000000a0: 0000 0000 0000 0000 0000 0000 0000 0000
000000b0: 0000 0000 0000 0000 0000 0000 0000 0000
000000c0: 0000 0000 0000 0000 0000 0000 0000 0000
000000d0: 0000 0000 0000 0000 f401 0000 613d 6b1e
000000e0: 4076 ba36 f401 0000 f401 0000 f401 0000
000000f0: f401 0000 f401 0000 f401 0000 f401 0000
00000100: f401 0000 7cdc c237 f401 0000 f401 0000
00000110: 7026 6531 4dcd cc37 237c 3d37 f401 0000
00000120: 0000 0000 0000 0000 0000 0000 0000 0000
00000130: 0000 0000 0000 0000 0000 0000 0000 0000
00000140: 0000 0000 0000 0000 0000 0000 0000 0000
00000150: 0000 0000 0000 0000 0000 0000 0000 0000
00000160: 0000 0000 0000 0000 0000 0000 0000 0000
00000170: 0000 0000 0000 0000 0000 0000 0000 0000
00000180: 0000 0000 0000 0000 0000 0000 0000 0000
00000190: 0000 0000 0000 0000 0000 0000 0000 0000
000001a0: 0000 0000 0000 0000 0000 0000 0000 0000
000001b0: 0000 0000 0000 0000 0000 0000 0000 0000
000001c0: 0000 0000 0000 0000 0000 0000 0000 0000
000001d0: 0000 0000 0000 0000 0000 0000 0000 0000
000001e0: 0000 0000 0000 0000 0000 0000 0000 0000
000001f0: 0000 0000 0000 0000 0000 0000 0000 0000
00000200: 0000 0000 0000 0000 0000 0000 0000 0000
00000210: 0000 0000 0000 0000 0000 0000 0000 0000
00000220: 0000 0000 0000 0000 0000 0000 0000 0000
00000230: 0000 0000 0000 0000 0000 0000 0000 0000
00000240: e084 8336 f401 0000 f401 0000 f401 0000
00000250: f401 0000 f401 0000 f401 0000 f401 0000
00000260: f401 0000 f401 0000 f401 0000 f401 0000
00000270: 7724 4c37 a18d 0935 0c5c 0533 f401 0000
00000280: f401 0000 b1c1 4425 0000 0000 0000 0000
00000290: 0000 0000 0000 0000 0000 0000 0000 0000
000002a0: 0000 0000 0000 0000 0000 0000 0000 0000
000002b0: 0000 0000 0000 0000 0000 0000 0000 0000
000002c0: 0000 0000 0000 0000 0000 0000 0000 0000
000002d0: 0000 0000 0000 0000 0000 0000 0000 0000
000002e0: 0000 0000 0000 0000 0000 0000 0000 0000
000002f0: 0000 0000 0000 0000 0000 0000 0000 0000
00000300: 0000 0000 0000 0000 0000 0000 0000 0000
00000310: 0000 0000 0000 0000 0000 0000 0000 0000
00000320: 0000 0000 0000 0000 0000 0000 0000 0000
00000330: 0000 0000 0000 0000 0000 0000 0000 0000
00000340: 0000 0000 0000 0000 0000 0000 0000 0000
00000350: 0000 0000 0000 0000 0000 0000 0000 0000
00000360: 0000 0000 0000 0000 0000 0000 0000 0000
00000370: 0000 0000 0000 0000 0000 0000 0000 0000
00000380: 0000 0000 0000 0000 0000 0000 0000 0000
00000390: 0000 0000 0000 0000 0000 0000 0000 0000
000003a0: 0000 0000 0000 0000 0000 0000 0000 0000
000003b0: 0000 0000 0000 0000 0000 0000 0000 0000
000003c0: 0000 0000 0000 0000 0000 0000 0000 0000
000003d0: 0000 0000 0000 0000 0000 0000 0000 0000
000003e0: 0000 0000 0000 0000 0000 0000 0000 0000
000003f0: 0000 0000 0000 0000 0000 0000 0000 0000

exp_avg f4 [18]
6e-45 0.00021227193 6e-45 0.0014664272 0.012480188 8.3694266e-38 3.0053868e-10 6e-45
0.0153281875 -0.0044870498 0.006782478 0.019671332 0.002564816 -0.0006308561 -0.007954443 -0.00906023
-0.0003888212 0.0004156901
00000000: 0400 0000 5095 5e39 0400 0000 2235 c03a
00000010: b479 4c3c 64d6 e301 0f39 a52f 0400 0000
00000020: 1423 7b3c 1a08 93bb 8d3f de3b c625 a13c
00000030: 7916 283b 0960 25ba 5a53 02bc 5c71 14bc
00000040: b3da cbb9 fbf0 d939

exp_avg_sq f4 [18]
7e-43 4.351689e-07 7e-43 0.0001860852 0.0068769604 9.789825e-31 2.684118e-08 4.1006028e-34
0.128293 0.0010969077 0.004118075 0.004356095 0.0014918103 0.00036828857 0.0005579265 0.0019490229
0.00038538894 1.7287868e-05
00000000: f401 0000 28a1 e934 f401 0000 de1f 4339
00000010: 2058 e13b 58d9 9e0d 6190 e632 1244 0808
00000020: 3d5f 033e 1dc6 8f3a ebf0 863b 93bd 8e3b
00000030: d988 c33a db16 c139 d041 123a 5b76 ff3a
00000040: 070e ca39 6a05 9137

exp_avg f4 [18]
6e-45 8.699479e-05 -6e-45 0.0033181405 0.0066729314 6.547028e-39 4.8741386e-11 6e-45
0.023788305 -0.0085498355 0.00949489 0.030888624 0.019068955 0.0063691866 0.011057585 0.0055952016
-0.0012752496 0.00037348142
00000000: 0400 0000 f970 b638 0400 0080 2975 593b
00000010: 9ba8 da3b 734a 4700 ec5d 562e 0400 0000
00000020: b1df c23c 9c14 0cbc 7590 1b3c 240a fd3c
00000030: 7f36 9c3c 9cb4 d03b df2a 353c f457 b73b
00000040: 4726 a7ba d4cf c339

exp_avg_sq f4 [18]
7e-43 8.216236e-08 7e-43 0.00070891913 0.0025949785 1.4805855e-32 2.6907947e-09 5.782742e-36
0.07401916 0.010196137 0.003085472 0.051516507 0.04441635 0.002809574 0.002271572 0.0013933135
0.00023215261 2.1020513e-05
00000000: f401 0000 3c71 b033 f401 0000 c2d6 393a
00000010: 8410 2a3b b7c0 990a f6e8 3831 7cf8 f504
00000020: 5b97 973d b30d 273c a135 4a3b f902 533d
00000030: ebed 353d d420 383b a7de 143b d89f b63a
00000040: fe6d 7339 3555 b037

exp_avg f4 [18]
0.004066575 -0.002518098 0.00018231211 6e-45 -6e-45 6e-45 6e-45 6e-45
6e-45 -0.000585991 0.00045626517 -0.000351894 -2.0872603e-06 6.971546e-05 0.0004937701 -0.0018681559
0.0018287776 6e-45
00000000: e740 853b ad06 25bb 092b 3f39 0400 0000
00000010: 0400 0080 0400 0000 0400 0000 0400 0000
00000020: 0400 0000 319d 19ba e036 ef39 6a7e b8b9
00000030: dc12 0cb6 3434 9238 5a70 013a e9dc f4ba
00000040: 98b3 ef3a 0400 0000

exp_avg_sq f4 [18]
6.145323e-05 6.8931404e-05 6.6471284e-06 3.3982528e-13 7e-43 7e-43 7e-43 7e-43
7e-43 8.884829e-06 6.0594e-06 3.3042885e-05 1.0415184e-09 3.640765e-06 3.0478997e-08 7.3418785e-05
6.2130435e-05 2.6749893e-15
00000000: 74e0 8038 448f 9038 660a df36 fc4d bf2a
00000010: f401 0000 f401 0000 f401 0000 f401 0000
00000020: f401 0000 0d10 1537 da51 cb36 8797 0a38
00000030: 2c25 8f30 de53 7436 03e8 0233 69f8 9938
00000040: 064c 8238 d8c0 4027

exp_avg f4 [18]
0.0015860636 -0.0011161321 -0.00014032955 6e-45 -6e-45 6e-45 6e-45 6e-45
6e-45 0.00089195545 0.00011645589 -0.0011629211 0.00017975253 2.304113e-05 0.00016345711 -0.0016893202
0.0016233028 6e-45
00000000: 77e3 cf3a 2e4b 92ba 6d25 13b9 0400 0000
00000010: 0400 0080 0400 0000 0400 0000 0400 0000
00000020: 0400 0000 1ed2 693a c839 f438 286d 98ba
00000030: f47b 3c39 7348 c137 af65 2b39 2e6c ddba
00000040: 01c5 d43a 0400 0000

exp_avg_sq f4 [18]
3.9195725e-06 2.7709522e-05 5.556998e-06 2.0862469e-14 7e-43 7e-43 7e-43 7e-43
7e-43 1.6156457e-05 1.2313062e-05 2.7814229e-05 1.2167836e-05 5.1242574e-07 3.3345735e-09 2.4414301e-05
4.911373e-05 1.7065915e-16
00000000: df84 8336 bf71 e837 4076 ba36 94e9 bb28
00000010: f401 0000 f401 0000 f401 0000 f401 0000
00000020: f401 0000 ba87 8737 3394 4e37 9a52 e937
00000030: 7524 4c37 a18d 0935 7026 6531 50cd cc37
00000040: 77ff 4d38 b1c1 4425

exp_avg f4 [18]
6e-45 -2.0271445e-05 6e-45 -0.0073012304 0.0021531342 0.0023553043 -0.0053058495 -0.001376107
0.007986454 0.0022652317 0.004716157 -0.021626947 0.0022438038 0.00558516 0.00840425 -0.005179414
0.005041393 0.0007007356
00000000: 0400 0000 990c aab7 0400 0000 293f efbb
00000010: 991b 0d3b 735b 1a3b b1dc adbb 7d5e b4ba
00000020: 9ed9 023c 4874 143b fe89 9a3b ff2a b1bc
00000030: c80c 133b b803 b73b fbb1 093c 13b8 a9bb
00000040: 4532 a53b 92b1 373a

exp_avg_sq f4 [18]
7e-43 2.0929758e-06 7e-43 0.00032454732 0.00011781065 0.00016273354 0.000119358556 0.00017217669
0.006948788 0.00022393362 0.0006889568 0.032910388 0.00636692 0.00065117626 0.001494294 0.0005501902
0.0010168069 9.392211e-06
00000000: f401 0000 0d75 0c36 f401 0000 0128 aa39
00000010: 1c11 f738 74a3 2a39 2350 fa38 548a 3439
00000020: a9b2 e33b b9cf 6a39 1c9b 343a 0bcd 063d
00000030: 99a1 d03b b3b3 2a3a 30dc c33a a43a 103a
00000040: 6146 853a 3d93 1d37

exp_avg f4 [18]
6e-45 0.0007901248 6e-45 0.0022480283 0.002327587 0.0008946912 0.0040119262 0.004452803
0.0030174872 -0.00022779909 0.0052745957 0.006840422 0.0056170993 0.0011701415 -0.0045755305 -0.0037799382
-0.0031769546 -0.001078358
00000000: 0400 0000 6120 4f3a 0400 0000 a853 133b
00000010: 6e8a 183b b689 6a3a 7a76 833b d2e8 913b
00000020: 09c1 453b 5add 6eb9 84d6 ac3b 9e25 e03b
00000030: a50f b83b 6f5f 993a 55ee 95bb d7b8 77bb
00000040: 7434 50bb b157 8dba

exp_avg_sq f4 [18]
7e-43 1.4930569e-05 7e-43 5.1833966e-05 9.263302e-05 0.00026780035 0.00018558063 0.0001087047
0.0015654726 8.354849e-05 0.0004188761 0.00026833647 0.00030028998 0.00017394358 0.00032215178 0.0004971522
0.0007273982 4.4339566e-05
00000000: f401 0000 4e7e 7a37 f401 0000 4c68 5938
00000010: f943 c238 8e67 8c39 6c98 4239 64f8 e338
00000020: 8b30 cd3a c136 af38 999c db39 83af 8c39
00000030: 3d70 9d39 a064 3639 7be6 a839 5253 023a
00000040: deae 3e3a 3ff9 3938

exp_avg f4 [18]
6e-45 0.0025370196 6e-45 0.01081374 0.0015920302 0.000103544815 0.02477661 -0.00013110897
-0.004549222 0.0008759463 -0.00058656844 -0.013271179 -0.01606473 -0.0031585824 0.0012047479 -0.010402749
0.010545665 -0.0008062004
00000000: 0400 0000 2044 263b 0400 0000 1d2c 313c
00000010: abab d03a 3326 d938 51f8 ca3c 4c7a 09b9
00000020: a411 95bb c39f 653a f1c3 19ba 5c6f 59bc
00000030: 2e9a 83bc 3800 4fbb a2e8 9d3a 4b70 2abc
00000040: bac7 2c3c 3157 53ba

exp_avg_sq f4 [18]
7e-43 2.5499015e-05 7e-43 0.0015444821 5.8585163e-05 0.00021205061 0.01953533 0.00023833793
0.003945015 5.9618043e-05 0.00075778173 0.03761584 0.041700937 0.0002721439 0.00017378553 0.0017306596
0.0021529435 1.3124663e-05
00000000: f401 0000 b8e6 d537 f401 0000 3870 ca3a
00000010: 57b9 7538 e759 5e39 8e08 a03c 5aea 7939
00000020: 2f45 813b 630e 7a38 dfa5 463a 1113 1a3d
00000030: 9ace 2a3d 89ae 8e39 333a 3639 4dd7 e23a
00000040: 6618 0d3b 0032 5c37

exp_avg f4 [18]
6e-45 0.0007901248 6e-45 0.0022480283 0.002327587 0.0008946912 0.0040119262 0.004452803
0.0030174872 -0.00022779909 0.0052745957 0.006840422 0.0056170993 0.0011701415 -0.0045755305 -0.0037799382
-0.0031769546 -0.001078358
00000000: 0400 0000 6120 4f3a 0400 0000 a853 133b
00000010: 6e8a 183b b689 6a3a 7a76 833b d2e8 913b
00000020: 09c1 453b 5add 6eb9 84d6 ac3b 9e25 e03b
00000030: a50f b83b 6f5f 993a 55ee 95bb d7b8 77bb
00000040: 7434 50bb b157 8dba

exp_avg_sq f4 [18]
7e-43 1.4930569e-05 7e-43 5.1833966e-05 9.263302e-05 0.00026780035 0.00018558063 0.0001087047
0.0015654726 8.354849e-05 0.0004188761 0.00026833647 0.00030028998 0.00017394358 0.00032215178 0.0004971522
0.0007273982 4.4339566e-05
00000000: f401 0000 4e7e 7a37 f401 0000 4c68 5938
00000010: f943 c238 8e67 8c39 6c98 4239 64f8 e338
00000020: 8b30 cd3a c136 af38 999c db39 83af 8c39
00000030: 3d70 9d39 a064 3639 7be6 a839 5253 023a
00000040: deae 3e3a 3ff9 3938

exp_avg f4 [18]
0.001573952 -0.0017636084 0.00012800093 6e-45 6e-45 -6e-45 6e-45 6e-45
-0.00036095604 0.0022017884 -0.00092099886 0.00047429948 0.00141218 7.670693e-07 5.0063234e-05 -0.001714655
-0.001662198 0.00013613545
00000000: 114d ce3a e128 e7ba fd37 0639 0400 0000
00000010: 0400 0000 0400 0080 0400 0000 0400 0000
00000020: b33e bdb9 e14b 103b 306f 71ba 66ab f839
00000030: e618 b93a 9ae8 4d35 fdfa 5138 46be e0ba
00000040: 1cde d9ba 95bf 0e39

exp_avg_sq f4 [18]
1.0704767e-05 0.00012201839 3.375048e-06 2.91471e-11 7e-43 7e-43 7e-43 7e-43
2.4414505e-05 7.34753e-05 7.801787e-06 5.59225e-05 0.0001623541 1.8145806e-07 7.9210685e-07 1.9374616e-05
0.00016098119 2.1728092e-05
00000000: a098 3337 20e4 ff38 e27e 6236 b830 002e
00000010: f401 0000 f401 0000 f401 0000 f401 0000
00000020: c0cd cc37 c016 9a38 6ce4 0237 548e 6a38
00000030: 993d 2a39 d0d6 4234 2ba1 5435 ac86 a237
00000040: 0fcd 2839 b944 b637

exp_avg f4 [18]
0.0015860636 -0.0007499647 -0.00014032955 6e-45 6e-45 6e-45 6e-45 6e-45
0.00091439066 0.002672031 0.00014997399 -0.0011629211 0.00017975253 2.304113e-05 0.00013476296 -0.0016893202
0.0016233028 9.65367e-05
00000000: 77e3 cf3a 4799 44ba 6d25 13b9 0400 0000
00000010: 0400 0000 0400 0000 0400 0000 0400 0000
00000020: b8b3 6f3a 3e1d 2f3b 5642 1d39 286d 98ba
00000030: f47b 3c39 7348 c137 284f 0d39 2e6c ddba
00000040: 01c5 d43a bf73 ca38

exp_avg_sq f4 [18]
3.9191286e-06 2.705697e-05 5.556998e-06 1.8089843e-12 7e-43 7e-43 7e-43 7e-43
7.954442e-05 7.461067e-05 1.0859982e-05 2.7814229e-05 1.2167836e-05 5.1243865e-07 6.642958e-08 2.4414301e-05
4.911373e-05 2.0528996e-05
00000000: 0f81 8336 67f8 e237 4076 ba36 8797 fe2b
00000010: f401 0000 f401 0000 f401 0000 f401 0000
00000020: 16d1 a638 4c78 9c38 4433 3637 9a52 e937
00000030: 7524 4c37 848e 0935 0ca8 8e33 50cd cc37
00000040: 77ff 4d38 af35 ac37

exp_avg f4 [18]
-0.0011156799 0.00073218404 -0.00153186 -0.00069142145 -0.0043350267 -0.00055044977 0.0016786007 -0.0019432695
0.011572276 0.0015953981 0.007634977 0.004773306 0.012613008 -0.0009749036 -0.003957294 -0.005850107
-0.0070467796 0.00024037188
00000000: 013c 92ba 0af0 3f3a b1c8 c8ba 8240 35ba
00000010: d70c 8ebb 0f4c 10ba 7e04 dc3a 4eb5 feba
00000020: a599 3d3c ad1c d13a d42e fa3b 6569 9c3b
00000030: caa6 4e3c ac90 7fba 30ac 81bb 41b2 bfbb
00000040: ace8 e6bb 560c 7c39

exp_avg_sq f4 [18]
0.00013888362 7.866478e-05 9.2743285e-06 2.1745846e-05 0.00076372357 6.2910935e-05 0.00044029078 0.00016928604
0.024648927 0.00014021805 0.0029000835 0.025330491 0.012209559 0.00013766278 0.00032485998 0.00061358296
0.0022516064 1.0023343e-05
00000000: 4aa1 1139 d5f8 a438 f098 1b37 d96a b637
00000010: 9f34 483a 0def 8338 d4d6 e639 6082 3139
00000020: 8cec c93c 7f07 1339 540f 3e3b e481 cf3c
00000030: 9a0a 483c 9259 1039 f851 aa39 dbd8 203a
00000040: b08f 133b ee29 2837

exp_avg f4 [18]
-0.00069210224 0.0015602704 0.001896853 0.0019223337 0.002327587 0.0008946912 0.0040119262 0.004452803
0.0030174872 -0.00015118004 0.0052745957 0.006840422 0.0056170993 0.0011701415 -0.0045755305 -0.0037799382
-0.0031769546 -0.001078358
00000000: 326e 35ba fd81 cc3a d39f f83a d1f6 fb3a
00000010: 6e8a 183b b689 6a3a 7a76 833b d2e8 913b
00000020: 09c1 453b 1586 1eb9 84d6 ac3b 9e25 e03b
00000030: a50f b83b 6f5f 993a 55ee 95bb d7b8 77bb
00000040: 7434 50bb b157 8dba

exp_avg_sq f4 [18]
0.00018541815 0.00027248834 1.0460657e-05 5.4546214e-05 9.263302e-05 0.00026780035 0.00018558063 0.0001087047
0.0015654726 8.3450075e-05 0.0004188761 0.00026833647 0.00030028998 0.00017394358 0.00032215178 0.0004971522
0.0007273982 4.4339566e-05
00000000: ce6c 4239 c4dc 8e39 2e80 2f37 8dc8 6438
00000010: f943 c238 8e67 8c39 6c98 4239 64f8 e338
00000020: 8b30 cd3a eb01 af38 999c db39 83af 8c39
00000030: 3d70 9d39 a064 3639 7be6 a839 5253 023a
00000040: deae 3e3a 3ff9 3938

exp_avg f4 [18]
-0.0027639184 -0.00072317396 -0.0037010873 0.011205906 -0.002579169 0.0015879575 -0.003003764 -0.003372339
0.0016084604 0.0009142317 -0.00767053 -0.0046789306 -0.008759552 0.00067793694 0.0046346057 -0.020827206
-0.025510764 0.00042486683
00000000: db22 35bb 6293 3dba f18d 72bb fa98 373c
00000010: 4707 29bb 0323 d03a ccda 44bb 7602 5dbb
00000020: fad2 d23a 0da9 6f3a 1259 fbbb b751 99bb
00000030: 3984 0fbc 94b7 313a e4dd 973b d19d aabc
00000040: f3fb d0bc a9c0 de39

exp_avg_sq f4 [18]
0.00031527222 0.00019487062 6.0312515e-05 0.002203282 0.00020792622 0.00034316172 0.0012233234 0.0003357618
0.01161554 0.0009757574 0.0006620151 0.0017403925 0.001118402 0.0005966796 0.0006540485 0.0025590786
0.0025170115 7.1374034e-06
00000000: 1f4b a539 2f56 4c39 12f8 7c38 f064 103b
00000010: c506 5a39 63ea b339 ec57 a03a 3009 b039
00000020: 1b4f 3e3c f8c9 7f3a 158b 2d3a e21d e43a
00000030: 5897 923a 7d6a 1c3a 7474 2b3a 37b6 273b
00000040: 72f4 243b d47d ef36

exp_avg f4 [18]
-0.00069210224 0.0015602704 0.001896853 0.0019223337 0.002327587 0.0008946912 0.0040119262 0.004452803
0.0030174872 -0.00015118004 0.0052745957 0.006840422 0.0056170993 0.0011701415 -0.0045755305 -0.0037799382
-0.0031769546 -0.001078358
00000000: 326e 35ba fd81 cc3a d39f f83a d1f6 fb3a
00000010: 6e8a 183b b689 6a3a 7a76 833b d2e8 913b
00000020: 09c1 453b 1586 1eb9 84d6 ac3b 9e25 e03b
00000030: a50f b83b 6f5f 993a 55ee 95bb d7b8 77bb
00000040: 7434 50bb b157 8dba

exp_avg_sq f4 [18]
0.00018541815 0.00027248834 1.0460657e-05 5.4546214e-05 9.263302e-05 0.00026780035 0.00018558063 0.0001087047
0.0015654726 8.3450075e-05 0.0004188761 0.00026833647 0.00030028998 0.00017394358 0.00032215178 0.0004971522
0.0007273982 4.4339566e-05
00000000: ce6c 4239 c4dc 8e39 2e80 2f37 8dc8 6438
00000010: f943 c238 8e67 8c39 6c98 4239 64f8 e338
00000020: 8b30 cd3a eb01 af38 999c db39 83af 8c39
00000030: 3d70 9d39 a064 3639 7be6 a839 5253 023a
00000040: deae 3e3a 3ff9 3938

exp_avg f4 [36, 36]
2.5372753e-06 0.0004591953 3.0004914e-05 -6e-45 6e-45 -6e-45 -6e-45 6e-45
9.0233116e-05 4.7217884e-05 1.7293034e-05 0.00035016585 -0.00012519918 -5.9844524e-08 5.451307e-07 6.3850224e-05
0.0004497206 4.1847245e-05 8.6146465e-05 -2.339216e-05 3.934132e-05 3.175442e-05 5.0012193e-05 -7.614039e-05
-2.7308827e-06 0.00018356215 0.00016445648 0.00014053709 0.00011786564 -0.00028730926 -0.00013224056 1.601526e-05
0.00011529381 8.866878e-05 1.9062614e-05 5.3150194e-05 4.385262e-06 -0.0003740857 8.403243e-05 -6e-45
6e-45 -6e-45 6e-45 6e-45 -7.329344e-05 -2.490717e-05 -7.091233e-05 -7.969352e-05
-0.00012708541 -1.1212437e-06 -4.5176417e-08 0.00020791986 -0.000270244 -1.4527715e-05 -9.197906e-05 1.2070927e-05
5.034381e-05 -5.732217e-05 -0.0001373078 -6.819966e-05 2.9458732e-05 -0.00062978035 -7.4388217e-06 -0.0009671852
-7.5736084e-06 0.00010201867 -0.00016679539 -0.00048117628 -0.0007728052 -0.0009272505 -0.00022880828 -0.00010868619
-4.9415953e-06 0.00031199952 -0.0001611933 -6e-45 -6e-45 -6e-45 6e-45 6e-45
-8.1212005e-05 0.000113848124 8.345444e-05 -6.8029556e-05 -0.00012550956 -4.3584714e-07 -3.8097623e-06 -0.00033976047
0.00015970759 -7.674183e-05 2.7347428e-06 -2.606092e-05 -0.00013406838 0.00019146752 -1.3246611e-05 4.2540623e-06
-7.421072e-05 -0.00019299293 -0.00027317347 7.863586e-05 3.167065e-05 0.000953531 0.00047051668 -0.00022106693
-0.0009356705 -0.0008033474 -0.00022586818 -5.444274e-05 -3.5982544e-06 0.00031825705 -4.3393724e-05 6e-45
-6e-45 -6e-45 6e-45 -6e-45 -2.6703143e-05 5.0851544e-05 2.5858806e-06 0.00012518617
-0.0001061967 6.853732e-07 -2.9282362e-06 -8.419378e-05 0.00023718091 -8.542327e-06 9.702325e-05 -5.8566184e-06
-2.6634334e-05 8.303476e-05 -4.1301505e-06 3.2951426e-05 1.9099865e-05 5.9371556e-05 1.4964615e-05 9.646527e-05
4.6820303e-05 7.1998775e-06 5.431492e-05 2.2643731e-05 -0.0001840902 -0.00026362838 -0.00011384273 -3.1803476e-05
1.29669925e-05 6.759166e-06 -5.4051397e-05 6e-45 6e-45 6e-45 6e-45 -6e-45
-0.00014375195 3.573954e-05 1.0445989e-06 -5.7289602e-05 -1.3651988e-06 3.4835224e-08 -7.0261393e-07 -8.3722116e-05
-2.6960017e-05 -4.6841764e-05 -3.730542e-05 -3.978998e-05 2.695674e-05 -0.00019433728 1.4382009e-05 1.6724366e-06
8.579693e-05 -3.8124363e-05 2.6947027e-05 -0.00034171485 -7.035598e-05 -0.00015354002 -0.00012296159 -7.681076e-05
-3.0827785e-05 4.54011e-05 7.5486474e-05 -1.8170089e-05 4.568587e-07 -8.088084e-06 0.0006366761 -6e-45
6e-45 -6e-45 -6e-45 6e-45 0.0005039182 8.851436e-05 1.2317645e-05 0.0010917301
-0.0003455869 2.6998061e-06 4.02832e-06 0.0013982019 0.000540756 0.00024212782 -0.00012256642 6.1992054e-05
0.00021351501 0.00014626616 -1.1422274e-05 3.3938424e-05 1.740208e-05 -0.0005442317 -0.0002929431 0.0003490579
0.00043887267 0.0014390964 0.0006552378 -0.00034732732 -0.0005334082 0.00031006656 0.00020424699 -2.0566664e-05
1.3669414e-07 9.480036e-05 0.00010739686 6e-45 -6e-45 -6e-45 6e-45 6e-45
1.6249354e-05 7.3004405e-05 8.494254e-05 0.00030132473 -6.51454e-05 -9.2969805e-07 -4.985164e-06 0.00028429358
0.00022048668 1.1162297e-05 -4.834479e-05 -2.2498021e-05 6.707216e-05 -8.921902e-05 2.0976657e-05 -2.9006758e-05
-1.4866852e-05 -4.4870136e-05 6.1692717e-06 -0.00026183517 1.3089114e-05 -2.1376698e-05 -7.79839e-06 -4.8034235e-06
0.00017287867 0.00030513087 0.00010515852 7.5078024e-05 -3.9273727e-06 0.00011613773 -1.3399994e-05 6e-45
00000000: 0f46 2a36 26c0 f039 10b3 fb37 0400 0080
00000010: 0400 0000 0400 0080 0400 0080 0400 0000
00000020: 893b bd38 d10b 4638 8210 9137 7796 b739
00000030: e647 03b9 e083 80b3 1955 1235 54e7 8538
00000040: 7ac8 eb39 2385 2f38 88a9 b438 483a c4b7
00000050: 6c02 2538 0d30 0538 2fc4 5138 90ad 9fb8
00000060: 3544 37b6 977a 4039 f371 2c39 235d 1339
00000070: a22e f738 ffa1 96b9 0eaa 0ab9 8258 8637
00000080: e5c9 f138 b0f3 b938 a7e8 9f37 96ed 5e38
00000090: 1d25 9336 ef20 c4b9 913a b038 0400 0080
000000a0: 0400 0000 0400 0080 0400 0000 0400 0000
000000b0: 1eb5 99b8 beef d0b7 c4b6 94b8 2221 a7b8
000000c0: 3b42 05b9 a47d 96b5 ff07 42b3 1005 5a39
000000d0: 89af 8db9 10bc 73b7 e2e4 c0b8 3d84 4a37
000000e0: 4128 5338 366d 70b8 48fa 0fb9 6a06 8fb8
000000f0: 251e f737 d817 25ba fe9a f9b6 b38a 7dba
00000100: cd20 feb6 dbf2 d538 cce5 2eb9 6346 fcb9
00000110: 1496 4aba ba12 73ba 41ec 6fb9 74ee e3b8
00000120: fbcf a5b6 de93 a339 ff05 29b9 0400 0080
00000130: 0400 0080 0400 0080 0400 0000 0400 0000
00000140: 5d50 aab8 bfc1 ee38 4304 af38 17ab 8eb8
00000150: 379b 03b9 60fe e9b4 38ab 7fb6 e121 b2b9
00000160: 2e77 2739 75f0 a0b8 8686 3736 669d dab7
00000170: b594 0cb9 acc4 4839 c33d 5eb7 1ebe 8e36
00000180: 94a1 9bb8 255e 4ab9 b938 8fb9 4ee9 a438
00000190: 1ad6 0438 62f6 793a aeaf f639 34ce 67b9
000001a0: c947 75ba bb97 52ba 07d7 6cb9 7259 64b8
000001b0: 8a79 71b6 bddb a639 a801 36b8 0400 0000
000001c0: 0400 0080 0400 0080 0400 0000 0400 0080
000001d0: 9000 e0b7 6e49 5538 1789 2d36 6844 0339
000001e0: ebb5 deb8 7dfa 3735 b782 44b6 3191 b0b8
000001f0: c4b3 7839 0451 0fb7 f678 cb38 f883 c4b6
00000200: cc6c dfb7 f322 ae38 b995 8ab6 5335 0a38
00000210: a638 a037 b905 7938 8810 7b37 664d ca38
00000220: eb60 4438 7a96 f136 34d0 6338 0bf3 bd37
00000230: 5608 41b9 9a37 8ab9 dabe eeb8 b964 05b8
00000240: cf8c 5937 cbcc e236 3fb5 62b8 0400 0000
00000250: 0400 0000 0400 0000 0400 0000 0400 0080
00000260: 1fbc 16b9 0ae7 1538 2534 8c35 3e4a 70b8
00000270: e03b b7b5 bc9d 1533 439b 3cb5 f893 afb8
00000280: 3228 e2b7 f677 44b8 6478 1cb8 2ae4 26b8
00000290: 2921 e237 04c7 4bb9 424a 7137 7c78 e035
000002a0: e0ed b338 b9e7 1fb8 4d0c e237 3128 b3b9
000002b0: 148c 93b8 96ff 20b9 40ef 00b9 7615 a1b8
000002c0: 154d 01b8 0f6d 3e38 7e4e 9e38 f86b 98b7
000002d0: 2e46 f534 0eb2 07b7 9ce6 263a 0400 0080
000002e0: 0400 0000 0400 0080 0400 0080 0400 0000
000002f0: 6119 043a c9a0 b938 e2a7 4e37 6218 8f3a
00000300: e32f b5b9 512e 3536 012b 8736 df43 b73a
00000310: 85c1 0d3a b1e3 7d39 2c85 00b9 bb01 8238
00000320: 00e3 5f39 065f 1939 4ba2 3fb7 1b59 0e38
00000330: affa 9137 c5aa 0eba 2896 99b9 c201 b739
00000340: 7e18 e639 10a0 bc3a 44c4 2b3a 7c19 b6b9
00000350: 6bd4 0bba 6e90 a239 222b 5639 9386 acb7
00000360: 33c6 1234 8ecf c638 403a e138 0400 0000
00000370: 0400 0080 0400 0080 0400 0000 0400 0000
00000380: 394f 8837 f119 9938 2e23 b238 1ffb 9d39
00000390: ac9e 88b8 5d90 79b5 3c46 a7b6 3d0d 9539
000003a0: 7132 6739 b345 3b37 d3c5 4ab8 22ba bcb7
000003b0: 17a9 8c38 191b bbb8 07f7 af37 8a53 f3b7
000003c0: a56c 79b7 f132 3cb8 a401 cf36 ec46 89b9
000003d0: 5199 5b37 1c52 b3b7 d4d5 02b7 182d a1b6
000003e0: c446 3539 f9f9 9f39 8d88 dc38 3573 9d38
000003f0: e0c7 83b6 f88e f338 89d0 60b7 0400 0000

exp_avg_sq f4 [36, 36]
1.710078e-08 3.2681492e-06 2.2202451e-07 5.1268154e-18 7e-43 7e-43 7e-43 7e-43
2.0498341e-07 3.953613e-08 5.335544e-08 2.9944147e-06 6.0247544e-07 1.5282986e-10 8.709501e-10 1.1178953e-06
3.307858e-06 9.631493e-08 1.4083597e-07 7.080805e-09 3.374525e-08 7.73107e-07 6.905263e-08 8.9327074e-08
5.6261392e-08 1.0517447e-06 1.0023288e-06 6.9610046e-06 4.5895335e-06 1.7749886e-06 1.3770166e-06 2.6713215e-06
2.3539776e-06 2.0966218e-06 1.1875451e-07 5.7884684e-08 4.68121e-08 2.503778e-06 1.420175e-07 5.3398988e-18
7e-43 7e-43 7e-43 7e-43 1.246529e-07 4.7289983e-08 5.9370066e-08 1.1442168e-06
3.085358e-07 1.2335186e-10 1.0603375e-09 6.979556e-07 1.7802342e-06 4.3770125e-08 1.9029947e-08 2.7694065e-09
5.613688e-08 4.3039282e-08 6.87116e-08 2.8122544e-08 4.3157375e-08 1.1208011e-06 4.4680595e-10 3.4554287e-06
9.805789e-09 3.8151236e-07 1.3516441e-06 2.1622786e-06 2.0510001e-06 4.086437e-06 4.869917e-07 8.0646835e-08
1.3438274e-07 7.256402e-06 1.927007e-06 9.388965e-17 7e-43 7e-43 7e-43 7e-43
6.9477227e-07 1.6509593e-07 2.0397185e-07 4.3507725e-06 1.0043293e-06 2.2791633e-09 4.7336607e-10 9.634753e-06
3.5997857e-06 1.8414778e-07 3.1931103e-07 4.171373e-08 4.150825e-07 3.9170573e-06 7.824497e-07 9.304202e-08
2.1491948e-07 2.0086006e-06 1.8388177e-05 1.0714979e-05 1.9817862e-05 1.9704265e-05 1.0319561e-05 9.306527e-06
1.6103959e-05 3.0008505e-05 4.4212325e-06 3.907938e-07 1.2686833e-08 3.9069296e-06 3.8053636e-07 3.120224e-17
7e-43 7e-43 7e-43 7e-43 2.99013e-07 5.847083e-08 1.2351921e-07 1.823382e-06
2.1106315e-07 1.1778681e-10 7.002787e-10 1.9009649e-06 2.5809409e-06 8.649285e-08 1.4320445e-07 1.0891304e-08
7.156476e-08 7.950287e-07 9.490338e-08 3.7810246e-08 7.954004e-08 1.398769e-06 6.3697775e-07 6.9833027e-06
2.743945e-06 1.7707168e-06 2.142341e-06 2.7610818e-06 2.2915744e-06 5.4197017e-06 9.412789e-07 3.724446e-08
5.71487e-09 5.2956053e-09 2.1172856e-07 7.2288813e-19 7e-43 7e-43 7e-43 7e-43
2.2010623e-07 1.3935934e-08 2.0640756e-10 6.555238e-07 2.2857408e-07 3.547308e-10 8.553029e-11 9.877008e-07
1.754271e-07 4.355031e-08 1.6836985e-08 2.8292812e-08 7.820472e-08 6.431164e-07 2.0760991e-08 4.6935398e-08
2.4900422e-07 2.658413e-07 2.4852173e-07 1.0108959e-05 1.774897e-06 3.3713793e-06 3.84833e-06 2.6570956e-06
1.1906424e-06 2.3470545e-06 1.5144188e-07 5.89992e-08 2.0584581e-07 3.7271684e-06 2.0177247e-06 2.9555064e-17
7e-43 7e-43 7e-43 7e-43 1.2032307e-06 1.3832435e-07 9.685885e-08 7.575229e-06
1.8822238e-06 1.908471e-09 9.698178e-10 1.0056931e-05 4.084899e-06 3.2871898e-07 3.02922e-07 2.8377544e-08
6.374059e-07 1.4662521e-06 5.6373335e-07 3.9189973e-07 3.8116198e-07 6.1721375e-06 8.709311e-06 1.7506569e-05
8.988133e-06 1.1208767e-05 1.01213345e-05 1.3817441e-05 7.0012443e-06 9.244244e-06 1.9722531e-06 2.7430184e-07
1.913888e-08 2.6912448e-06 3.1803313e-07 9.777373e-17 7e-43 7e-43 7e-43 7e-43
3.1059716e-07 5.6127778e-08 1.0083005e-07 1.2960754e-06 3.127359e-07 6.3911454e-10 9.251344e-11 1.5491507e-06
1.7281146e-06 7.2714606e-08 6.415662e-08 1.0923449e-08 1.7030308e-07 7.1640886e-07 1.1983569e-07 5.909657e-08
1.6507765e-07 2.0701734e-06 9.607446e-07 4.508857e-06 2.4650376e-06 2.5471463e-06 2.2346942e-06 3.6179047e-06
2.907218e-06 3.975216e-06 4.6306835e-07 3.8230212e-08 1.3105064e-08 1.1641437e-06 1.5291644e-09 8.071924e-18
00000000: 03e5 9232 6052 5b36 a265 6e34 6725 bd22
00000010: f401 0000 f401 0000 f401 0000 f401 0000
00000020: 6919 5c34 6fce 2933 ed28 6533 a7f3 4836
00000030: ccb9 2135 c809 282f aa67 6f30 970a 9635
00000040: 91fc 5d36 b1d5 ce33 b238 1734 6b4b f331
00000050: 4bef 1033 8287 4f35 164a 9433 14d4 bf33
00000060: 0ea4 7133 ac29 8d35 c187 8635 9392 e936
00000070: cbff 9936 253c ee35 eed1 b835 f444 3336
00000080: 07f9 1d36 b0b3 0c36 fb05 ff33 e29c 7833
00000090: 730e 4933 9406 2836 797d 1834 eb01 c522
000000a0: f401 0000 f401 0000 f401 0000 f401 0000
000000b0: 54d8 0534 e31b 4b33 14fe 7e33 fd92 9935
000000c0: d6a4 a534 76a0 072f 4fbb 9130 255b 3b35
000000d0: 62f0 ee35 c3fd 3b33 4c77 a332 ea4f 3e31
000000e0: 271b 7133 31da 3833 9a8e 9333 2192 f132
000000f0: 095c 3933 6f6e 9635 59a2 f52f d0e3 6736
00000100: 5176 2832 a9d2 cc34 236a b535 aa1b 1136
00000110: eaa3 0936 3a1e 8936 d1b9 0235 1130 ad33
00000120: d94a 1034 057c f336 ba51 0136 ab7e d824
00000130: f401 0000 f401 0000 f401 0000 f401 0000
00000140: 6380 3a35 3945 3134 5b03 5b34 dafc 9136
00000150: 7ecc 8635 779f 1c31 2d1e 0230 f3a4 2137
00000160: d993 7136 28ba 4534 c66d ab34 bb28 3333
00000170: 81d8 de34 446f 8336 8909 5235 64ce c733
00000180: 9ec4 6634 7fcb 0636 4f40 9a37 7cc4 3337
00000190: 893e a637 964a a537 2d22 2d37 3b23 1c37
000001a0: fd16 8737 c6ba fb37 195a 9436 4ace d134
000001b0: 48f5 5932 4518 8336 854c cc34 1ae5 0f24
000001c0: f401 0000 f401 0000 f401 0000 f401 0000
000001d0: 0988 a034 5c21 7b33 b4a0 0434 eeba f435
000001e0: 99a0 6234 0a82 012f bc7d 4030 a824 ff35
000001f0: 3a34 2d36 f2bd b933 bdc3 1934 761c 3b32
00000200: 25af 9933 f569 5535 afcd cb33 ce64 2233
00000210: 99cf aa33 56bd bb35 c7fc 2a35 1d52 ea36
00000220: 9e24 3836 5ea9 ed35 23c5 0f36 064b 3936
00000230: f3c8 1936 e2da b536 32ac 7c35 b8f6 1f33
00000240: 875c c431 a3f4 b531 8157 6334 e25b 5521
00000250: f401 0000 f401 0000 f401 0000 f401 0000
00000260: 5756 6c34 e36a 6f32 90f2 622f 41f7 2f35
00000270: f76d 7534 ec03 c32f 4615 bc2e 2491 8435
00000280: 095d 3c34 120c 3b33 eca0 9032 8d08 f332
00000290: 80f1 a733 9fa2 2c35 e755 b232 0496 4933
000002a0: e1ae 8534 f3b8 8e34 916c 8534 a699 2937
000002b0: ff38 ee35 db3f 6236 e720 8136 8e50 3236
000002c0: 29ce 9f35 1782 1d36 079c 2234 4e66 7d33
000002d0: 7706 5d34 4420 7a36 3f68 0736 764c 0824
000002e0: f401 0000 f401 0000 f401 0000 f401 0000
000002f0: b17e a135 4f86 1434 b700 d033 b92e fe36
00000300: b8a0 fc35 2d26 0331 6e4a 8530 31ba 2837
00000310: 0411 8936 cb7a b034 48a1 a234 e1c2 f332
00000320: 331a 2b35 0acc c435 7653 1735 4a66 d234
00000330: 81a2 cc34 421a cf36 351e 1237 12db 9237
00000340: bdcb 1637 4a0d 3c37 cdce 2937 75d1 6737
00000350: 3bec ea36 ba17 1b37 0d5b 0436 c243 9334
00000360: d866 a432 3c9b 3436 24be aa34 6c73 e124
00000370: f401 0000 f401 0000 f401 0000 f401 0000
00000380: 26c0 a634 2511 7133 e887 d833 d0f4 ad35
00000390: 18e6 a734 b0ad 2f30 7070 cb2e 6aec cf35
000003a0: 91f1 e735 4727 9c33 7ac6 8933 d6a9 3b32
000003b0: 8edc 3634 3e4f 4035 2fac 0034 5ed1 7d33
000003c0: 3340 3134 4fed 0a36 eff2 8035 c94a 9736
000003d0: 066d 2536 a4ef 2a36 c1f7 1536 21cb 7236
000003e0: a019 4336 d862 8536 a19b f834 9032 2433
000003f0: ae24 6132 ac3f 9c35 b02a d230 95e6 1423

exp_avg f4 [36]
9.5065654e-05 -0.0009844027 -0.0005998479 -0.00018652069 -6.887503e-05 0.0005157195 0.0002473534 -2.158063e-05
0.00021995262 -0.0011297979 6e-45 9.37956e-05 -0.0006506059 -0.0006789325 0.00076404953 0.00017008644
0.00033861204 0.0007484441 3.31052e-05 0.00041670128 -5.7920315e-05 5.6519188e-05 0.00039118677 0.00014515272
0.0005843921 -2.8999007e-06 0.0009991125 -0.00034391653 -0.00091685704 0.00064051093 -0.00067398004 -0.00047734682
-8.939375e-05 -0.0017103925 0.00023023746 0.00065760786
00000000: fc5d c738 1307 81ba 1c3f 1dba c494 43b9
00000010: 0071 90b8 5a31 073a 36af 8139 0d08 b5b7
00000020: 15a3 6639 ba15 94ba 0400 0000 21b4 c438
00000030: 6c8d 2aba 64fa 31ba 7f4a 483a 3b59 3239
00000040: bd87 b139 3c33 443a 70da 0a38 b378 da39
00000050: 77ef 72b8 040f 6d38 3318 cd39 2334 1839
00000060: e431 193a ea9b 42b6 a7f4 823a b24f b4b9
00000070: 3c59 70ba f6e7 273a 09ae 30ba 6844 fab9
00000080: e778 bbb8 402f e0ba e66b 7139 5163 2c3a

exp_avg_sq f4 [36]
2.593771e-06 5.254318e-06 1.4185337e-05 5.178402e-06 6.5161917e-06 9.650198e-06 4.809456e-06 6.8007503e-06
2.465311e-06 2.6395992e-05 7e-43 9.379062e-06 6.115069e-06 5.5049104e-06 1.4965945e-05 4.7436215e-06
2.2490785e-06 1.3490437e-05 1.1231547e-05 5.960148e-06 9.939678e-06 4.8958163e-06 5.7063685e-06 3.7810462e-06
1.6892509e-05 3.5340615e-06 1.7568696e-05 3.046369e-05 6.41431e-06 1.0242607e-05 6.2812037e-06 9.180759e-06
7.691706e-06 2.8707378e-05 8.323512e-07 5.838089e-06
00000000: a510 2e36 3f4e b036 8ffd 6d37 22c2 ad36
00000010: a9a5 da36 49e7 2137 ea60 a136 0032 e436
00000020: b871 2536 f66c dd37 f401 0000 c45a 1d37
00000030: 0b30 cd36 d2b6 b836 3f16 7b37 662b 9f36
00000040: e0ee 1636 fc54 6237 216f 3c37 48fd c736
00000050: 98c2 2637 be46 a436 5579 bf36 e1bd 7d36
00000060: 63b4 8d37 b72a 6d36 7d60 9337 478c ff37
00000070: 813a d736 a9d7 2b37 21c3 d236 0f07 1a37
00000080: a00b 0137 a0d0 f037 bd6e 5f35 cde4 c336

exp_avg f4 [36, 36]
0.00034372375 -3.7663e-05 -0.00024052685 -0.00014647868 -3.1217063e-05 -9.250785e-05 -0.0004725676 0.00034394627
-2.2836337e-05 -9.282968e-05 -6e-45 -0.00027347775 -0.00047135455 0.00025230166 0.00037675884 0.00013233261
-0.00038514525 0.00040845622 -0.00024390925 -0.00015299692 -0.00030767106 0.00018220418 -0.00035371623 0.00021606343
0.00045015148 -0.00022097764 0.00017936298 -0.00022872983 3.2893116e-05 0.00013455833 -0.00015333951 -0.00039894893
-7.5485277e-06 -0.0009129849 -0.00013970019 -0.00024379611 -6.485026e-05 -0.00020721322 0.00017244348 -5.2446445e-05
0.00016550523 -6.165047e-05 0.00015047134 2.4182309e-05 4.0973875e-05 0.00016422119 -6e-45 -0.00015495063
0.00010849393 0.00018835734 -8.9255336e-05 -2.9109166e-05 3.871277e-05 -8.5860396e-05 -5.5994842e-05 -1.40570855e-05
-0.00029216832 -0.00010597793 0.00029807928 -5.314838e-05 8.0267164e-05 0.00011103107 0.00028433095 -6.473028e-05
-5.8340414e-05 -2.0843172e-05 -4.852931e-05 -0.00033032184 -5.787155e-05 -0.00036482394 0.00038411576 0.00014606206
5.329372e-05 7.1812356e-05 -0.00020556763 0.00023807888 -0.0002907014 0.000103033155 -0.00014674674 -0.00017325238
0.00013632029 -0.00040343544 -6e-45 0.0001840946 -0.00031296618 6.23871e-06 0.0002592999 -0.000108198365
-0.00015962942 -8.01647e-05 -7.997875e-05 0.0001358811 -0.00017342281 -9.1493304e-05 -0.0003511157 0.0004858614
8.9186455e-05 -0.00028847464 -0.0005640786 0.00012979719 -0.00012140616 0.00031225 -0.0002836399 0.00034967661
-0.00010601443 0.00022183989 9.5440055e-06 -0.00014921345 5.470318e-05 0.00011002903 3.332075e-05 9.510771e-05
4.4359145e-05 -4.3176668e-05 0.000106075946 -1.2481543e-05 -2.2176342e-05 -2.671634e-05 6e-45 -4.601453e-05
5.8764555e-05 -4.2429227e-05 -2.0688281e-05 -8.116261e-05 9.552365e-05 1.1780102e-05 -5.1707237e-05 -5.993234e-05
0.000115219504 1.3163387e-05 4.6938138e-05 1.5222395e-05 -1.0646155e-05 -4.190888e-05 -1.3240516e-05 -6.1449195e-05
5.4833206e-05 -1.1600833e-06 -6.9772614e-05 4.5109624e-05 -5.1761426e-06 0.00017675683 -5.544023e-06 3.7616566e-05
-9.812665e-05 0.00050835294 -3.122868e-05 -0.0002065041 0.00077490835 0.0001646153 0.00026033647 0.0003837737
0.00025524778 0.00039428764 -6e-45 0.00031499416 -0.00056812714 0.0005455839 0.0006829046 -4.7364065e-05
-0.0008905895 0.000112733534 0.0014731252 -0.0009114441 -0.00015410793 0.0004579479 -0.0010242036 0.00020288507
9.1119306e-05 3.721852e-05 -0.0012499598 0.0008804376 0.00014563941 8.467504e-05 -0.0009080526 0.0004079666
3.625898e-05 0.0010458559 0.0007513974 0.0010473798 3.330229e-05 6.0797294e-05 6.283871e-05 -6.655141e-05
5.8200283e-05 8.481652e-05 -0.00013407304 0.0001591371 -4.6436653e-05 5.5458277e-05 -6e-45 6.214071e-05
6.862304e-05 3.842603e-05 -0.00010828738 0.000107899745 7.465923e-05 6.4416534e-05 0.0002461046 5.5240118e-05
9.752961e-06 7.484931e-05 -6.485069e-05 2.8987703e-05 -0.0001762965 0.00012967346 4.7546597e-05 0.00015242094
-0.00012712354 1.06544985e-05 9.414528e-05 -1.3773031e-05 -4.448045e-05 -3.8754304e-05 -3.3311062e-05 -1.865618e-05
-5.3147432e-05 -0.00050289615 -0.0001643148 0.0004153634 0.0012072464 -0.0001607371 0.00040374976 -0.0010232377
-0.0003661816 0.00051705074 -6e-45 -0.00014299057 0.0005249737 -0.001344689 0.0009955362 0.00013046678
-4.880164e-05 -0.00024715695 -0.0011873788 0.0005885578 -0.00032321 -0.0005311112 -0.0010955443 -1.7922523e-05
0.0009537189 -0.0011594908 0.00016916303 0.0011606923 5.8472648e-05 8.24609e-05 -0.00036132135 0.00069868343
0.00012361463 0.00017619244 0.0017758722 -0.0017542666 -0.00034305366 0.00024488402 4.160019e-05 -0.0003601987
00000000: d235 b439 57f8 1db8 ef35 7cb9 1298 19b9
00000010: 11ef 02b8 c600 c2b8 f3c2 f7b9 b053 b439
00000020: a990 bfb7 8ead c2b8 0400 0080 9061 8fb9
00000030: 2320 f7b9 5b47 8439 b787 c539 c4c2 0a39
00000040: 52ed c9b9 1126 d639 e4c1 7fb9 cc6d 20b9
00000050: e94e a1b9 100e 3f39 fd72 b9b9 168f 6239
00000060: 4f02 ec39 3cb6 67b9 6213 3c39 32d7 6fb9
00000070: b7f6 0938 3a18 0d39 c3c9 20b9 052a d1b9
00000080: 5c49 fdb6 6155 6fba 7c7c 12b9 85a3 7fb9
00000090: 3800 88b8 6047 59b9 f2d1 3439 f1f9 5bb8
000000a0: 798b 2d39 584a 81b8 d8c7 1d39 1ddb ca37
000000b0: 5ddb 2b38 ca32 2c39 0400 0080 3e7a 22b9
000000c0: 3c87 e338 ca81 4539 982e bbb8 752f f4b7
000000d0: 855f 2238 f30f b4b8 01dc 6ab8 b9d6 6bb7
000000e0: 2b2e 99b9 7840 deb8 8647 9c39 a3eb 5eb8
000000f0: 1b55 a838 5ad9 e838 4112 9539 cebf 87b8
00000100: 8bb2 74b8 5fd8 aeb7 f38b 4bb8 0c2f adb9
00000110: 1bbb 72b8 d745 bfb9 2563 c939 3c28 1939
00000120: b287 5f38 f799 9638 a48d 57b9 d0a4 7939
00000130: 4869 98b9 8113 d838 07e0 19b9 15ab 35b9
00000140: 33f1 0e39 3084 d3b9 0400 0080 8509 4139
00000150: 9c15 a4b9 1c56 d136 a5f2 8739 8ee8 e2b8
00000160: 3262 27b9 181e a8b8 44ba a7b8 4e7b 0e39
00000170: d5d8 35b9 18e0 bfb8 f415 b8b9 37bb fe39
00000180: 9d09 bb38 693e 97b9 adde 13ba 2b1a 0839
00000190: 709b feb8 7cb5 a339 81b5 94b9 cd54 b739
000001a0: 1054 deb8 b19d 6839 311f 2037 2e76 1cb9
000001b0: 1871 6538 63bf e638 e2c1 0b38 9074 c738
000001c0: 450e 3a38 9818 35b8 1775 de38 d267 51b7
000001d0: 5507 bab7 e71c e0b7 0400 0000 baff 40b8
000001e0: f679 7638 09f6 31b8 bf8b adb7 d835 aab8
000001f0: de53 c838 27a3 4537 39e0 58b8 dc5f 7bb8
00000200: 00a2 f138 51d8 5c37 71df 4438 b063 7f37
00000210: e39c 32b7 51c7 2fb8 9523 5eb7 49de 80b8
00000220: b5fc 6538 29b4 9bb5 e352 92b8 1734 3d38
00000230: baae adb6 cd57 3939 cc06 bab6 7bc6 1d38
00000240: 58c9 cdb8 fd42 053a 8afb 02b8 0689 58b9
00000250: 3823 4b3a 959c 2c39 c57d 8839 3c35 c939
00000260: c7d2 8539 64b8 ce39 0400 0080 cd25 a539
00000270: 5eee 14ba 8405 0f3a f404 333a c7a8 46b8
00000280: 7376 69ba 5b6b ec38 e115 c13a faed 6eba
00000290: 0898 21b9 ba18 f039 923e 86ba 8cbd 5439
000002a0: 4e17 bf38 151b 1c38 b1d5 a3ba 2bcd 663a
000002b0: c8b6 1839 9193 b138 610a 6eba 5ae4 d539
000002c0: c914 1838 1a15 893a 6df9 443a 3c48 893a
000002d0: 10ae 0b38 9900 7f38 47c8 8338 8491 8bb8
000002e0: 141c 7438 86df b138 f595 0cb9 0ade 2639
000002f0: fac4 42b8 df9b 6838 0400 0080 8a51 8238
00000300: b7e9 8f38 a32b 2138 5818 e3b8 3c48 e238
00000310: 5e92 9c38 5d17 8738 9a07 8139 a0b1 6738
00000320: a6a0 2337 6bf8 9c38 7300 88b8 9e2a f337
00000330: 3bdc 38b9 f4f8 0739 c56c 4738 2fd3 1f39
00000340: 774c 05b9 b9c0 3237 dd6f c538 b812 67b7
00000350: 8590 3ab8 1e8c 22b8 7bb7 0bb8 d77f 9cb7
00000360: 9fea 5eb8 cad4 03ba eb4b 2cb9 22c5 d939
00000370: 783c 9e3a 898b 28b9 60ae d339 291e 86ba
00000380: 10fc bfb9 b08a 073a 0400 0080 bdef 15b9
00000390: 639e 093a 4740 b0ba a77c 823a e9cd 0839
000003a0: 5db0 4cb8 d894 81b9 d2a1 9bba 7249 1a3a
000003b0: 8374 a9b9 453a 0bba 5e98 8fba 5358 96b7
000003c0: fe02 7a3a 0efa 97ba 5b61 3139 5f22 983a
000003d0: 8740 7538 dcee ac38 bb6f bdb9 da27 373a
000003e0: 8d9e 0139 4cc0 3839 62c4 e83a 6bef e5ba
000003f0: e2db b3b9 c763 8039 dd7b 2e38 0dd9 bcb9

exp_avg_sq f4 [36, 36]
1.2674356e-06 1.993039e-06 3.945772e-06 4.210956e-06 6.435669e-07 3.8665186e-07 2.7713593e-06 9.956449e-07
1.1680164e-06 1.1946402e-05 7e-43 1.1200972e-06 4.089132e-06 2.2641595e-06 6.4700166e-06 3.038075e-06
4.628271e-06 1.2360858e-06 1.5715441e-06 1.2856484e-06 2.3835703e-06 6.271963e-07 1.4490329e-06 1.1127044e-06
6.2871977e-06 5.138516e-07 1.0282259e-05 9.878996e-07 9.404822e-07 5.7480025e-07 4.773278e-06 6.8762915e-06
6.307902e-07 2.2290376e-05 1.5389453e-07 6.4822007e-07 1.4960517e-07 7.033175e-07 2.7822716e-06 3.2424538e-07
2.1627834e-06 2.3311107e-07 7.6281543e-07 1.2495267e-06 4.9351803e-07 1.0460881e-06 7e-43 1.0927444e-06
1.6992507e-07 3.0317242e-06 7.715036e-06 2.8987927e-06 8.7251055e-07 1.3486566e-07 2.3163661e-06 2.7154254e-06
1.2496794e-06 3.6253147e-07 3.816429e-06 1.4822827e-07 3.8016224e-06 2.0178147e-06 1.8390064e-06 9.946304e-06
8.3982775e-07 5.9181424e-09 5.4926045e-07 1.955729e-06 2.6112167e-07 3.7566854e-06 3.2557864e-06 9.569485e-06
7.970636e-06 3.8991348e-06 2.3090004e-05 1.3876312e-05 4.478678e-06 1.176218e-06 1.1619887e-06 1.9599536e-06
8.099311e-06 4.9667244e-05 7e-43 1.5532312e-06 2.3309765e-05 2.6820046e-06 2.6393032e-05 2.2171714e-06
3.600307e-06 2.4718033e-06 1.8561163e-05 1.2095653e-06 3.0245512e-06 2.0584114e-06 6.2767945e-06 6.0580523e-06
1.1023803e-05 2.0505891e-05 4.329928e-05 3.3861947e-06 1.6604301e-06 1.4073221e-06 1.2004297e-05 1.4608486e-05
2.4820445e-06 1.6496602e-05 3.7485073e-09 1.1394747e-05 5.96469e-08 7.377074e-08 1.1281674e-07 6.663413e-08
1.453531e-07 5.1594892e-08 2.5847262e-07 2.618239e-07 6.9807285e-08 5.0808083e-08 7e-43 1.7676412e-07
1.5851425e-07 4.2565864e-07 2.5584427e-07 7.162933e-08 1.5103113e-07 1.0768861e-07 5.093873e-07 7.442614e-08
2.0864164e-07 5.374798e-08 3.3414875e-07 4.4713815e-08 2.2267766e-07 3.4302047e-07 2.198314e-07 6.9433014e-07
1.2459616e-07 2.9097302e-09 5.952442e-08 5.428135e-07 3.851196e-08 1.3223371e-06 2.2468717e-08 8.784308e-07
8.638417e-07 4.9164078e-06 3.8834496e-06 1.0037819e-06 1.8570954e-05 2.7343465e-06 1.273191e-06 8.360577e-06
2.617144e-06 7.976421e-06 7e-43 5.5359505e-06 1.26448385e-05 1.26128125e-05 2.0819947e-05 1.4904114e-06
2.198261e-05 4.3627668e-07 9.7909186e-05 1.1417066e-05 2.7008278e-07 1.4059745e-05 3.4077064e-05 1.2896232e-06
2.939587e-06 2.3233863e-06 4.342282e-05 4.466129e-05 8.241802e-07 9.75375e-08 2.017714e-05 1.2477308e-05
1.4919285e-06 2.583294e-05 1.8166818e-05 3.348743e-05 1.6625796e-07 1.6167921e-07 1.5898382e-07 2.1322735e-07
5.598119e-08 4.0754667e-08 6.4754474e-08 1.2613208e-07 1.14218125e-07 1.5478543e-07 7e-43 8.413428e-08
1.373076e-07 2.852498e-07 1.0861777e-06 5.2365084e-07 4.0128128e-07 4.652316e-08 1.0841324e-06 3.1688003e-07
2.7211107e-07 8.4196486e-08 1.153254e-06 1.5933837e-07 4.3240982e-07 6.869601e-07 5.10903e-07 9.0622285e-07
1.0431376e-07 2.2890996e-08 5.3315073e-08 5.0463363e-08 1.3632595e-07 5.8799867e-07 2.5298727e-08 1.934649e-06
4.5613174e-06 2.7916956e-06 1.9026791e-05 5.7943917e-06 1.7977023e-05 3.063301e-06 6.7713663e-06 2.8739557e-06
3.5966682e-06 2.2002237e-06 7e-43 4.954676e-06 2.9736966e-06 4.887524e-06 2.353757e-05 6.1000874e-06
4.476965e-06 1.2731243e-06 2.2802646e-05 1.335037e-05 2.4270728e-06 2.5260456e-06 3.842119e-06 9.1276746e-07
1.705963e-05 7.2704747e-06 1.0096595e-05 1.4990278e-05 8.63514e-06 1.7799435e-07 6.611924e-06 1.6270058e-05
2.3017953e-06 1.4466418e-05 2.671901e-05 8.235498e-06 4.4115137e-07 4.3414428e-07 4.8388125e-07 6.438983e-07
00000000: c11c aa35 26c0 0536 ec65 8436 d64b 8d36
00000010: 95c1 2c35 0795 cf34 97fb 3936 19a2 8535
00000020: bdc4 9c35 686d 4837 f401 0000 3f56 9635
00000030: 6035 8936 f7f1 1736 0519 d936 bbe1 4b36
00000040: 8c4c 9b36 96e7 a535 d8ed d235 8b8e ac35
00000050: 6df5 1f36 9a5c 2835 647c c235 3b58 9535
00000060: 9ef6 d236 9def 0935 f781 2c37 f997 8435
00000070: 7275 7c35 f94b 1a35 252a a036 e5ba e636
00000080: 9353 2935 38fc ba37 353e 2534 5801 2e35
00000090: 28a3 2034 9ccb 3c35 10b7 3a36 f213 ae34
000000a0: 5624 1136 154d 7a34 47c4 4c35 69b5 a735
000000b0: 4d7a 0435 5067 8c35 f401 0000 69aa 9235
000000c0: a674 3634 a074 4b36 d46f 0137 e188 4236
000000d0: 7836 6a35 97cf 1034 de72 1b36 a73a 3636
000000e0: a8ba a735 f2a1 c234 e00e 8036 ad28 1f34
000000f0: 601f 7f36 cb69 0736 c7d3 f635 0ddf 2637
00000100: 8670 6135 8858 cb31 e470 1335 2b3f 0336
00000110: 4a30 8c34 5d1b 7c36 fc7d 5a36 a08c 2037
00000120: 9fb9 0537 50d5 8236 68b1 c137 4ece 6837
00000130: 8d47 9636 8bde 9d35 a1f5 9b35 bf87 0336
00000140: 47e2 0737 cc51 5038 f401 0000 9e78 d035
00000150: 5789 c337 7dfc 3336 9b66 dd37 b7ca 1436
00000160: ce9c 7136 42e1 2536 cbb3 9b37 5958 a235
00000170: 65f9 4a36 3d23 0a36 419d d236 4646 cb36
00000180: e0f2 3837 1104 ac37 3f9c 3538 623e 6336
00000190: f2db de35 38e3 bc35 1066 4937 f816 7537
000001a0: 3391 2636 2f62 8a37 38cc 8031 112c 3f37
000001b0: 3b17 8033 e56b 9e33 a945 f233 8018 8f33
000001c0: 5b12 1c34 2f99 5d33 35c4 8a34 ce90 8c34
000001d0: f6e8 9533 1438 5a33 f401 0000 8dcc 3d34
000001e0: 1134 2a34 1486 e434 f85a 8934 a4d2 9933
000001f0: 1f2b 2234 7042 e733 d4bc 0835 34d4 9f33
00000200: fa06 6034 87d8 6633 0e65 b334 5c0b 4033
00000210: 2b19 6f34 6028 b834 cc0a 6c34 0162 3a35
00000220: bbc8 0534 84f4 4731 cba7 7f33 dcb5 1135
00000230: 5968 2533 287b b135 3b01 c132 4ecd 6b35
00000240: c0e2 6735 9ff7 a436 944e 8236 afb9 8635
00000250: d2c8 9b37 b77f 3736 82e2 aa35 6844 0c37
00000260: 31a2 2f36 78d2 0537 f401 0000 74c1 b936
00000270: 2b25 5437 9e9b 5337 7fa6 ae37 250a c835
00000280: 4c67 b837 6939 ea34 9854 cd38 ed8b 3f37
00000290: e5ff 9034 25e2 6b37 f8ed 0e38 1e17 ad35
000002a0: b845 4536 79eb 1b36 e620 3638 b252 3b38
000002b0: 3b3d 5d35 cf75 d133 1442 a937 a155 5137
000002c0: 463e c835 d1b3 d837 f264 9837 db74 0c38
000002d0: a484 3234 0b9a 2d34 24b5 2a34 7df3 6434
000002e0: f86f 7033 3b0a 2f33 260f 8b33 ec6e 0734
000002f0: 1448 f533 1833 2634 f401 0000 4fad b433
00000300: d36e 1334 6f24 9934 c8c8 9135 0391 0c35
00000310: ae6f d734 c1d0 4733 8182 9135 a91f aa34
00000320: a916 9234 82cf b433 81c9 9a35 9916 2b34
00000330: f425 e834 8a67 3835 fd24 0935 2943 7335
00000340: 1903 e033 d5a1 c432 8bfc 6433 0ebd 5833
00000350: fe60 1234 f6d6 1d35 7d50 d932 04d5 0136
00000360: 6b0d 9936 f758 3b36 b99b 9f37 726d c236
00000370: 5dcd 9637 1c93 4d36 9835 e336 2fde 4036
00000380: 4a5e 7136 8ea7 1336 f401 0000 5840 a636
00000390: b88f 4736 83ff a336 8c72 c537 5aaf cc36
000003a0: d638 9636 38e0 aa35 4f48 bf37 67fb 5f37
000003b0: cbe0 2236 2285 2936 8deb 8036 e704 7535
000003c0: 471b 8f37 e7f4 f336 8c64 2937 c17e 7b37
000003d0: a5df 1037 b71e 3f34 ffdb dd36 af7b 8837
000003e0: 8b78 1a36 cbb4 7237 a322 e037 322b 0a37
000003f0: 62d7 ec34 5614 e934 11e4 0135 5bd8 2c35
