input/checkpoints/checkpoint-26.pth.tar (torch, 546829 bytes, 144 tensors)

exp_avg f4 [100, 18]
0.0 0.0 0.0 0.0 0.0 0.0 0.0 0.0
0.0 0.0 0.0 0.0 0.0 0.0 0.0 0.0
0.0 0.0 0.0 0.0 0.0 0.0 0.0 0.0
0.0 0.0 0.0 0.0 0.0 0.0 0.0 0.0
0.0 0.0 0.0 0.0 0.0 0.0 0.0 0.0
0.0 0.0 0.0 0.0 0.0 0.0 0.0 0.0
0.0 0.0 0.0 0.0 0.0 0.0 -6e-45 6e-45
0.00020521462 -6e-45 -6e-45 -6e-45 6e-45 -6e-45 6e-45 6e-45
6e-45 -0.0003694132 6e-45 6e-45 6e-45 0.0008888981 0.00015403962 6e-45
0.0 0.0 0.0 0.0 0.0 0.0 0.0 0.0
0.0 0.0 0.0 0.0 0.0 0.0 0.0 0.0
0.0 0.0 0.0 0.0 0.0 0.0 0.0 0.0
0.0 0.0 0.0 0.0 0.0 0.0 0.0 0.0
0.0 0.0 0.0 0.0 0.0 0.0 0.0 0.0
0.0 0.0 0.0 0.0 0.0 0.0 0.0 0.0
0.0 0.0 0.0 0.0 0.0 0.0 0.0 0.0
0.0 0.0 0.0 0.0 0.0 0.0 0.0 0.0
0.0 0.0 0.0 0.0 0.0 0.0 0.0 0.0
0.0001582065 6e-45 6e-45 -6e-45 -6e-45 6e-45 6e-45 6e-45
6e-45 6e-45 6e-45 -6e-45 0.00064047286 -2.4029207e-05 -3.3680568e-05 6e-45
-6e-45 6e-45 0.0 0.0 0.0 0.0 0.0 0.0
0.0 0.0 0.0 0.0 0.0 0.0 0.0 0.0
0.0 0.0 0.0 0.0 0.0 0.0 0.0 0.0
0.0 0.0 0.0 0.0 0.0 0.0 0.0 0.0
0.0 0.0 0.0 0.0 0.0 0.0 0.0 0.0
0.0 0.0 0.0 0.0 0.0 0.0 0.0 0.0
0.0 0.0 0.0 0.0 0.0 0.0 0.0 0.0
0.0 0.0 0.0 0.0 0.0 0.0 0.0 0.0
0.0 0.0 0.0 0.0 0.0 0.0 0.0 0.0
0.0 0.0 0.0 0.0 0.0 0.0 0.0 0.0
0.0 0.0 0.0 0.0 0.0 0.0 0.0 0.0
0.0 0.0 0.0 0.0 0.0 0.0 0.0 0.0
00000000: 0000 0000 0000 0000 0000 0000 0000 0000
00000010: 0000 0000 0000 0000 0000 0000 0000 0000
00000020: 0000 0000 0000 0000 0000 0000 0000 0000
00000030: 0000 0000 0000 0000 0000 0000 0000 0000
00000040: 0000 0000 0000 0000 0000 0000 0000 0000
00000050: 0000 0000 0000 0000 0000 0000 0000 0000
00000060: 0000 0000 0000 0000 0000 0000 0000 0000
00000070: 0000 0000 0000 0000 0000 0000 0000 0000
00000080: 0000 0000 0000 0000 0000 0000 0000 0000
00000090: 0000 0000 0000 0000 0000 0000 0000 0000
000000a0: 0000 0000 0000 0000 0000 0000 0000 0000
000000b0: 0000 0000 0000 0000 0000 0000 0000 0000
000000c0: 0000 0000 0000 0000 0000 0000 0000 0000
000000d0: 0000 0000 0000 0000 0400 0080 0400 0000
000000e0: e12e 5739 0400 0080 0400 0080 0400 0080
000000f0: 0400 0000 0400 0080 0400 0000 0400 0000
00000100: 0400 0000 cdad c1b9 0400 0000 0400 0000
00000110: 0400 0000 f104 693a b285 2139 0400 0000
00000120: 0000 0000 0000 0000 0000 0000 0000 0000
00000130: 0000 0000 0000 0000 0000 0000 0000 0000
00000140: 0000 0000 0000 0000 0000 0000 0000 0000
00000150: 0000 0000 0000 0000 0000 0000 0000 0000
00000160: 0000 0000 0000 0000 0000 0000 0000 0000
00000170: 0000 0000 0000 0000 0000 0000 0000 0000
00000180: 0000 0000 0000 0000 0000 0000 0000 0000
00000190: 0000 0000 0000 0000 0000 0000 0000 0000
000001a0: 0000 0000 0000 0000 0000 0000 0000 0000
000001b0: 0000 0000 0000 0000 0000 0000 0000 0000
000001c0: 0000 0000 0000 0000 0000 0000 0000 0000
000001d0: 0000 0000 0000 0000 0000 0000 0000 0000
000001e0: 0000 0000 0000 0000 0000 0000 0000 0000
000001f0: 0000 0000 0000 0000 0000 0000 0000 0000
00000200: 0000 0000 0000 0000 0000 0000 0000 0000
00000210: 0000 0000 0000 0000 0000 0000 0000 0000
00000220: 0000 0000 0000 0000 0000 0000 0000 0000
00000230: 0000 0000 0000 0000 0000 0000 0000 0000
00000240: 3ce4 2539 0400 0000 0400 0000 0400 0080
00000250: 0400 0080 0400 0000 0400 0000 0400 0000
00000260: 0400 0000 0400 0000 0400 0000 0400 0080
00000270: 68e5 273a 5492 c9b7 3c44 0db8 0400 0000
00000280: 0400 0080 0400 0000 0000 0000 0000 0000
00000290: 0000 0000 0000 0000 0000 0000 0000 0000
000002a0: 0000 0000 0000 0000 0000 0000 0000 0000
000002b0: 0000 0000 0000 0000 0000 0000 0000 0000
000002c0: 0000 0000 0000 0000 0000 0000 0000 0000
000002d0: 0000 0000 0000 0000 0000 0000 0000 0000
000002e0: 0000 0000 0000 0000 0000 0000 0000 0000
000002f0: 0000 0000 0000 0000 0000 0000 0000 0000
00000300: 0000 0000 0000 0000 0000 0000 0000 0000
00000310: 0000 0000 0000 0000 0000 0000 0000 0000
00000320: 0000 0000 0000 0000 0000 0000 0000 0000
00000330: 0000 0000 0000 0000 0000 0000 0000 0000
00000340: 0000 0000 0000 0000 0000 0000 0000 0000
00000350: 0000 0000 0000 0000 0000 0000 0000 0000
00000360: 0000 0000 0000 0000 0000 0000 0000 0000
00000370: 0000 0000 0000 0000 0000 0000 0000 0000
00000380: 0000 0000 0000 0000 0000 0000 0000 0000
00000390: 0000 0000 0000 0000 0000 0000 0000 0000
000003a0: 0000 0000 0000 0000 0000 0000 0000 0000
000003b0: 0000 0000 0000 0000 0000 0000 0000 0000
000003c0: 0000 0000 0000 0000 0000 0000 0000 0000
000003d0: 0000 0000 0000 0000 0000 0000 0000 0000
000003e0: 0000 0000 0000 0000 0000 0000 0000 0000
000003f0: 0000 0000 0000 0000 0000 0000 0000 0000

exp_avg_sq f4 [100, 18]
0.0 0.0 0.0 0.0 0.0 0.0 0.0 0.0
0.0 0.0 0.0 0.0 0.0 0.0 0.0 0.0
0.0 0.0 0.0 0.0 0.0 0.0 0.0 0.0
0.0 0.0 0.0 0.0 0.0 0.0 0.0 0.0
0.0 0.0 0.0 0.0 0.0 0.0 0.0 0.0
0.0 0.0 0.0 0.0 0.0 0.0 0.0 0.0
0.0 0.0 0.0 0.0 0.0 0.0 7e-43 1.7274939e-31
5.621173e-06 7e-43 7e-43 7e-43 7e-43 7e-43 7e-43 7e-43
7e-43 2.4617439e-05 7e-43 7e-43 2.5159896e-16 2.5313922e-05 1.3487888e-05 7e-43
0.0 0.0 0.0 0.0 0.0 0.0 0.0 0.0
0.0 0.0 0.0 0.0 0.0 0.0 0.0 0.0
0.0 0.0 0.0 0.0 0.0 0.0 0.0 0.0
0.0 0.0 0.0 0.0 0.0 0.0 0.0 0.0
0.0 0.0 0.0 0.0 0.0 0.0 0.0 0.0
0.0 0.0 0.0 0.0 0.0 0.0 0.0 0.0
0.0 0.0 0.0 0.0 0.0 0.0 0.0 0.0
0.0 0.0 0.0 0.0 0.0 0.0 0.0 0.0
0.0 0.0 0.0 0.0 0.0 0.0 0.0 0.0
2.0990324e-06 7e-43 7e-43 7e-43 7e-43 7e-43 7e-43 7e-43
7e-43 7e-43 7e-43 7e-43 1.4205433e-05 5.075951e-07 5.7193326e-08 7e-43
7e-43 1.2748481e-17 0.0 0.0 0.0 0.0 0.0 0.0
0.0 0.0 0.0 0.0 0.0 0.0 0.0 0.0
0.0 0.0 0.0 0.0 0.0 0.0 0.0 0.0
0.0 0.0 0.0 0.0 0.0 0.0 0.0 0.0
0.0 0.0 0.0 0.0 0.0 0.0 0.0 0.0
0.0 0.0 0.0 0.0 0.0 0.0 0.0 0.0
0.0 0.0 0.0 0.0 0.0 0.0 0.0 0.0
0.0 0.0 0.0 0.0 0.0 0.0 0.0 0.0
0.0 0.0 0.0 0.0 0.0 0.0 0.0 0.0
0.0 0.0 0.0 0.0 0.0 0.0 0.0 0.0
0.0 0.0 0.0 0.0 0.0 0.0 0.0 0.0
0.0 0.0 0.0 0.0 0.0 0.0 0.0 0.0
00000000: 0000 0000 0000 0000 0000 0000 0000 0000
00000010: 0000 0000 0000 0000 0000 0000 0000 0000
00000020: 0000 0000 0000 0000 0000 0000 0000 0000
00000030: 0000 0000 0000 0000 0000 0000 0000 0000
00000040: 0000 0000 0000 0000 0000 0000 0000 0000
00000050: 0000 0000 0000 0000 0000 0000 0000 0000
00000060: 0000 0000 0000 0000 0000 0000 0000 0000
00000070: 0000 0000 0000 0000 0000 0000 0000 0000
00000080: 0000 0000 0000 0000 0000 0000 0000 0000
00000090: 0000 0000 0000 0000 0000 0000 0000 0000
000000a0: 0000 0000 0000 0000 0000 0000 0000 0000
000000b0: 0000 0000 0000 0000 0000 0000 0000 0000
000000c0: 0000 0000 0000 0000 0000 0000 0000 0000
000000d0: 0000 0000 0000 0000 f401 0000 d53d 600c
000000e0: 829d bc36 f401 0000 f401 0000 f401 0000
000000f0: f401 0000 f401 0000 f401 0000 f401 0000
00000100: f401 0000 8c81 ce37 f401 0000 f401 0000
00000110: 7409 9125 3c59 d437 0a4a 6237 f401 0000
00000120: 0000 0000 0000 0000 0000 0000 0000 0000
00000130: 0000 0000 0000 0000 0000 0000 0000 0000
00000140: 0000 0000 0000 0000 0000 0000 0000 0000
00000150: 0000 0000 0000 0000 0000 0000 0000 0000
00000160: 0000 0000 0000 0000 0000 0000 0000 0000
00000170: 0000 0000 0000 0000 0000 0000 0000 0000
00000180: 0000 0000 0000 0000 0000 0000 0000 0000
00000190: 0000 0000 0000 0000 0000 0000 0000 0000
000001a0: 0000 0000 0000 0000 0000 0000 0000 0000
000001b0: 0000 0000 0000 0000 0000 0000 0000 0000
000001c0: 0000 0000 0000 0000 0000 0000 0000 0000
000001d0: 0000 0000 0000 0000 0000 0000 0000 0000
000001e0: 0000 0000 0000 0000 0000 0000 0000 0000
000001f0: 0000 0000 0000 0000 0000 0000 0000 0000
00000200: 0000 0000 0000 0000 0000 0000 0000 0000
00000210: 0000 0000 0000 0000 0000 0000 0000 0000
00000220: 0000 0000 0000 0000 0000 0000 0000 0000
00000230: 0000 0000 0000 0000 0000 0000 0000 0000
00000240: 1add 0c36 f401 0000 f401 0000 f401 0000
00000250: f401 0000 f401 0000 f401 0000 f401 0000
00000260: f401 0000 f401 0000 f401 0000 f401 0000
00000270: df53 6e37 ab41 0835 baa4 7533 f401 0000
00000280: f401 0000 002b 6b23 0000 0000 0000 0000
00000290: 0000 0000 0000 0000 0000 0000 0000 0000
000002a0: 0000 0000 0000 0000 0000 0000 0000 0000
000002b0: 0000 0000 0000 0000 0000 0000 0000 0000
000002c0: 0000 0000 0000 0000 0000 0000 0000 0000
000002d0: 0000 0000 0000 0000 0000 0000 0000 0000
000002e0: 0000 0000 0000 0000 0000 0000 0000 0000
000002f0: 0000 0000 0000 0000 0000 0000 0000 0000
00000300: 0000 0000 0000 0000 0000 0000 0000 0000
00000310: 0000 0000 0000 0000 0000 0000 0000 0000
00000320: 0000 0000 0000 0000 0000 0000 0000 0000
00000330: 0000 0000 0000 0000 0000 0000 0000 0000
00000340: 0000 0000 0000 0000 0000 0000 0000 0000
00000350: 0000 0000 0000 0000 0000 0000 0000 0000
00000360: 0000 0000 0000 0000 0000 0000 0000 0000
00000370: 0000 0000 0000 0000 0000 0000 0000 0000
00000380: 0000 0000 0000 0000 0000 0000 0000 0000
00000390: 0000 0000 0000 0000 0000 0000 0000 0000
000003a0: 0000 0000 0000 0000 0000 0000 0000 0000
000003b0: 0000 0000 0000 0000 0000 0000 0000 0000
000003c0: 0000 0000 0000 0000 0000 0000 0000 0000
000003d0: 0000 0000 0000 0000 0000 0000 0000 0000
000003e0: 0000 0000 0000 0000 0000 0000 0000 0000
000003f0: 0000 0000 0000 0000 0000 0000 0000 0000

exp_avg f4 [18]
6e-45 0.00025542214 6e-45 0.0014596832 -0.010802817 2.7332815e-37 2.5363155e-05 -6e-45
-0.0809967 0.0029061313 0.004200158 -0.0061781593 0.0036772497 -0.00037004933 0.0045569357 -2.9546905e-05
-0.0042741573 4.37626e-05
00000000: 0400 0000 2eea 8539 0400 0000 d752 bf3a
00000010: 4cfe 30bc 7b04 ba02 f6c2 d437 0400 0080
00000020: 99e1 a5bd cb74 3e3b 7ba1 893b 2872 cabb
00000030: 03fe 703b 2e03 c2b9 5952 953b 7fdb f7b7
00000040: 3b0e 8cbb bc8d 3738

exp_avg_sq f4 [18]
7e-43 1.196513e-06 7e-43 0.00015454988 0.006931671 1.4419897e-34 8.4251915e-06 7e-43
0.11841105 0.0010330082 0.003945571 0.004705687 0.0014238963 0.00034416685 0.0005132154 0.0017199877
0.00037208752 1.260751e-05
00000000: f401 0000 e097 a035 f401 0000 ab0e 2239
00000010: 1223 e33b 5eac 3f07 ec59 0d37 f401 0000
00000020: 7e81 f23d 0166 873a d949 813b 2a32 9a3b
00000030: 08a2 ba3a 4b71 b439 4d89 063a 3671 e13a
00000040: be14 c339 d884 5337

exp_avg f4 [18]
6e-45 0.00010029523 -6e-45 0.0040046433 -0.0045545567 2.1772009e-38 4.203758e-06 -6e-45
-0.058952246 -0.016441226 -0.00014427329 -0.043520834 -0.032392528 0.00069578725 -0.0068328613 -0.000739442
0.003054984 -0.00013051888
00000000: 0400 0000 9755 d238 0400 0080 6239 833b
00000010: 643e 95bb 8113 ed00 020e 8d36 0400 0080
00000020: e977 71bd c0af 86bc 1148 17b9 e742 32bd
00000030: 07ae 04bd 7e65 363a 32e6 dfbb 1dd7 41ba
00000040: 2036 483b e5db 08b9

exp_avg_sq f4 [18]
7e-43 2.6685368e-07 7e-43 0.00059535884 0.0023937956 2.1749655e-36 9.759698e-07 7e-43
0.07066941 0.008838612 0.003099048 0.051637687 0.041733317 0.0027283786 0.0021601724 0.0012025012
0.00023276497 1.8615872e-05
00000000: f401 0000 1744 8f34 f401 0000 db11 1c3a
00000010: 3ae1 1c3b 8e06 3904 11fe 8235 f401 0000
00000020: 20bb 903d d3cf 103c 6619 4b3b 0a82 533d
00000030: 8ef0 2a3d 99ce 323b ae91 0d3b 3f9d 9d3a
00000040: 5f12 7439 4829 9c37

exp_avg f4 [18]
0.00057426 0.0020446293 -4.3518125e-05 6e-45 -6e-45 6e-45 6e-45 6e-45
6e-45 -0.0008170893 -0.00060089916 0.0018902182 1.794016e-05 -7.057315e-05 6e-45 0.0035360882
-0.0005086623 6e-45
00000000: f089 163a 30ff 053b 3b87 36b8 0400 0000
00000010: 0400 0080 0400 0000 0400 0000 0400 0000
00000020: 0400 0000 ef31 56ba a985 1dba 33c1 f73a
00000030: 337e 9637 ac00 94b8 0400 0000 b7bd 673b
00000040: c057 05ba 0400 0000

exp_avg_sq f4 [18]
2.5523466e-05 6.3194886e-05 6.8928366e-06 4.7139022e-24 7e-43 7e-43 7e-43 7e-43
7e-43 6.5222985e-06 6.315156e-06 2.9727193e-05 1.5937422e-09 4.5222464e-06 3.3919636e-15 5.602808e-05
6.315776e-05 2.256472e-16
00000000: 3a1b d637 7f87 8438 0449 e736 3a5c b618
00000010: f401 0000 f401 0000 f401 0000 f401 0000
00000020: f401 0000 1eda da36 c7e6 d336 a95e f937
00000030: d20a db30 cdbd 9736 af6a 7427 b1ff 6a38
00000040: 9073 8438 a613 8225

exp_avg f4 [18]
0.0001582065 0.0008656191 0.00020521448 6e-45 -6e-45 6e-45 6e-45 6e-45
6e-45 0.0011092287 -0.0006397807 0.0005731306 0.00064047263 -2.4029207e-05 6e-45 0.00088889827
-0.0002788455 6e-45
00000000: 3ce4 2539 b7ea 623a d82e 5739 0400 0000
00000010: 0400 0080 0400 0000 0400 0000 0400 0000
00000020: 0400 0000 8a63 913a f5b6 27ba 253e 163a
00000030: 64e5 273a 5492 c9b7 0400 0000 f404 693a
00000040: 0232 92b9 0400 0000

exp_avg_sq f4 [18]
2.0990326e-06 2.7152495e-05 5.621173e-06 2.8939666e-25 7e-43 7e-43 7e-43 7e-43
7e-43 1.5599575e-05 1.3663626e-05 2.7516055e-05 1.4205433e-05 5.075951e-07 2.5159896e-16 2.5313922e-05
5.155119e-05 1.2748481e-17
00000000: 1bdd 0c36 8ac5 e337 829d bc36 bb20 b316
00000010: f401 0000 f401 0000 f401 0000 f401 0000
00000020: f401 0000 d5db 8237 d43c 6537 47d2 e637
00000030: df53 6e37 ab41 0835 7409 9125 3c59 d437
00000040: ab38 5838 002b 6b23

exp_avg f4 [18]
6e-45 0.0006739278 6e-45 -0.0055153966 -0.00017278851 0.0012930325 -0.0016247332 -1.1039101e-05
-0.00025652765 0.0022720944 -0.009917768 0.0273518 -0.0103563275 0.003468913 -0.007681693 -0.00030785115
-0.0028489747 -0.0009888924
00000000: 0400 0000 87aa 303a 0400 0000 80ba b4bb
00000010: 902e 35b9 f97a a93a 00f5 d4ba 9434 39b7
00000020: 8f7e 86b9 6be7 143b 227e 22bc e210 e03c
00000030: 96ad 29bc b456 633b b6b6 fbbb 1567 a1b9
00000040: ddb5 3abb b99d 81ba

exp_avg_sq f4 [18]
7e-43 3.6928477e-06 7e-43 0.00030027094 0.00010758952 0.00016104484 0.0001281557 0.00015926464
0.008452568 0.00019811114 0.0006394481 0.03273273 0.0058381585 0.0005470964 0.0013552478 0.00048534718
0.0010740962 9.074863e-06
00000000: f401 0000 a4d2 7736 f401 0000 af6d 9d39
00000010: afa1 e138 25de 2839 8961 0639 4700 2739
00000020: a47c 0a3c 0ebc 4f39 a3a0 273a c112 063d
00000030: 064e bf3b 056b 0f3a 92a2 b13a 3276 fe39
00000040: b0c8 8c3a 3d40 1837

exp_avg f4 [18]
6e-45 0.00083900226 6e-45 0.0014993154 -0.0019359186 -0.0030896475 -0.0030521438 -0.0010540653
-0.016530935 -0.002479522 -0.0009769086 0.0015151101 -0.0019856438 -0.00021554923 0.00231116 -0.0025108438
-0.005972281 -0.0006396875
00000000: 0400 0000 7df0 5b3a 0400 0000 ad84 c43a
00000010: a6be fdba af7b 4abb 7a06 48bb 9028 8aba
00000020: e26b 87bc 7a7f 22bb 9d0b 80ba a996 c63a
00000030: 9321 02bb 0e05 62b9 d576 173b f88c 24bb
00000040: 20b3 c3bb b4b0 27ba

exp_avg_sq f4 [18]
7e-43 1.957975e-05 7e-43 5.1906827e-05 9.503532e-05 0.00019766565 0.0002806303 0.00010332879
0.001775395 7.590057e-05 0.0005139606 0.00027777825 0.00028574845 0.00016918672 0.00029246908 0.0003321718
0.0005283948 3.646681e-05
00000000: f401 0000 313f a437 f401 0000 88b6 5938
00000010: b34d c738 7844 4f39 9021 9339 39b2 d838
00000020: 5fb4 e83a cf2c 9f38 50bb 063a c4a2 9139
00000030: 82d0 9539 b767 3139 8956 9939 5827 ae39
00000040: fa83 0a3a f0f3 1838

exp_avg f4 [18]
6e-45 -0.000451257 6e-45 0.0042540054 -0.00051003654 -0.0022920207 0.07132726 0.003945273
-0.01004631 -0.0009523371 -0.0046155057 0.025632367 0.027689185 -0.0049997424 -0.0031212086 0.0047942973
-0.010852868 0.0006372888
00000000: 0400 0000 b096 ecb9 0400 0000 2f65 8b3b
00000010: f9b3 05ba ba35 16bb 0714 923d 5947 813b
00000020: 4799 24bc 43a6 79ba ab3d 97bb f8fa d13c
00000030: 6ed4 e23c e1d4 a3bb 318d 4cbb 7b19 9d3b
00000040: 3ad0 31bc ba0f 273a

exp_avg_sq f4 [18]
7e-43 2.9856543e-05 7e-43 0.0011149002 7.0711016e-05 0.00017652205 0.024087444 0.0002187709
0.0043883785 4.9769707e-05 0.0006703796 0.033345416 0.03816709 0.00031069783 0.00014017793 0.0015825315
0.0022897641 1.0171935e-05
00000000: f401 0000 7074 fa37 f401 0000 d821 923a
00000010: b04a 9438 c718 3939 0853 c53c de65 6539
00000020: 63cc 8f3b d1bf 5038 6abc 2f3a 3495 083d
00000030: 1855 1c3d 28e5 a239 bafc 1239 f26c cf3a
00000040: de0f 163b 21a8 2a37

exp_avg f4 [18]
6e-45 0.00083900226 6e-45 0.0014993154 -0.0019359186 -0.0030896475 -0.0030521438 -0.0010540653
-0.016530935 -0.002479522 -0.0009769086 0.0015151101 -0.0019856438 -0.00021554923 0.00231116 -0.0025108438
-0.005972281 -0.0006396875
00000000: 0400 0000 7df0 5b3a 0400 0000 ad84 c43a
00000010: a6be fdba af7b 4abb 7a06 48bb 9028 8aba
00000020: e26b 87bc 7a7f 22bb 9d0b 80ba a996 c63a
00000030: 9321 02bb 0e05 62b9 d576 173b f88c 24bb
00000040: 20b3 c3bb b4b0 27ba

exp_avg_sq f4 [18]
7e-43 1.957975e-05 7e-43 5.1906827e-05 9.503532e-05 0.00019766565 0.0002806303 0.00010332879
0.001775395 7.590057e-05 0.0005139606 0.00027777825 0.00028574845 0.00016918672 0.00029246908 0.0003321718
0.0005283948 3.646681e-05
00000000: f401 0000 313f a437 f401 0000 88b6 5938
00000010: b34d c738 7844 4f39 9021 9339 39b2 d838
00000020: 5fb4 e83a cf2c 9f38 50bb 063a c4a2 9139
00000030: 82d0 9539 b767 3139 8956 9939 5827 ae39
00000040: fa83 0a3a f0f3 1838

exp_avg f4 [18]
0.00020802119 0.002235064 -0.00017080175 -1.5482302e-06 6e-45 -6e-45 6e-45 6e-45
-0.00066962064 -0.001431824 -0.0002923792 0.0031359466 -0.002456181 8.789398e-06 -2.1309428e-17 0.0006164042
0.0010428532 -0.00053914805
00000000: 4320 5a39 277a 123b 3f19 33b9 c9cc cfb5
00000010: 0400 0000 0400 0080 0400 0000 0400 0000
00000020: 7b89 2fba 0bac bbba 794a 99b9 7484 4d3b
00000030: e1f7 20bb 2d76 1337 778b c4a3 3096 213a
00000040: 59b0 883a 9d55 0dba

exp_avg_sq f4 [18]
4.0509544e-06 0.000111179346 2.9547718e-06 9.314358e-08 7e-43 7e-43 7e-43 7e-43
3.129898e-05 8.79976e-05 8.127058e-06 5.5514553e-05 0.00012030241 1.8455385e-07 5.449654e-07 1.744574e-05
0.00014313318 2.2006969e-05
00000000: 6fed 8736 f528 e938 984a 4636 3a06 c833
00000010: f401 0000 f401 0000 f401 0000 f401 0000
00000020: 0647 0338 5a8b b838 7359 0837 4cd8 6838
00000030: dd4a fc38 c729 4634 bd49 1235 7158 9237
00000040: 0516 1639 9b9b b837

exp_avg f4 [18]
0.0001582065 0.0011108587 0.00020521448 -3.694278e-07 6e-45 6e-45 6e-45 6e-45
-0.003176523 -0.00014102562 -0.0006397807 0.0005731306 0.00064047263 -2.4029207e-05 4.4918567e-18 0.00088889827
-0.0002788455 -0.0008574845
00000000: 3ce4 2539 3c9a 913a d82e 5739 c555 c6b4
00000010: 0400 0000 0400 0000 0400 0000 0400 0000
00000020: 362d 50bb 47e0 13b9 f5b6 27ba 253e 163a
00000030: 64e5 273a 5492 c9b7 63b8 a522 f404 693a
00000040: 0232 92b9 d0c8 60ba

exp_avg_sq f4 [18]
2.0819086e-06 2.7217293e-05 5.621173e-06 6.5401857e-09 7e-43 7e-43 7e-43 7e-43
0.00011148636 8.583695e-05 1.1028946e-05 2.7516055e-05 1.4205433e-05 5.075951e-07 2.8944667e-08 2.5313922e-05
5.155112e-05 2.0961454e-05
00000000: ebb6 0b36 b150 e437 829d bc36 15b8 e031
00000010: f401 0000 f401 0000 f401 0000 f401 0000
00000020: c9cd e938 5d03 b438 f608 3937 47d2 e637
00000030: df53 6e37 ab41 0835 ffa1 f832 3c59 d437
00000040: 9838 5838 61d6 af37

exp_avg f4 [18]
0.0022346051 0.00046653382 -0.00031843386 -0.001181865 7.1986826e-05 0.0013722474 -0.0033807543 0.001602094
-0.015010889 -0.0025816616 -0.010305431 0.012185777 -0.013935938 -0.00040680016 0.0029968098 0.0023168926
-0.004145151 -0.0006700362
00000000: 7472 123b 1c99 f439 78f3 a6b9 cfe8 9aba
00000010: a2f7 9638 fbdc b33a a58f 5dbb 5bfd d13a
00000020: 3bf0 75bc 1831 29bb 1cd8 28bc daa6 473c
00000030: 8f53 64bc cb47 d5b9 2066 443b 02d7 173b
00000040: 0cd4 87bb 5ea5 2fba

exp_avg_sq f4 [18]
0.00011695664 0.00011531876 9.663583e-06 3.0575793e-05 0.00083979644 5.282933e-05 0.00033672462 0.00020078907
0.017910771 0.00011885497 0.0034706504 0.024845507 0.016748825 0.00021838697 0.00032751187 0.0005576413
0.0023222987 8.685333e-06
00000000: 9e46 f538 4ad7 f138 c620 2237 823e 0038
00000010: c925 5c3a 1095 5d38 6a8a b039 e88a 5239
00000020: 9cb9 923c c741 f938 da73 633b ce88 cb3c
00000030: d534 893c cefe 6439 e6b5 ab39 ad2e 123a
00000040: b531 183b 39b7 1137

exp_avg f4 [18]
0.0038463343 -0.0031530922 0.00024174461 0.0016225164 -0.0019359186 -0.0030896475 -0.0030521438 -0.0010540653
-0.016530935 -0.0023908224 -0.0009769086 0.0015151101 -0.0019856438 -0.00021554923 0.00231116 -0.0025108438
-0.005972281 -0.0006396875
00000000: c812 7c3b 1ca4 4ebb d37c 7d39 9eaa d43a
00000010: a6be fdba af7b 4abb 7a06 48bb 9028 8aba
00000020: e26b 87bc 58af 1cbb 9d0b 80ba a996 c63a
00000030: 9321 02bb 0e05 62b9 d576 173b f88c 24bb
00000040: 20b3 c3bb b4b0 27ba

exp_avg_sq f4 [18]
0.00013401816 0.00018633371 1.1721224e-05 5.463438e-05 9.503532e-05 0.00019766565 0.0002806303 0.00010332879
0.001775395 7.6368604e-05 0.0005139606 0.00027777825 0.00028574845 0.00016918672 0.00029246908 0.0003321718
0.0005283948 3.646681e-05
00000000: 3a87 0c39 9362 4339 46a6 4437 3827 6538
00000010: b34d c738 7844 4f39 9021 9339 39b2 d838
00000020: 5fb4 e83a 1528 a038 50bb 063a c4a2 9139
00000030: 82d0 9539 b767 3139 8956 9939 5827 ae39
00000040: fa83 0a3a f0f3 1838

exp_avg f4 [18]
0.009557987 0.006595364 -0.00026171134 -0.0025945385 0.002355622 -0.0028299699 0.0022735477 0.0010353271
-0.055866547 -0.00046540983 0.01184378 0.0020480982 -0.008246169 -0.00028296292 -0.007347296 0.0074940603
-0.0014079202 0.0011181926
00000000: 1a99 1c3c ec1d d83b 4d36 89b9 2209 2abb
00000010: c760 1a3b 0477 39bb cdff 143b d0b3 873a
00000020: 52d4 64bd 4002 f4b9 6a0c 423c 6339 063b
00000030: f11a 07bc a45a 94b9 96c1 f0bb bc90 f53b
00000040: f689 b8ba 5190 923a

exp_avg_sq f4 [18]
0.0002600741 0.00027329623 4.770993e-05 0.002520797 0.00018787236 0.00015487015 0.0009983886 0.00041336415
0.010260997 0.0012842618 0.0006347808 0.0015151423 0.0018501844 0.0005906763 0.0006465893 0.0024297424
0.0033432185 6.364516e-06
00000000: 8e5a 8839 3349 8f39 261c 4838 f533 253b
00000010: 9aff 4439 a464 2239 5ddc 823a ccb8 d839
00000020: be1d 283c ad54 a83a 6b67 263a bd97 c63a
00000030: e381 f23a 9ed7 1a3a e07f 293a 503c 1f3b
00000040: e619 5b3b c78e d536

exp_avg f4 [18]
0.0038463343 -0.0031530922 0.00024174461 0.0016225164 -0.0019359186 -0.0030896475 -0.0030521438 -0.0010540653
-0.016530935 -0.0023908224 -0.0009769086 0.0015151101 -0.0019856438 -0.00021554923 0.00231116 -0.0025108438
-0.005972281 -0.0006396875
00000000: c812 7c3b 1ca4 4ebb d37c 7d39 9eaa d43a
00000010: a6be fdba af7b 4abb 7a06 48bb 9028 8aba
00000020: e26b 87bc 58af 1cbb 9d0b 80ba a996 c63a
00000030: 9321 02bb 0e05 62b9 d576 173b f88c 24bb
00000040: 20b3 c3bb b4b0 27ba

exp_avg_sq f4 [18]
0.00013401816 0.00018633371 1.1721224e-05 5.463438e-05 9.503532e-05 0.00019766565 0.0002806303 0.00010332879
0.001775395 7.6368604e-05 0.0005139606 0.00027777825 0.00028574845 0.00016918672 0.00029246908 0.0003321718
0.0005283948 3.646681e-05
00000000: 3a87 0c39 9362 4339 46a6 4437 3827 6538
00000010: b34d c738 7844 4f39 9021 9339 39b2 d838
00000020: 5fb4 e83a 1528 a038 50bb 063a c4a2 9139
00000030: 82d0 9539 b767 3139 8956 9939 5827 ae39
00000040: fa83 0a3a f0f3 1838

exp_avg f4 [36, 36]
1.4444111e-05 -4.880962e-05 -3.5103913e-05 3.2057157e-09 6e-45 -6e-45 -6e-45 6e-45
-5.4467368e-05 1.06476655e-05 -2.8013485e-05 -0.00012714278 1.1676848e-05 -3.2441753e-07 7.0493495e-20 -8.7915665e-05
-0.0001152995 -3.8319657e-05 7.4976356e-06 -3.0119932e-06 -7.025715e-05 -0.00025828337 1.6441782e-05 3.7075282e-05
1.9616438e-05 1.4589318e-05 4.2343796e-05 -0.00031224344 -0.0004670594 -0.00041208483 -0.00024039441 5.6658464e-05
0.0002979809 6.9755995e-05 1.2098485e-05 2.2569688e-05 1.1278919e-05 1.544612e-05 2.2369253e-05 4.73371e-08
6e-45 -6e-45 6e-45 6e-45 6.349057e-05 -3.1465243e-05 -8.542471e-06 4.661363e-05
7.267845e-05 1.8218282e-07 -4.5702123e-20 3.814686e-05 3.7545902e-05 3.1502936e-05 1.2194099e-05 7.441395e-06
2.9810777e-05 5.2199966e-06 2.4941379e-05 6.4501444e-05 1.9496632e-05 0.00022834638 1.67831e-06 0.00026926052
-2.3492364e-06 -7.4468706e-05 3.052297e-05 0.00014197578 0.0001467101 0.00040693575 0.00018632514 -6.0157912e-05
7.687881e-07 0.00076536025 -0.00025458282 3.5717367e-08 -6e-45 -6e-45 6e-45 6e-45
-4.5719666e-05 8.927755e-05 6.43288e-05 0.0001513773 5.9467304e-05 7.351611e-07 -1.5720144e-19 -0.0006086932
0.00059361453 1.717648e-05 1.4758582e-05 -3.537176e-05 -0.00017792064 -1.6637108e-05 -1.2725619e-06 -2.4901763e-05
-6.319076e-05 0.00038074979 -0.00049093604 0.00055218517 4.1332147e-05 0.00025809905 -0.00010219641 -0.00035925084
-0.00016908828 0.0008452609 0.0006133738 7.161203e-05 -1.5769901e-05 -0.00031381397 -4.7379195e-05 -9.419686e-09
-6e-45 -6e-45 6e-45 -6e-45 -6.882026e-05 3.7190097e-05 -2.3050769e-05 -0.00036729142
3.041338e-05 -2.6082847e-07 5.646335e-22 -0.00013101575 -0.0004015887 -5.9586255e-05 -2.6173351e-05 2.193897e-06
5.5507855e-05 -0.00010029359 -4.075327e-05 2.7805156e-06 3.969333e-06 -0.00022996514 -4.813561e-05 -0.00038425624
1.9009161e-05 9.955282e-05 -6.5674326e-06 -0.00011210515 -0.00014382931 -0.0002722401 -0.00011211536 1.0025472e-06
-9.884566e-06 -1.9863559e-07 4.3093376e-05 -3.6531617e-08 6e-45 6e-45 6e-45 -6e-45
7.956052e-05 -5.218736e-05 -1.1676798e-08 4.8386835e-05 -1.0358734e-05 -1.914706e-07 1.4543614e-19 6.298669e-05
2.1658823e-05 3.8987597e-05 2.2583897e-06 6.5752247e-06 -3.348899e-05 -3.720844e-05 -2.5310554e-05 -5.944522e-06
-0.00014380642 -3.5391335e-05 4.0498948e-05 -0.0002595141 -0.00015763564 -0.0002836231 -5.8123118e-05 0.00016368496
5.164697e-05 -7.822228e-05 -4.8182617e-05 -5.6299792e-05 -2.2870006e-05 0.00031012826 -0.00024308341 -8.6562174e-08
6e-45 -6e-45 -6e-45 6e-45 -0.00019039061 7.463723e-05 3.0165402e-05 -9.7861055e-05
4.894067e-05 -3.896953e-08 -3.2013756e-19 -0.0004620157 0.00016578648 -8.1771475e-05 1.2521814e-05 -2.4969462e-05
-0.00016790579 0.00040554575 -2.6982014e-05 -0.00013695096 -0.0001719507 -6.7102184e-07 -4.153173e-05 0.00033495727
0.00071878143 0.00029656908 -0.00014379981 -0.0006118608 -0.00054905 -0.00023404362 -1.5036637e-06 7.20946e-05
-1.15073535e-05 0.00040149404 -7.414819e-05 2.1489946e-08 -6e-45 -6e-45 6e-45 6e-45
0.000105526335 4.622485e-06 3.6697813e-05 0.00017099541 0.000102116406 4.7463053e-07 -4.9755735e-20 -0.00021631487
0.00036324564 7.6039745e-05 1.8801664e-05 -1.7670951e-05 -0.00013335052 5.1804214e-05 0.000112643145 8.9177165e-06
-6.981653e-05 0.0005124594 0.00018514953 0.0005624235 5.9953607e-05 -0.00039901378 -0.0003310545 -0.000124327
0.00046706188 0.00070672046 0.00030195757 6.0712744e-05 -6.7503706e-06 0.00020619715 1.7288074e-06 2.0312494e-09
00000000: fc54 7237 eeb8 4cb8 8a3c 13b8 8c4b 5c31
00000010: 0400 0000 0400 0080 0400 0080 0400 0000
00000020: e473 64b8 60a3 3237 80fe eab7 a151 05b9
00000030: aee7 4337 9b2b aeb4 b472 a61f 5d5f b8b8
00000040: f3cc f1b8 6bb9 20b8 3394 fb36 a621 4ab6
00000050: 0557 93b8 356a 87b9 75ec 8937 4881 1b38
00000060: fb8d a437 a5c4 7437 4e9a 3138 9bb4 a3b9
00000070: a7df f4b9 170d d8b9 6212 7cb9 90a4 6d38
00000080: 523a 9c39 f749 9238 99fa 4a37 0954 bd37
00000090: 973a 3d37 4a92 8137 9ba5 bb37 b14f 4b33
000000a0: 0400 0000 0400 0080 0400 0000 0400 0000
000000b0: 3d26 8538 8cf9 03b8 a251 0fb7 0183 4338
000000c0: f26a 9838 089e 4334 7ad2 579f e1ff 1f38
000000d0: 9b7a 1d38 0522 0438 4295 4c37 19b1 f936
000000e0: 2812 fa37 6e27 af36 3439 d137 f344 8738
000000f0: b38c a337 4470 6f39 4b42 e135 892b 8d39
00000100: 93a7 1db6 152c 9cb8 ca05 0038 55df 1439
00000110: 31d6 1939 fe59 d539 4660 4339 1152 7cb8
00000120: b75e 4e35 75a2 483a 8779 85b9 a967 1933
00000130: 0400 0080 0400 0080 0400 0000 0400 0000
00000140: 1ec3 3fb8 853a bb38 43e8 8638 09bb 1e39
00000150: 886c 7938 e357 4535 3897 39a0 b690 1fba
00000160: cc9c 1b3a 3616 9037 a19b 7737 235c 14b8
00000170: 3590 3ab9 eb8f 8bb7 e5cc aab5 21e4 d0b7
00000180: 4885 84b8 5f9f c739 29b2 00ba 85c0 103a
00000190: 0e5c 2d38 7851 8739 4852 d6b8 d559 bcb9
000001a0: 4a4d 31b9 8094 5d3a d2ca 203a 6a2e 9638
000001b0: 9b49 84b7 6687 a4b9 06b9 46b8 38d4 21b2
000001c0: 0400 0080 0400 0080 0400 0000 0400 0080
000001d0: 9953 90b8 90fc 1b38 265d c1b7 0591 c0b9
000001e0: 3c20 ff37 fe07 8cb4 67a6 2a1c 4661 09b9
000001f0: 538c d2b9 41ec 79b8 d88e dbb7 dd3a 1336
00000200: 1bd1 6838 b654 d2b8 7eee 2ab8 e598 3a36
00000210: 5030 8536 cc22 71b9 38e5 49b8 0076 c9b9
00000220: dd75 9f37 03c7 d038 d15d dcb6 fe19 ebb8
00000230: e3d0 16b9 73bb 8eb9 7a1f ebb8 428f 8635
00000240: e3d5 25b7 8948 55b4 29bf 3438 f0e6 1cb3
00000250: 0400 0000 0400 0000 0400 0000 0400 0080
00000260: bbd9 a638 c0e3 5ab8 1a9b 48b2 f8f2 4a38
00000270: 6cca 2db7 0a97 4db4 60b3 2b20 b917 8438
00000280: f8af b537 9d86 2338 d78e 1736 c0a0 dc36
00000290: 8776 0cb8 4210 1cb8 0052 d4b7 0e77 c7b6
000002a0: beca 16b9 2871 14b8 6add 2938 650f 88b9
000002b0: ff4a 25b9 40b3 94b9 39c9 73b8 d9a2 2b39
000002c0: 839f 5838 440b a4b8 b117 4ab8 7123 6cb8
000002d0: f7d8 bfb7 b698 a239 35e4 7eb9 0fe4 b9b3
000002e0: 0400 0000 0400 0080 0400 0080 0400 0000
000002f0: 97a3 47b9 8f86 9c38 b50b fd37 c13a cdb8
00000300: a545 4d38 745f 27b3 d2f9 bca0 b33a f2b9
00000310: f8d6 2d39 ba7c abb8 c814 5237 8375 d1b7
00000320: de0f 30b9 6e9f d439 6f57 e2b7 7e9a 0fb9
00000330: aa4d 34b9 4520 34b5 5b32 2eb8 349d af39
00000340: 9b6c 3c3a d47c 9b39 f8c8 16b9 4965 20ba
00000350: 1fee 0fba 9b69 75b9 7ed1 c9b5 7e31 9738
00000360: b50f 41b7 9e7f d239 0280 9bb8 e498 b832
00000370: 0400 0080 0400 0080 0400 0000 0400 0000
00000380: 054e dd38 d81a 9b36 faeb 1938 3b4d 3339
00000390: 5427 d638 b9d0 fe34 fef6 6a9f 95d2 62b9
000003a0: 0172 be39 8777 9f38 44b8 9d37 143c 94b7
000003b0: 02d4 0bb9 5a48 5938 d43a ec38 4d9d 1537
000003c0: 776a 92b8 9156 063a b324 4239 9a6f 133a
000003d0: b276 7b38 b932 d1b9 6291 adb9 c65d 02b9
000003e0: fcdf f439 3543 393a 0f50 9e39 d0a5 7e38
000003f0: 3e81 e2b6 a036 5839 5f09 e835 1e96 0b31

exp_avg_sq f4 [36, 36]
1.6642247e-08 2.0383739e-06 1.9107446e-07 1.2311465e-12 7e-43 7e-43 7e-43 7e-43
2.1844357e-07 1.3628232e-08 3.8478547e-08 3.2669675e-06 6.47013e-07 8.363679e-11 3.948236e-10 1.0830577e-06
3.343832e-06 1.16667074e-07 9.501028e-08 1.4541076e-08 4.4797066e-08 6.656739e-07 5.9096912e-08 8.692959e-08
4.5740638e-08 1.1068184e-06 1.268278e-06 7.2467865e-06 5.828153e-06 1.8732975e-06 1.4553101e-06 3.1945588e-06
2.881968e-06 2.2538584e-06 1.5563839e-07 5.7548373e-08 2.8478034e-08 1.6796753e-06 1.6291975e-07 1.020852e-12
7e-43 7e-43 7e-43 7e-43 1.435857e-07 1.926732e-08 4.062709e-08 1.6458437e-06
3.638477e-07 3.6900268e-11 6.2256666e-10 9.217131e-07 2.1007752e-06 6.307987e-08 5.516711e-09 5.6206733e-09
1.11221524e-07 2.4960407e-08 7.013276e-08 2.9494675e-08 5.372659e-08 1.3969145e-06 6.49995e-10 4.677032e-06
2.0138073e-08 7.675809e-07 1.9550635e-06 2.5496122e-06 2.3576229e-06 4.814496e-06 6.234631e-07 8.072831e-08
4.476181e-08 4.4871663e-06 2.0783677e-06 1.23560944e-11 7e-43 7e-43 7e-43 7e-43
9.004155e-07 8.7891706e-08 1.377686e-07 5.748298e-06 8.3678236e-07 1.3410374e-09 3.0154723e-10 1.1838792e-05
4.265064e-06 2.635888e-07 1.6828926e-07 6.320456e-08 6.059809e-07 2.9618357e-06 5.377858e-07 8.442646e-08
2.2851516e-07 2.1182711e-06 1.4363335e-05 9.053433e-06 1.8537321e-05 1.641593e-05 9.166248e-06 9.384478e-06
1.8433093e-05 3.338461e-05 5.3211684e-06 4.229056e-07 1.1754992e-08 2.3395041e-06 3.8529285e-07 7.816028e-13
7e-43 7e-43 7e-43 7e-43 3.3282015e-07 2.0480991e-08 9.355954e-08 2.1211413e-06
2.044603e-07 8.1406736e-11 6.873976e-11 2.176925e-06 2.6601904e-06 1.1503409e-07 9.098032e-08 1.502095e-08
9.7759035e-08 6.381541e-07 8.040037e-08 3.319146e-08 7.047108e-08 1.5673492e-06 5.2128354e-07 7.4290606e-06
3.0141005e-06 1.8368758e-06 1.9370825e-06 2.3166433e-06 2.371685e-06 4.989343e-06 9.986684e-07 4.2761894e-08
6.8750836e-09 1.7961521e-10 1.7929567e-07 2.580971e-12 7e-43 7e-43 7e-43 7e-43
2.1304643e-07 1.44455665e-08 3.4868256e-12 5.961172e-07 2.533037e-07 2.535322e-10 4.0850146e-11 9.773881e-07
1.4724885e-07 4.838473e-08 1.3198603e-08 4.601211e-08 1.09737506e-07 5.374005e-07 1.7114674e-08 4.1492704e-08
2.6470715e-07 2.2864045e-07 2.6358813e-07 1.1122299e-05 1.9428142e-06 3.668231e-06 4.1857074e-06 2.7231968e-06
1.2077146e-06 1.9883078e-06 1.4794168e-07 5.2749968e-08 1.2526576e-07 2.690414e-06 1.8563326e-06 7.134846e-12
7e-43 7e-43 7e-43 7e-43 1.2761493e-06 9.478986e-08 7.5150936e-08 8.378843e-06
1.972055e-06 7.332911e-10 5.2168864e-10 1.0580761e-05 4.8284573e-06 3.9347256e-07 1.5142139e-07 3.1427515e-08
8.899507e-07 1.1580979e-06 4.500293e-07 4.2426677e-07 3.361353e-07 7.488665e-06 9.058806e-06 2.0209904e-05
9.026299e-06 1.196184e-05 1.1576794e-05 1.4590086e-05 6.207939e-06 8.14631e-06 2.0631644e-06 2.316227e-07
7.354197e-09 1.7257497e-06 3.0690816e-07 2.3662914e-12 7e-43 7e-43 7e-43 7e-43
3.023675e-07 2.7346662e-08 6.156056e-08 1.4726264e-06 3.3508192e-07 1.6403796e-10 6.381212e-11 1.6854405e-06
1.858744e-06 9.109526e-08 2.2804748e-08 1.5527291e-08 2.2145363e-07 5.960186e-07 1.0014891e-07 6.665572e-08
1.6063711e-07 2.6158305e-06 6.6637267e-07 4.7975795e-06 2.564093e-06 2.0684179e-06 1.8237093e-06 3.2599617e-06
2.9093105e-06 3.882916e-06 4.957589e-07 4.475699e-08 1.8661815e-08 8.5138043e-07 7.1729717e-10 9.032567e-13
00000000: b0f4 8e32 ffca 0836 262a 4d34 ba44 ad2b
00000010: f401 0000 f401 0000 f401 0000 f401 0000
00000020: 508d 6a34 9921 6a32 9c43 2533 133e 5b36
00000030: 65ae 2d35 54eb b72e 7b0e d92f 945d 9135
00000040: 9966 6036 678a fa33 7408 cc33 54d0 7932
00000050: e566 4033 c3b0 3235 bed1 7d33 0cae ba33
00000060: 5d74 4433 fe8d 9435 b339 aa35 6c29 f336
00000070: 748f c336 036e fb35 1354 c335 1a62 5636
00000080: d567 4136 fe40 1736 8e1d 2734 1b2b 7733
00000090: dc9f f432 3471 e135 0aef 2e34 12ac 8f2b
000000a0: f401 0000 f401 0000 f401 0000 f401 0000
000000b0: 892c 1a34 4981 a532 f57d 2e33 c2e6 dc35
000000c0: d956 c334 024a 222e 3c21 2b30 a46b 7735
000000d0: 0bfb 0c36 8676 8733 818d bd31 f71f c131
000000e0: aed8 ee33 8468 d632 e49b 9633 7a5b fd32
000000f0: 03c1 6633 9e7d bb35 55ab 3230 66ef 9c36
00000100: 17fc ac32 c20b 4e35 bc33 0336 011a 2b36
00000110: a737 1e36 358c a136 0f5c 2735 dc5c ad33
00000120: 2140 4033 7790 9636 167a 0b36 e75e 592d
00000130: f401 0000 f401 0000 f401 0000 f401 0000
00000140: 15b4 7135 fabe bc33 8bed 1334 81e1 c036
00000150: 3f9f 6035 8f4f b830 00c7 a52f 399f 4637
00000160: 9f1c 8f36 5e83 8d34 00b3 3434 13bb 8733
00000170: b1aa 2235 f3c3 4636 5c5c 1035 f04d b533
00000180: c55d 7534 9f27 0e36 0efa 7037 33e4 1737
00000190: 9880 9b37 f1b4 8937 bcc8 1937 0772 1d37
000001a0: c4a0 9a37 7406 0c38 7d8c b236 b40b e334
000001b0: 00f3 4932 6000 1d36 3fda ce34 6b00 5c2b
000001c0: f401 0000 f401 0000 f401 0000 f401 0000
000001d0: 74ae b234 2dee af32 e7ea c833 ee58 0e36
000001e0: 9f89 5b34 eb03 b32e 0b29 972e 4917 1236
000001f0: b985 3236 a908 f733 f660 c333 6b07 8132
00000200: 99ef d133 9e4d 2b35 92a8 ac33 658e 0e33
00000210: e355 9733 b55d d235 55ee 0b35 2547 f936
00000220: da45 4a36 928a f635 d3fe 0136 a177 1b36
00000230: 3d29 1f36 216a a736 fc09 8635 33a9 3733
00000240: e039 ec31 307d 452f 6b84 4034 a49e 352c
00000250: f401 0000 f401 0000 f401 0000 f401 0000
00000260: c2c1 6434 462c 7832 115d 752c dd04 2035
00000270: ccfd 8734 7c61 8b2f 2da9 332e cd2e 8335
00000280: 751b 1e34 93cf 4f33 12c0 6232 da9e 4533
00000290: d5a8 eb33 e241 1035 9103 9332 b635 3233
000002a0: 131d 8e34 3580 7534 4783 8d34 e999 3a37
000002b0: 4b61 0236 bb2b 7636 f472 8c36 2ac0 3636
000002c0: c218 a235 de6e 0536 e6d9 1e34 348f 6233
000002d0: ca80 0634 f68c 3436 1a27 f935 fb08 fb2c
000002e0: f401 0000 f401 0000 f401 0000 f401 0000
000002f0: 2848 ab35 478f cb33 aa62 a133 db92 0c37
00000300: a657 0436 c690 4930 9366 0f30 0684 3137
00000310: 2204 a236 753e d334 6596 2234 ebfa 0633
00000320: f2e4 6e35 f16f 9b35 8e9b f134 c8c6 e334
00000330: 1576 b434 2447 fb36 47fb 1737 7088 a937
00000340: a96f 1737 b6af 4837 f439 4237 f1c7 7437
00000350: ca4d d036 23ac 0837 e574 0a36 f7b3 7834
00000360: 33b0 fc31 4fa0 e735 23c5 a434 5183 262c
00000370: f401 0000 f401 0000 f401 0000 f401 0000
00000380: 1355 a234 f2e7 ea32 4733 8433 0fa7 c535
00000390: 4fe5 b334 955c 342f 0853 8c2e 4b37 e235
000003a0: f579 f935 26a0 c333 2ce4 c332 e060 8532
000003b0: b6c8 6d34 16fe 1f35 7211 d733 5f24 8f33
000003c0: 987b 2c34 a08b 2f36 c8e0 3235 e5fa a036
000003d0: c812 2c36 26cf 0a36 2dc6 f435 b7c5 5a36
000003e0: 933d 4336 ff49 8236 4b14 0535 d53a 4033
000003f0: c44d a032 6b8a 6435 4d2b 4530 813e 7e2b

exp_avg f4 [36]
-0.00015181421 0.00036479492 0.00035718206 -0.0002543087 -0.000118938784 -0.0002061952 0.00051968463 9.931257e-05
-0.00022826258 0.0010440188 6e-45 -3.192466e-05 -0.00038830496 0.0008061261 -0.00081922824 0.0011382168
0.00022543031 -0.00054509996 0.00010830979 -0.0001562857 -0.0008827953 0.00012306747 -0.0003015015 0.0009301616
-0.00010046013 -0.0001683843 -0.00097289134 -0.0019334526 0.0006417716 0.0007989398 0.00026004043 0.00011444226
-0.00044887324 0.0004725488 -0.00010513044 -0.00065794936
00000000: 5130 1fb9 f241 bf39 2a44 bb39 bc54 85b9
00000010: c66e f9b8 1a36 58b9 723b 083a 0846 d038
00000020: c559 6fb9 75d7 883a 0400 0000 d8e6 05b8
00000030: 6995 cbb9 3552 533a 7ac1 56ba 3830 953a
00000040: 7d61 6c39 0ae5 0eba 6024 e338 a0e0 23b9
00000050: 646b 67ba ac0b 0139 d912 9eb9 17d6 733a
00000060: 1fae d2b8 5190 30b9 a209 7fba e76b fdba
00000070: 903c 283a f16f 513a 0956 8839 b800 f038
00000080: bf56 ebb9 6dc0 f739 7a79 dcb8 3c7a 2cba

exp_avg_sq f4 [36]
2.46071e-06 6.806821e-06 1.6985856e-05 4.517836e-06 6.5625395e-06 9.037404e-06 4.899895e-06 6.1808405e-06
2.8216907e-06 2.9012099e-05 7e-43 9.658764e-06 6.674644e-06 6.770048e-06 1.4850161e-05 7.2278726e-06
2.4406893e-06 1.2527038e-05 1.13812075e-05 5.374874e-06 1.23964455e-05 6.0695024e-06 5.1312295e-06 3.7436043e-06
1.9266796e-05 3.8664652e-06 1.7321525e-05 2.8357157e-05 6.2608174e-06 9.676673e-06 6.0313723e-06 9.104504e-06
8.216944e-06 3.192752e-05 1.021658e-06 5.7786137e-06
00000000: ad22 2536 2666 e436 d97c 8e37 ea97 9736
00000010: c933 dc36 5b9f 1737 c769 a436 0465 cf36
00000020: 475c 3d36 025f f337 f401 0000 130c 2237
00000030: c1f6 df36 452a e336 f524 7937 f486 f236
00000040: b9ca 2336 382b 5237 eaf1 3e37 d159 b436
00000050: 54fa 4f37 a1a8 cb36 ed2c ac36 a23a 7b36
00000060: 219f a137 afbc 8136 b14d 9137 88e0 ed37
00000070: 0314 d236 fe58 2237 1861 ca36 8cbf 1837
00000080: 81db 0937 eae9 0538 e71f 8935 eae5 c136

exp_avg f4 [36, 36]
0.00030994738 0.0006874617 0.0004146715 0.00054566114 0.00013067914 0.00011756996 0.00037322805 -0.000115669245
0.00026644443 -0.0011371785 -6e-45 0.00031367008 -0.00011446129 0.00025615102 -0.00060257077 -0.00072818465
0.0007355232 0.0003578469 0.00016903895 -0.00026901645 0.00057159824 0.00014525939 -1.1644204e-05 9.176792e-05
-0.00073917 3.559441e-06 -0.0011172424 -0.0001835566 2.4419767e-05 -0.00017957122 -0.0005162307 0.0009360505
-0.00019156527 0.0018182085 9.8877885e-05 6.373945e-06 4.7691516e-05 -5.9657737e-05 -0.00068320095 5.0129387e-05
-0.00012102535 -3.198776e-05 -0.00024145127 -4.677665e-05 -0.00015625841 -0.0001386552 -6e-45 0.00015335206
-0.00013631879 -0.00013903472 -0.0006730595 -0.00036305265 0.00027701238 5.849553e-06 -0.0003111603 -0.00036821078
0.00013441972 1.9850644e-05 -9.624718e-05 6.612117e-06 -0.0003725892 -0.00038578737 -0.000119133205 -0.00034396487
-0.00021162195 -1.7163822e-05 -0.00024943677 0.0002220695 -2.475776e-05 0.000103814586 -0.00027620883 -3.9643626e-05
0.0014082332 -0.00017277281 -0.00053726725 0.0011927098 -5.1614712e-05 0.00039075568 -0.00043346488 -0.00032385482
5.617678e-05 -0.00040358078 -6e-45 -0.00016546741 -0.0002947877 -0.00042490283 0.0011095327 -0.000100799196
5.4377953e-05 -0.000112302485 -0.0009682228 0.0003443591 -0.00036165433 0.0005570042 -0.00061062665 0.00082688424
0.0012853363 -0.00079040276 0.0001282915 -7.7885845e-05 0.00044837588 0.0006170067 -0.00022528783 0.0009660363
0.0006254266 -0.00044414433 -8.200743e-06 -0.0008775601 7.9258694e-05 -5.681403e-06 -5.274483e-05 -2.5832702e-05
7.457379e-06 5.8067642e-05 -0.00018369968 0.00013746927 5.1883126e-05 3.0158439e-05 6e-45 -3.984364e-05
-0.00010053734 0.00014549623 6.812816e-05 9.7308985e-05 -0.00010914476 0.00016730143 -1.0788395e-05 3.7889324e-05
-0.00020387494 -2.2780365e-05 -2.3003447e-05 4.116887e-05 6.152679e-05 5.5178647e-05 0.00013025913 -0.00016682304
-7.9391015e-05 6.9696983e-07 5.8987836e-05 -0.00021292186 -5.2784086e-05 -0.00036138803 2.7198612e-05 4.6736663e-05
1.3672595e-05 -0.00026506436 -6.309212e-05 0.00018216495 -0.0002724598 -0.00020962002 -6.0154773e-05 -0.00017100491
-0.00033980448 -0.00014320985 -6e-45 -0.00013224731 0.0005546681 -0.00020792623 -0.0003445693 -7.6998345e-05
0.0003554756 -0.00010362717 -0.00071620167 0.00071405905 -9.5407915e-05 -0.00038969007 0.00051001256 -0.00010284785
4.6904494e-05 5.132126e-07 0.0006737546 -0.00045578842 -0.00015084179 -4.7198904e-05 0.00030309847 -0.00023243915
-9.684479e-05 -0.0004348793 -0.00021546213 -0.0005170696 -3.3186938e-05 -0.00012328361 -9.649666e-05 -8.5109285e-05
-9.8076896e-08 -3.0933927e-05 -9.916034e-05 -7.21099e-05 -0.00010740672 6.6750625e-05 -6e-45 -5.03875e-05
-3.1209966e-05 -0.000120401724 0.00025689494 0.00015206213 -0.00020256745 1.7311446e-05 -0.0002659595 0.000100214114
-0.00019569472 -5.0911807e-05 -0.0003043185 -9.950815e-06 0.00013412688 -0.00022545828 -8.620237e-05 0.0002287476
4.8082165e-05 1.7176262e-05 1.1964821e-05 5.636683e-06 4.748983e-05 -0.00023583628 -3.110581e-05 -0.000376204
9.361967e-05 -2.8297003e-05 -0.0002342287 0.000261619 7.63616e-05 0.00020515942 -0.00035850954 -9.1963506e-05
-0.00011966986 0.00023047606 -6e-45 0.00042045233 -0.0002492269 -7.027574e-05 -0.00034183834 8.7613465e-05
0.0006683686 -1.2339014e-05 0.00046590585 -3.5338962e-05 -4.2587963e-06 0.00037778378 -0.00017741237 8.956424e-05
-0.00026424075 8.187717e-05 0.00022795994 0.000439343 -0.0004486288 2.9813284e-05 -6.6963854e-05 0.00032927396
-2.0239475e-05 -0.00031772756 -6.239344e-06 -7.967847e-05 -4.3635122e-05 1.4337744e-06 1.786294e-05 -0.00019477695
00000000: 6f80 a239 c636 343a 4468 d939 b30a 0f3a
00000010: ea06 0939 e48f f638 d2ad c339 7493 f2b8
00000020: 91b1 8b39 610d 95ba 0400 0080 1674 a439
00000030: f00a f0b8 024c 8639 d7f5 1dba a5e3 3eba
00000040: 20d0 403a 669d bb39 0c40 3139 c70a 8db9
00000050: 4fd7 153a c550 1839 7a5b 43b7 8773 c038
00000060: dcc4 41ba bbde 6e36 6f70 92ba 1a79 40b9
00000070: 0dd9 cc37 484b 3cb9 a853 07ba 4961 753a
00000080: e9de 48b9 f450 ee3a a95c cf38 c5df d536
00000090: 6008 4838 0239 7ab8 d718 33ba 0542 5238
000000a0: fdce fdb8 992a 06b8 152e 7db9 0c32 44b8
000000b0: 4cd9 23b9 f963 11b9 0400 0080 21cd 2039
000000c0: ccf0 0eb9 d9c9 11b9 4270 30ba 1a58 beb9
000000d0: f93b 9139 4747 c436 3a23 a3b9 6a0c c1b9
000000e0: 05f3 0c39 ef84 a637 50d8 c9b8 a7dd dd36
000000f0: 1358 c3b9 8143 cab9 27d7 f9b8 2f56 b4b9
00000100: d6e6 5db9 07fb 8fb7 d6c6 82b9 54db 6839
00000110: e2ae cfb7 08b7 d938 1fd0 90b9 0547 26b8
00000120: 7794 b83a 592a 35b9 65d7 0cba b354 9c3a
00000130: e07c 58b8 57de cc39 ac42 e3b9 0fcb a9b9
00000140: 5c9f 6b38 b297 d3b9 0400 0080 5281 2db9
00000150: bc8d 9ab9 7ec5 deb9 bd6d 913a 2864 d3b8
00000160: e213 6438 f083 ebb8 55d0 7dba 198b b439
00000170: 6c9c bdb9 eb03 123a 7612 20ba 43c3 583a
00000180: bb78 a83a 0833 4fba fd85 0639 a556 a3b8
00000190: fe13 eb39 9ebe 213a 3e3b 6cb9 993d 7d3a
000001a0: abf3 233a 0bdc e8b9 ec95 09b7 100c 66ba
000001b0: b037 a638 e1a2 beb6 543a 5db8 4eb3 d8b7
000001c0: 663a fa36 a88d 7338 829f 40b9 a025 1039
000001d0: 159d 5938 c1fc fc37 0400 0000 c81d 27b8
000001e0: 93d7 d2b8 5990 1839 07e0 8e38 5d12 cc38
000001f0: a6e4 e4b8 a36d 2f39 ceff 34b7 5aeb 1e38
00000200: 43c7 55b9 7618 bfb7 87f7 c0b7 bdac 2c38
00000210: f207 8138 9f6f 6738 2b96 0839 38ed 2eb9
00000220: ba7e a6b8 6717 3b35 b569 7738 c743 5fb9
00000230: 7b64 5db8 ae78 bdb9 9328 e437 1c07 4438
00000240: 5963 6537 56f8 8ab9 5350 84b8 8803 3f39
00000250: efd8 8eb9 72cd 5bb9 b24e 7cb8 c84f 33b9
00000260: c927 b2b9 9a2a 16b9 0400 0080 deab 0ab9
00000270: 2567 113a c606 5ab9 4fa7 b4b9 2c7a a1b8
00000280: 215f ba39 6a52 d9b8 7bbf 3bba b12f 3b3a
00000290: bc15 c8b8 514f ccb9 5db2 053a 05b0 d7b8
000002a0: 51bb 4438 b4c3 0935 e89e 303a e3f6 eeb9
000002b0: 492b 1eb9 70f7 45b8 30e9 9e39 e9ba 73b9
000002c0: 2719 cbb8 8300 e4b9 aded 61b9 f48b 07ba
000002d0: 3432 0bb8 b145 01b9 405e cab8 b37c b2b8
000002e0: 589e d2b3 0dbf 01b8 4df4 cfb8 b539 97b8
000002f0: 8b3f e1b8 78fc 8b38 0400 0080 2b57 53b8
00000300: 72e7 02b8 2f80 fcb8 dbaf 8639 de72 1f39
00000310: 4968 54b9 0c38 9137 7b70 8bb9 0b2a d238
00000320: 6733 4db9 238a 55b8 f08c 9fb9 6df2 26b7
00000330: 69a4 0c39 ff68 6cb9 8cc7 b4b8 f7db 6f39
00000340: d5ab 4938 be15 9037 84bc 4837 bd22 bd36
00000350: d12f 4738 d24a 77b9 9c77 02b8 3f3d c5b9
00000360: ad55 c438 5a5f edb7 4a9b 75b9 e829 8939
00000370: 5224 a038 1020 5739 56f6 bbb9 88dc c0b8
00000380: 44f7 fab8 f2ab 7139 0400 0080 2870 dc39
00000390: abaa 82b9 0061 93b8 c438 b3b9 1fbd b738
000003a0: 7535 2f3a a903 4fb7 d344 f439 ec38 14b8
000003b0: c8e6 8eb6 4811 c639 c507 3ab9 6fd4 bb38
000003c0: cb89 8ab9 79b5 ab38 8808 6f39 9f57 e639
000003d0: f035 ebb9 8a17 fa37 f26e 8cb8 67a2 ac39
000003e0: f1c7 a9b7 ac94 a6b9 8f5b d1b6 0e19 a7b8
000003f0: db04 37b8 1d70 c035 5fd8 9537 0a3d 4cb9

exp_avg_sq f4 [36, 36]
1.2703624e-06 2.0918708e-06 3.6737845e-06 3.6189208e-06 7.007992e-07 4.306422e-07 2.462009e-06 9.720081e-07
1.1162684e-06 1.12165135e-05 7e-43 1.352061e-06 3.941156e-06 2.9469497e-06 6.710327e-06 2.491991e-06
3.900157e-06 1.4409234e-06 1.8155588e-06 1.1299259e-06 2.5064685e-06 7.1592666e-07 1.3446117e-06 1.2469777e-06
6.0038574e-06 5.7112305e-07 1.0534825e-05 1.1780838e-06 9.3545543e-07 6.2489386e-07 4.1794056e-06 6.3817256e-06
6.406772e-07 2.164373e-05 1.1968191e-07 5.732437e-07 1.0309934e-07 7.81561e-07 3.1043764e-06 2.6624312e-07
1.8447796e-06 2.443715e-07 7.5400504e-07 1.4524095e-06 7.02724e-07 9.931739e-07 7e-43 1.2799829e-06
2.1788081e-07 3.9522265e-06 8.2513225e-06 2.893296e-06 7.2320523e-07 1.3344578e-07 2.5549696e-06 2.7365338e-06
1.3117402e-06 3.8409996e-07 3.8507524e-06 1.8378876e-07 3.7273205e-06 2.0636485e-06 1.8251401e-06 1.175526e-05
8.645795e-07 6.6776575e-09 6.558608e-07 2.3612147e-06 2.3283837e-07 3.711192e-06 2.723465e-06 1.0493965e-05
9.504902e-06 3.8556495e-06 1.9243918e-05 1.444478e-05 4.3493537e-06 1.2782405e-06 1.4803793e-06 1.7739463e-06
7.746621e-06 5.7709436e-05 7e-43 1.8117339e-06 2.6811089e-05 3.343447e-06 2.8152557e-05 1.8924305e-06
3.3962774e-06 2.4726005e-06 1.720425e-05 1.3092545e-06 3.5001444e-06 2.3777304e-06 6.824977e-06 6.6085404e-06
1.1358793e-05 1.6548405e-05 5.5138902e-05 4.301647e-06 2.072297e-06 2.1399528e-06 1.3558839e-05 1.7013268e-05
2.9180662e-06 1.9976153e-05 3.327468e-09 1.1343417e-05 6.469636e-08 7.620147e-08 1.5201226e-07 7.573107e-08
1.7201e-07 7.034204e-08 2.8702325e-07 2.8065483e-07 9.031592e-08 6.057301e-08 7e-43 1.9436533e-07
2.0492591e-07 4.9171507e-07 3.0504944e-07 9.675936e-08 1.7191013e-07 1.1327521e-07 5.8398854e-07 8.5484565e-08
2.9000236e-07 5.860508e-08 3.50949e-07 5.0620287e-08 2.5316905e-07 3.2593758e-07 2.6339944e-07 8.0871337e-07
1.3154006e-07 3.726287e-09 8.0124146e-08 5.780506e-07 4.5492996e-08 1.6244479e-06 2.1749765e-08 8.7400906e-07
1.357035e-06 6.4980563e-06 4.325189e-06 8.3539675e-07 1.8190714e-05 2.6789598e-06 8.061827e-07 8.9604655e-06
2.952116e-06 8.8387305e-06 7e-43 5.449474e-06 1.0814942e-05 1.5087638e-05 2.6240505e-05 3.0779936e-06
3.067848e-05 4.4615834e-07 0.000109183246 9.532223e-06 4.957768e-07 1.4276927e-05 3.7625654e-05 1.5497734e-06
3.1144205e-06 1.9037324e-06 5.010569e-05 5.552331e-05 8.8155457e-07 1.506175e-07 2.564966e-05 1.1358176e-05
1.6153123e-06 2.830652e-05 1.8298113e-05 3.645466e-05 2.6623448e-07 3.6164528e-07 2.6190386e-07 3.0381761e-07
5.6305783e-08 6.665713e-08 1.8287545e-07 1.3895217e-07 2.44745e-07 1.9332e-07 7e-43 1.0375906e-07
1.8742095e-07 3.9530102e-07 1.6153406e-06 8.015875e-07 7.509102e-07 4.6816535e-08 1.3310702e-06 3.144053e-07
5.2379744e-07 9.9661875e-08 1.72911e-06 1.7957174e-07 5.786921e-07 8.145882e-07 6.090397e-07 1.3166766e-06
8.482859e-08 3.00253e-08 6.017573e-08 4.3256854e-08 1.6020688e-07 1.3261966e-06 3.4336097e-08 2.353669e-06
4.091034e-06 2.3310722e-06 1.8019102e-05 6.179267e-06 1.7500995e-05 2.840984e-06 6.302701e-06 2.5973015e-06
3.306324e-06 2.5818288e-06 7e-43 4.626356e-06 2.9250682e-06 5.3580325e-06 2.6604366e-05 6.308896e-06
4.398433e-06 1.2478528e-06 2.2662975e-05 1.3521456e-05 3.0188503e-06 2.413151e-06 3.734429e-06 9.20182e-07
1.909764e-05 7.0123956e-06 1.1106678e-05 1.5546415e-05 8.511737e-06 2.2435987e-07 8.168112e-06 1.5225373e-05
2.0111859e-06 1.5075871e-05 2.6863681e-05 8.079395e-06 4.070487e-07 8.276628e-07 4.0743467e-07 5.6224474e-07
00000000: 5281 aa35 1162 0c36 238b 7636 96dc 7236
00000010: 8e1e 3c35 0333 e734 fe38 2536 f275 8235
00000020: b1d2 9535 8f2e 3c37 f401 0000 7678 b535
00000030: 463e 8436 36c4 4536 4529 e136 143c 2736
00000040: 18de 8236 c065 c135 20ae f335 f5a7 9735
00000050: cd34 2836 1b2e 4035 8278 b435 d45d a735
00000060: be74 c936 474f 1935 bbbe 3037 a71e 9e35
00000070: 021c 7b35 61be 2735 d23c 8c36 9b22 d636
00000080: 00fb 2b35 8e8f b537 ea81 0034 02e1 1935
00000090: 7667 dd33 77cc 5135 c854 5036 2df0 8e34
000000a0: 259a f735 2a32 8334 d566 4a35 69f0 c235
000000b0: d3a2 3c35 324d 8535 f401 0000 e1cb ab35
000000c0: 9ff2 6934 5e9d 8436 296f 0a37 722a 4236
000000d0: 4922 4235 4c49 0f34 0b76 2b36 4ba5 3736
000000e0: 0d0f b035 4c36 ce34 b635 8136 7857 4534
000000f0: e122 7a36 367d 0a36 56f7 f435 7538 4537
00000100: 7315 6835 4c71 e531 690e 3035 5c75 1e36
00000110: 2002 7a34 cb0d 7936 c6c4 3636 3d0f 3037
00000120: 3e77 1f37 c75f 8136 006e a137 dc57 7237
00000130: aaf0 9136 0290 ab35 72b1 c635 5518 ee35
00000140: 7cf7 0137 090d 7238 f401 0000 b42a f335
00000150: 60e8 e037 fb5f 6036 2829 ec37 6bff fd35
00000160: 9aeb 6336 f4ee 2536 d851 9037 a4b9 af35
00000170: 06e4 6a36 1991 1f36 1b02 e536 eebe dd36
00000180: a591 3e37 6ed1 8a37 f244 6738 de56 9036
00000190: cb11 0b36 1c9c 0f36 c57a 6337 b7b7 8e37
000001a0: ffd3 4336 7692 a737 70a9 6431 9b4f 3e37
000001b0: 33ef 8a33 33a4 a333 d038 2334 99a1 a233
000001c0: c0b1 3834 f20e 9733 2d18 9a34 e8ac 9634
000001d0: b4f3 c133 5d14 8233 f401 0000 bcb2 5034
000001e0: 9b09 5c34 67fe 0335 adc5 a334 05ca cf33
000001f0: 4c96 3834 b541 f333 63c3 1c35 a393 b733
00000200: 9fb1 9b34 f8b4 7b33 106a bc34 9869 5933
00000210: 4aeb 8734 85fc ae34 5869 8d34 5c16 5935
00000220: 753d 0d34 c408 8031 b710 ac33 562b 1b35
00000230: 1464 4333 9b07 da35 3dd4 ba32 729d 6a35
00000240: 5e23 b635 e109 da36 1721 9136 0740 6035
00000250: 4398 9837 2ec8 3336 7468 5835 e854 1637
00000260: f71c 4636 0f4a 1437 f401 0000 a0da b636
00000270: d271 3537 e920 7d37 0e1f dc37 878f 4e36
00000280: c4ac 0038 8987 ef34 4ff9 e438 96ec 1f37
00000290: 8615 0535 ef86 6f37 3dd0 1d38 cf01 d035
000002a0: 5601 5136 bf83 ff35 9328 5238 b3e1 6838
000002b0: f8a3 6c35 6cb9 2134 3a2a d737 ff8e 3e37
000002c0: b5cd d835 ca73 ed37 e67e 9937 e5e6 1838
000002d0: fdee 8e34 2628 c234 cb9b 8c34 601c a334
000002e0: ddd4 7133 2525 8f33 6c5c 4434 e232 1534
000002f0: 7f65 8334 6693 4f34 f401 0000 25d2 de33
00000300: e13d 4934 c239 d434 aece d835 ac2c 5735
00000310: 2892 4935 5313 4933 39a7 b235 89cb a834
00000320: 169b 0c35 b205 d633 c413 e835 4ed0 4034
00000330: 6b57 1b35 13aa 5a35 e47c 2335 aab8 b035
00000340: 032b b633 2bf5 0033 f539 8133 6ac9 3933
00000350: 5505 2c34 c5ff b135 f078 1333 baf3 1d36
00000360: b745 8936 846f 1c36 ba27 9737 8057 cf36
00000370: 1acf 9237 bca7 3e36 ca7b d336 4d4d 2e36
00000380: 37e2 5d36 7b43 2d36 f401 0000 183c 9b36
00000390: 4a4c 4436 26c9 b336 712c df37 01b1 d336
000003a0: 4096 9336 e57b a735 5e1c be37 36da 6237
000003b0: 7497 4a36 9ef1 2136 009d 7a36 6d02 7735
000003c0: df33 a037 054c eb36 d256 3a37 ac69 8237
000003d0: a2cd 0e37 92e7 7034 c609 0937 7b70 7f37
000003e0: e9f7 0636 5fee 7c37 5159 e137 bd8c 0737
000003f0: 5988 da34 8e2c 5e35 65bd da34 2aed 1635
