input/checkpoints/checkpoint-24.pth.tar (torch, 546829 bytes, 144 tensors)

exp_avg f4 [100, 18]
00000000: 0000 0000 0000 0000 0000 0000 0000 0000
00000010: 0000 0000 0000 0000 0000 0000 0000 0000
00000020: 0000 0000 0000 0000 0000 0000 0000 0000
00000030: 0000 0000 0000 0000 0000 0000 0000 0000
00000040: 0000 0000 0000 0000 0000 0000 0000 0000
00000050: 0000 0000 0000 0000 0000 0000 0000 0000
00000060: 0000 0000 0000 0000 0000 0000 0000 0000
00000070: 0000 0000 0000 0000 0000 0000 0000 0000
00000080: 0000 0000 0000 0000 0000 0000 0000 0000
00000090: 0000 0000 0000 0000 0000 0000 0000 0000
000000a0: 0000 0000 0000 0000 0000 0000 0000 0000
000000b0: 0000 0000 0000 0000 0000 0000 0000 0000
000000c0: 0000 0000 0000 0000 0000 0000 0000 0000
000000d0: 0000 0000 0000 0000 0400 0080 e137 132d
000000e0: 8538 b3b9 0400 0080 0400 0080 0400 0080
000000f0: 0400 0000 0400 0080 0400 0000 0400 0000
00000100: 0400 0000 4e73 5c3a 0400 0000 0400 0000
00000110: 0a7f 3334 b24b 473a 60bd 6a3a 0400 0000
00000120: 0000 0000 0000 0000 0000 0000 0000 0000
00000130: 0000 0000 0000 0000 0000 0000 0000 0000
00000140: 0000 0000 0000 0000 0000 0000 0000 0000
00000150: 0000 0000 0000 0000 0000 0000 0000 0000
00000160: 0000 0000 0000 0000 0000 0000 0000 0000
00000170: 0000 0000 0000 0000 0000 0000 0000 0000
00000180: 0000 0000 0000 0000 0000 0000 0000 0000
00000190: 0000 0000 0000 0000 0000 0000 0000 0000
000001a0: 0000 0000 0000 0000 0000 0000 0000 0000
000001b0: 0000 0000 0000 0000 0000 0000 0000 0000
000001c0: 0000 0000 0000 0000 0000 0000 0000 0000
000001d0: 0000 0000 0000 0000 0000 0000 0000 0000
000001e0: 0000 0000 0000 0000 0000 0000 0000 0000
000001f0: 0000 0000 0000 0000 0000 0000 0000 0000
00000200: 0000 0000 0000 0000 0000 0000 0000 0000
00000210: 0000 0000 0000 0000 0000 0000 0000 0000
00000220: 0000 0000 0000 0000 0000 0000 0000 0000
00000230: 0000 0000 0000 0000 0000 0000 0000 0000
00000240: 26de 6e3a 0400 0000 0400 0000 0400 0080
00000250: 0400 0080 0400 0000 0400 0000 0400 0000
00000260: 0400 0000 0400 0000 0400 0000 0400 0080
00000270: a129 b2b8 0c19 01ba 1af3 9bb7 0400 0000
00000280: 0400 0080 0400 0000 0000 0000 0000 0000
00000290: 0000 0000 0000 0000 0000 0000 0000 0000
000002a0: 0000 0000 0000 0000 0000 0000 0000 0000
000002b0: 0000 0000 0000 0000 0000 0000 0000 0000
000002c0: 0000 0000 0000 0000 0000 0000 0000 0000
000002d0: 0000 0000 0000 0000 0000 0000 0000 0000
000002e0: 0000 0000 0000 0000 0000 0000 0000 0000
000002f0: 0000 0000 0000 0000 0000 0000 0000 0000
00000300: 0000 0000 0000 0000 0000 0000 0000 0000
00000310: 0000 0000 0000 0000 0000 0000 0000 0000
00000320: 0000 0000 0000 0000 0000 0000 0000 0000
00000330: 0000 0000 0000 0000 0000 0000 0000 0000
00000340: 0000 0000 0000 0000 0000 0000 0000 0000
00000350: 0000 0000 0000 0000 0000 0000 0000 0000
00000360: 0000 0000 0000 0000 0000 0000 0000 0000
00000370: 0000 0000 0000 0000 0000 0000 0000 0000
00000380: 0000 0000 0000 0000 0000 0000 0000 0000
00000390: 0000 0000 0000 0000 0000 0000 0000 0000
000003a0: 0000 0000 0000 0000 0000 0000 0000 0000
000003b0: 0000 0000 0000 0000 0000 0000 0000 0000
000003c0: 0000 0000 0000 0000 0000 0000 0000 0000
000003d0: 0000 0000 0000 0000 0000 0000 0000 0000
000003e0: 0000 0000 0000 0000 0000 0000 0000 0000
000003f0: 0000 0000 0000 0000 0000 0000 0000 0000
0.0 0.0 0.0 0.0 0.0 0.0 0.0 0.0
0.0 0.0 0.0 0.0 0.0 0.0 0.0 0.0
0.0 0.0 0.0 0.0 0.0 0.0 0.0 0.0
0.0 0.0 0.0 0.0 0.0 0.0 0.0 0.0
0.0 0.0 0.0 0.0 0.0 0.0 0.0 0.0
0.0 0.0 0.0 0.0 0.0 0.0 0.0 0.0
0.0 0.0 0.0 0.0 0.0 0.0 -6e-45 8.36839e-12
-0.0003418365 -6e-45 -6e-45 -6e-45 6e-45 -6e-45 6e-45 6e-45
6e-45 0.0008409516 6e-45 6e-45 1.671689e-07 0.0007602527 0.00089546107 6e-45
0.0 0.0 0.0 0.0 0.0 0.0 0.0 0.0
0.0 0.0 0.0 0.0 0.0 0.0 0.0 0.0
0.0 0.0 0.0 0.0 0.0 0.0 0.0 0.0
0.0 0.0 0.0 0.0 0.0 0.0 0.0 0.0
0.0 0.0 0.0 0.0 0.0 0.0 0.0 0.0
0.0 0.0 0.0 0.0 0.0 0.0 0.0 0.0
0.0 0.0 0.0 0.0 0.0 0.0 0.0 0.0
0.0 0.0 0.0 0.0 0.0 0.0 0.0 0.0
0.0 0.0 0.0 0.0 0.0 0.0 0.0 0.0
0.0009112082 6e-45 6e-45 -6e-45 -6e-45 6e-45 6e-45 6e-45
6e-45 6e-45 6e-45 -6e-45 -8.4954554e-05 -0.0004924692 -1.8590643e-05 6e-45
-6e-45 6e-45 0.0 0.0 0.0 0.0 0.0 0.0
0.0 0.0 0.0 0.0 0.0 0.0 0.0 0.0
0.0 0.0 0.0 0.0 0.0 0.0 0.0 0.0
0.0 0.0 0.0 0.0 0.0 0.0 0.0 0.0
0.0 0.0 0.0 0.0 0.0 0.0 0.0 0.0
0.0 0.0 0.0 0.0 0.0 0.0 0.0 0.0
0.0 0.0 0.0 0.0 0.0 0.0 0.0 0.0
0.0 0.0 0.0 0.0 0.0 0.0 0.0 0.0
0.0 0.0 0.0 0.0 0.0 0.0 0.0 0.0
0.0 0.0 0.0 0.0 0.0 0.0 0.0 0.0
0.0 0.0 0.0 0.0 0.0 0.0 0.0 0.0
0.0 0.0 0.0 0.0 0.0 0.0 0.0 0.0

exp_avg_sq f4 [100, 18]
00000000: 0000 0000 0000 0000 0000 0000 0000 0000
00000010: 0000 0000 0000 0000 0000 0000 0000 0000
00000020: 0000 0000 0000 0000 0000 0000 0000 0000
00000030: 0000 0000 0000 0000 0000 0000 0000 0000
00000040: 0000 0000 0000 0000 0000 0000 0000 0000
00000050: 0000 0000 0000 0000 0000 0000 0000 0000
00000060: 0000 0000 0000 0000 0000 0000 0000 0000
00000070: 0000 0000 0000 0000 0000 0000 0000 0000
00000080: 0000 0000 0000 0000 0000 0000 0000 0000
00000090: 0000 0000 0000 0000 0000 0000 0000 0000
000000a0: 0000 0000 0000 0000 0000 0000 0000 0000
000000b0: 0000 0000 0000 0000 0000 0000 0000 0000
000000c0: 0000 0000 0000 0000 0000 0000 0000 0000
000000d0: 0000 0000 0000 0000 f401 0000 19b2 a82f
000000e0: a179 dd36 f401 0000 f401 0000 f401 0000
000000f0: f401 0000 f401 0000 f401 0000 f401 0000
00000100: f401 0000 dcc1 b537 f401 0000 f401 0000
00000110: 2440 8032 ce37 ef37 08c2 2037 f401 0000
00000120: 0000 0000 0000 0000 0000 0000 0000 0000
00000130: 0000 0000 0000 0000 0000 0000 0000 0000
00000140: 0000 0000 0000 0000 0000 0000 0000 0000
00000150: 0000 0000 0000 0000 0000 0000 0000 0000
00000160: 0000 0000 0000 0000 0000 0000 0000 0000
00000170: 0000 0000 0000 0000 0000 0000 0000 0000
00000180: 0000 0000 0000 0000 0000 0000 0000 0000
00000190: 0000 0000 0000 0000 0000 0000 0000 0000
000001a0: 0000 0000 0000 0000 0000 0000 0000 0000
000001b0: 0000 0000 0000 0000 0000 0000 0000 0000
000001c0: 0000 0000 0000 0000 0000 0000 0000 0000
000001d0: 0000 0000 0000 0000 0000 0000 0000 0000
000001e0: 0000 0000 0000 0000 0000 0000 0000 0000
000001f0: 0000 0000 0000 0000 0000 0000 0000 0000
00000200: 0000 0000 0000 0000 0000 0000 0000 0000
00000210: 0000 0000 0000 0000 0000 0000 0000 0000
00000220: 0000 0000 0000 0000 0000 0000 0000 0000
00000230: 0000 0000 0000 0000 0000 0000 0000 0000
00000240: 94ca 2237 f401 0000 f401 0000 f401 0000
00000250: f401 0000 f401 0000 f401 0000 f401 0000
00000260: f401 0000 f401 0000 f401 0000 f401 0000
00000270: 95fa 5037 4f58 0237 485f 5833 f401 0000
00000280: f401 0000 9e01 1600 0000 0000 0000 0000
00000290: 0000 0000 0000 0000 0000 0000 0000 0000
000002a0: 0000 0000 0000 0000 0000 0000 0000 0000
000002b0: 0000 0000 0000 0000 0000 0000 0000 0000
000002c0: 0000 0000 0000 0000 0000 0000 0000 0000
000002d0: 0000 0000 0000 0000 0000 0000 0000 0000
000002e0: 0000 0000 0000 0000 0000 0000 0000 0000
000002f0: 0000 0000 0000 0000 0000 0000 0000 0000
00000300: 0000 0000 0000 0000 0000 0000 0000 0000
00000310: 0000 0000 0000 0000 0000 0000 0000 0000
00000320: 0000 0000 0000 0000 0000 0000 0000 0000
00000330: 0000 0000 0000 0000 0000 0000 0000 0000
00000340: 0000 0000 0000 0000 0000 0000 0000 0000
00000350: 0000 0000 0000 0000 0000 0000 0000 0000
00000360: 0000 0000 0000 0000 0000 0000 0000 0000
00000370: 0000 0000 0000 0000 0000 0000 0000 0000
00000380: 0000 0000 0000 0000 0000 0000 0000 0000
00000390: 0000 0000 0000 0000 0000 0000 0000 0000
000003a0: 0000 0000 0000 0000 0000 0000 0000 0000
000003b0: 0000 0000 0000 0000 0000 0000 0000 0000
000003c0: 0000 0000 0000 0000 0000 0000 0000 0000
000003d0: 0000 0000 0000 0000 0000 0000 0000 0000
000003e0: 0000 0000 0000 0000 0000 0000 0000 0000
000003f0: 0000 0000 0000 0000 0000 0000 0000 0000
0.0 0.0 0.0 0.0 0.0 0.0 0.0 0.0
0.0 0.0 0.0 0.0 0.0 0.0 0.0 0.0
0.0 0.0 0.0 0.0 0.0 0.0 0.0 0.0
0.0 0.0 0.0 0.0 0.0 0.0 0.0 0.0
0.0 0.0 0.0 0.0 0.0 0.0 0.0 0.0
0.0 0.0 0.0 0.0 0.0 0.0 0.0 0.0
0.0 0.0 0.0 0.0 0.0 0.0 7e-43 3.0685568e-10
6.6004727e-06 7e-43 7e-43 7e-43 7e-43 7e-43 7e-43 7e-43
7e-43 2.1667154e-05 7e-43 7e-43 1.4930329e-08 2.8517006e-05 9.58192e-06 7e-43
0.0 0.0 0.0 0.0 0.0 0.0 0.0 0.0
0.0 0.0 0.0 0.0 0.0 0.0 0.0 0.0
0.0 0.0 0.0 0.0 0.0 0.0 0.0 0.0
0.0 0.0 0.0 0.0 0.0 0.0 0.0 0.0
0.0 0.0 0.0 0.0 0.0 0.0 0.0 0.0
0.0 0.0 0.0 0.0 0.0 0.0 0.0 0.0
0.0 0.0 0.0 0.0 0.0 0.0 0.0 0.0
0.0 0.0 0.0 0.0 0.0 0.0 0.0 0.0
0.0 0.0 0.0 0.0 0.0 0.0 0.0 0.0
9.703119e-06 7e-43 7e-43 7e-43 7e-43 7e-43 7e-43 7e-43
7e-43 7e-43 7e-43 7e-43 1.2456109e-05 7.769165e-06 5.0378077e-08 7e-43
7e-43 2.020961e-39 0.0 0.0 0.0 0.0 0.0 0.0
0.0 0.0 0.0 0.0 0.0 0.0 0.0 0.0
0.0 0.0 0.0 0.0 0.0 0.0 0.0 0.0
0.0 0.0 0.0 0.0 0.0 0.0 0.0 0.0
0.0 0.0 0.0 0.0 0.0 0.0 0.0 0.0
0.0 0.0 0.0 0.0 0.0 0.0 0.0 0.0
0.0 0.0 0.0 0.0 0.0 0.0 0.0 0.0
0.0 0.0 0.0 0.0 0.0 0.0 0.0 0.0
0.0 0.0 0.0 0.0 0.0 0.0 0.0 0.0
0.0 0.0 0.0 0.0 0.0 0.0 0.0 0.0
0.0 0.0 0.0 0.0 0.0 0.0 0.0 0.0
0.0 0.0 0.0 0.0 0.0 0.0 0.0 0.0

exp_avg f4 [18]
00000000: 0400 0000 1001 81b9 0400 0000 b4bf b0ba
00000010: d69f 5e3c b314 698a 5bab 6d36 0400 0000
00000020: c450 e73c 1a95 943b 917c 80bc 5967 de3a
00000030: 9c7e 133b fe6a 453b 5050 46ba 9ad6 f4ba
00000040: 6f07 99ba 2711 4b3a
6e-45 -0.0002460559 6e-45 -0.0013484866 0.013587913 -1.1222435e-32 3.5415494e-06 6e-45
0.028236754 0.004534376 -0.015684398 0.0016968056 0.0022505885 0.0030123587 -0.0007565068 -0.0018679679
-0.0011675189 0.00077463913

exp_avg_sq f4 [18]
00000000: f401 0000 d82b 0f35 f401 0000 2e88 e738
00000010: a3fe ec3b b0eb 9f11 7f5d 2736 ae6e 1a00
00000020: 1e56 0a3e 242f 963a d95e 8e3b 81f4 863b
00000030: e32b a23a b6cb 0b3a be25 c339 bd46 1f3b
00000040: 9e76 e139 259f a737
7e-43 5.333545e-07 7e-43 0.00011040304 0.0072325035 2.523103e-28 2.493936e-06 2.427427e-39
0.13509414 0.0011458141 0.004344803 0.0041185026 0.0012372698 0.00053327845 0.00037221418 0.0024303638
0.0004300372 1.9982059e-05

exp_avg f4 [18]
00000000: 0400 0000 e10f ceb8 0400 0080 c5b9 95ba
00000010: 7506 d63b 3c2a a088 9c91 3735 0400 0000
00000020: ff30 213d dae9 a63a 84c8 c0bb b751 ad3c
00000030: 4989 583c b871 8b3b 7d66 2f3b 9d70 0e3b
00000040: bbaf 08ba b866 1c3a
6e-45 -9.825803e-05 -6e-45 -0.0011423161 0.0065315315 -9.639579e-34 6.83847e-07 6e-45
0.039353367 0.0012734488 -0.0058832783 0.021157129 0.013216325 0.0042554997 0.0026763969 0.0021734603
-0.0005214174 0.0005966234

exp_avg_sq f4 [18]
00000000: f401 0000 bba5 d033 f401 0000 1175 b339
00000010: 72b6 283b 70b8 ad0e 27cb 9034 5f5f 0000
00000020: 7caa a13d fa6d 303c f5b5 473b baf7 583d
00000030: 5e23 3f3d f18d 4f3b 5c15 f43a 279c db3a
00000040: 0200 6c39 e793 d937
7e-43 9.715901e-08 7e-43 0.00034228762 0.0025743512 4.28254e-30 2.6969903e-07 3.4213e-41
0.078938454 0.010768408 0.0030473445 0.052970625 0.04666459 0.0031670297 0.0018622088 0.0016754911
0.00022506717 2.5937288e-05

exp_avg f4 [18]
00000000: 5851 0c3b 794a 023a a2ab fbb9 0400 0000
00000010: 0400 0080 0400 0000 0400 0000 0400 0000
00000020: 0400 0000 e628 d5b9 029f 6138 f652 a53a
00000030: 633f 10b6 0a1b 82ba f44a ea34 75e4 413a
00000040: 7cdb 8139 0400 0000
0.002141079 0.0004970204 -0.00048002327 6e-45 -6e-45 6e-45 6e-45 6e-45
6e-45 -0.00040656998 5.3792268e-05 0.0012613225 -2.1494568e-06 -0.0009926271 4.3640432e-07 0.00073964085
0.00024768326 6e-45

exp_avg_sq f4 [18]
00000000: 17b8 8738 28f2 9b37 6224 0337 7436 b712
00000010: f401 0000 f401 0000 f401 0000 f401 0000
00000020: f401 0000 e1c1 9836 2b12 4836 94e4 0038
00000030: 7b8e d02f 0109 2638 7e62 ef33 6394 ae38
00000040: 84ea 9038 e1c1 4901
6.471591e-05 1.8590203e-05 7.8166795e-06 1.1562347e-27 7e-43 7e-43 7e-43 7e-43
7e-43 4.5525235e-06 2.9812898e-06 3.0730458e-05 3.7936218e-10 3.958587e-05 1.11472204e-07 8.324606e-05
6.910137e-05 3.705697e-38

exp_avg f4 [18]
00000000: 22de 6e3a 1e37 bc39 8538 b3b9 0400 0000
00000010: 0400 0080 0400 0000 0400 0000 0400 0000
00000020: 0400 0000 3f36 dd39 0ece cdb8 491e 963a
00000030: 9f29 b2b8 0d19 01ba 0a7f 3334 b24b 473a
00000040: 5aca ce39 0400 0000
0.000911208 0.0003589922 -0.0003418365 6e-45 -6e-45 6e-45 6e-45 6e-45
6e-45 0.0004219282 -9.8135424e-05 0.0011453117 -8.495454e-05 -0.00049246923 1.671689e-07 0.0007602527
0.00039442145 6e-45

exp_avg_sq f4 [18]
00000000: 94ca 2237 c9b1 0537 a179 dd36 bfd9 b810
00000010: f401 0000 f401 0000 f401 0000 f401 0000
00000020: f401 0000 70c2 1b37 9a58 b836 bab5 d237
00000030: 94fa 5037 5358 0237 2440 8032 cc37 ef37
00000040: 6cb9 5638 9e01 1600
9.703119e-06 7.968812e-06 6.6004727e-06 7.2910694e-29 7e-43 7e-43 7e-43 7e-43
7e-43 9.283991e-06 5.493942e-06 2.5118574e-05 1.2456108e-05 7.769168e-06 1.4930329e-08 2.8517003e-05
5.1194264e-05 2.020961e-39

exp_avg f4 [18]
00000000: 0400 0000 99d2 89b8 0400 0000 7f9e 673b
00000010: 5e96 cb39 3065 593b 5ad8 053b 4e0c 223b
00000020: 573c 64bc 7df6 db3a 99e1 d33a 9202 3dbc
00000030: 329c 403c 2a71 313b cc71 b13a e648 b33b
00000040: 2fa5 fd39 7e34 73b9
6e-45 -6.571896e-05 6e-45 0.0035342274 0.0003883121 0.0033171885 0.0020423145 0.0024726572
-0.013930402 0.0016781833 0.0016165256 -0.011536257 0.01175599 0.0027075508 0.0013537942 0.0054713367
0.00048378992 -0.00023193841

exp_avg_sq f4 [18]
00000000: f401 0000 f6b9 ab36 f401 0000 9196 8c39
00000010: ef7e f338 a8e0 1a39 c570 9a39 4a8b 2939
00000020: 3fee 943b 85ec 8e39 a6ab 2d3a 7f8c 9a3c
00000030: 75b7 253c 5e04 923a b6b8 aa3a 2217 5e3a
00000040: dfbc b73a 478f 2737
7e-43 5.117846e-06 7e-43 0.00026815062 0.00011610786 0.00014770275 0.0002945719 0.00016168985
0.0045450027 0.0002726057 0.0006625004 0.018865822 0.01011454 0.0011140218 0.0013025019 0.0008472075
0.001401808 9.987335e-06

exp_avg f4 [18]
00000000: 0400 0000 e0d3 3fba 0400 0000 a54e 06bb
00000010: 8e8a e53a 3888 f03a a79c 9fba 9752 843a
00000020: f4c9 0f3a c944 7cba d8c1 08bb 78f7 5939
00000030: 2b9b 493b b44a d73a a6aa 93b9 05f1 9cba
00000040: 0374 043b 9486 83ba
6e-45 -0.00073176436 6e-45 -0.0020493653 0.0017512606 0.0018351143 -0.0012177423 0.0010095414
0.00054851105 -0.0009623287 -0.0020867493 0.00020786922 0.0030762653 0.0016425462 -0.00028165168 -0.0011973685
0.002021075 -0.0010034614

exp_avg_sq f4 [18]
00000000: f401 0000 ba54 9537 f401 0000 7347 4938
00000010: 0bcb c938 3abe 0039 69ca 8c39 f578 1639
00000020: 4f1d ec3a c019 c138 baac cd39 69ed 8d39
00000030: 8f0b 5239 a592 1739 952c 7939 cdeb 6a3a
00000040: 8a1c 363a 010e 5f38
7e-43 1.7801638e-05 7e-43 4.7988677e-05 9.6222466e-05 0.00012277896 0.00026853688 0.00014350175
0.0018014106 9.2077535e-05 0.00039229338 0.000270705 0.00020031467 0.00014455112 0.00023763099 0.00089615287
0.00069470017 5.3180385e-05

exp_avg f4 [18]
00000000: 0400 0000 b60c f8b9 0400 0000 ad13 5cbb
00000010: 445f 04ba 1927 c03a cf0b a33c 9723 20bb
00000020: 45fa 7639 86fe 42ba cbcd 823b 9c82 ebbc
00000030: a822 a0bc c0b6 a1ba 87aa 553a 79bc 23bb
00000040: bcc2 993a 6bf3 90ba
6e-45 -0.00047311716 6e-45 -0.0033581064 -0.0005049596 0.001466009 0.019903092 -0.0024435276
0.00023553621 -0.00074384396 0.0039918176 -0.028748803 -0.019547775 -0.0012337789 0.0008150716 -0.0024984165
0.0011731009 -0.0011058872

exp_avg_sq f4 [18]
00000000: f401 0000 bc08 f737 f401 0000 4b55 813a
00000010: b903 5938 888d b638 76a5 733c 5a32 473a
00000020: 54d3 863b 5d18 9c38 021b 453a 1ab1 203d
00000030: 5cfb 3b3d b271 8c39 2436 1b39 9d4c 203b
00000040: 43f4 3e3b f64f b837
7e-43 2.9448762e-05 7e-43 0.0009867338 5.17403e-05 8.7047985e-05 0.014870992 0.00075987505
0.0041145477 7.443198e-05 0.0007518978 0.039231397 0.04589401 0.0002678759 0.00014802121 0.0024459728
0.002913729 2.1971744e-05

exp_avg f4 [18]
00000000: 0400 0000 e0d3 3fba 0400 0000 a54e 06bb
00000010: 8e8a e53a 3888 f03a a79c 9fba 9752 843a
00000020: f4c9 0f3a c944 7cba d8c1 08bb 78f7 5939
00000030: 2b9b 493b b44a d73a a6aa 93b9 05f1 9cba
00000040: 0374 043b 9486 83ba
6e-45 -0.00073176436 6e-45 -0.0020493653 0.0017512606 0.0018351143 -0.0012177423 0.0010095414
0.00054851105 -0.0009623287 -0.0020867493 0.00020786922 0.0030762653 0.0016425462 -0.00028165168 -0.0011973685
0.002021075 -0.0010034614

exp_avg_sq f4 [18]
00000000: f401 0000 ba54 9537 f401 0000 7347 4938
00000010: 0bcb c938 3abe 0039 69ca 8c39 f578 1639
00000020: 4f1d ec3a c019 c138 baac cd39 69ed 8d39
00000030: 8f0b 5239 a592 1739 952c 7939 cdeb 6a3a
00000040: 8a1c 363a 010e 5f38
7e-43 1.7801638e-05 7e-43 4.7988677e-05 9.6222466e-05 0.00012277896 0.00026853688 0.00014350175
0.0018014106 9.2077535e-05 0.00039229338 0.000270705 0.00020031467 0.00014455112 0.00023763099 0.00089615287
0.00069470017 5.3180385e-05

exp_avg f4 [18]
00000000: 16ea 2c3a b658 e43a a55f 6339 0400 0000
00000010: 0400 0000 0400 0080 0400 0000 0400 0000
00000020: aed1 67ba 27db 6bbb b6f0 ea39 3521 533a
00000030: 81b2 9fba 992a c639 9976 07b3 51e6 da37
00000040: f6e1 c03a 544d f0b9
0.0006596161 0.0017421457 0.00021684037 6e-45 6e-45 -6e-45 6e-45 6e-45
-0.00088431954 -0.003598878 0.00044811302 0.00080539595 -0.0012183936 0.0003779724 -3.154e-08 2.6094875e-05
0.0014715779 -0.0004583398

exp_avg_sq f4 [18]
00000000: 3f36 8f37 a547 fc37 e875 ea36 5cf2 1218
00000010: f401 0000 f401 0000 f401 0000 f401 0000
00000020: 40c8 fe37 82b8 7339 7ff4 f436 74be 4b38
00000030: cbfc c237 d1cd 2f36 817c 3131 429f e337
00000040: 748d 8039 4c5b 9f37
1.7072189e-05 3.0074103e-05 6.9874695e-06 1.8992418e-24 7e-43 7e-43 7e-43 7e-43
3.0372408e-05 0.0002324302 7.3002298e-06 4.8576345e-05 2.3244318e-05 2.6196833e-06 2.5827662e-09 2.7134669e-05
0.00024519453 1.899679e-05

exp_avg f4 [18]
00000000: 22de 6e3a b5be 3b3a 8538 b3b9 0400 0000
00000010: 0400 0000 0400 0000 0400 0000 0400 0000
00000020: cd13 96b9 04a4 2cbb 0ece cdb8 491e 963a
00000030: 9f29 b2b8 0d19 01ba 0a7f 3334 b24b 473a
00000040: 5aca ce39 2264 49ba
0.000911208 0.00071619014 -0.0003418365 6e-45 6e-45 6e-45 6e-45 6e-45
-0.00028624982 -0.0026342878 -9.8135424e-05 0.0011453117 -8.495454e-05 -0.00049246923 1.671689e-07 0.0007602527
0.00039442145 -0.00076824625

exp_avg_sq f4 [18]
00000000: 97ca 2237 c3d1 de36 1b6f dd36 0cb3 f015
00000010: f401 0000 f401 0000 f401 0000 f401 0000
00000020: 0f61 8238 4bdf 6539 9a58 b836 bab5 d237
00000030: 94fa 5037 5859 0237 2440 8032 cc37 ef37
00000040: 6cb9 5638 af69 9f37
9.703122e-06 6.640535e-06 6.5992476e-06 9.7217714e-26 7e-43 7e-43 7e-43 7e-43
6.2169616e-05 0.00021922325 5.493942e-06 2.5118574e-05 1.2456108e-05 7.769406e-06 1.4930329e-08 2.8517003e-05
5.1194264e-05 1.900349e-05

exp_avg f4 [18]
00000000: 545f bc3a 51f3 9fb9 0149 abb9 1e50 8f3a
00000010: 93d9 313b d771 15ba 4f92 83ba abb6 9eba
00000020: 5f74 313c 6256 a6ba 381a fa3b 26e3 bdbc
00000030: 7b19 fd3b 6308 97ba 56b6 003b 1ea9 713b
00000040: 80f1 84bb 8a2a a13a
0.0014371672 -0.00030508128 -0.00032670054 0.0010933911 0.002713774 -0.00057008624 -0.001003811 -0.0012108883
0.010830968 -0.0012690539 0.00763252 -0.023179602 0.007723985 -0.0011522885 0.001963993 0.0036874483
-0.0040571094 0.0012296003

exp_avg_sq f4 [18]
00000000: 0c2d 1139 c8de 2d39 589b 8c37 b789 5637
00000010: c5a1 5b3a 64d5 0e38 6852 573a 2299 4b39
00000020: eaa8 2c3d dbce d538 ee2d 0b3b 3969 d63c
00000030: 316e 063a 3f2e 9238 9cd5 0e39 c32a a73a
00000040: 95d3 6a3b 6ff9 2537
0.00013845059 0.00016581558 1.6761638e-05 1.2787458e-05 0.00083782926 3.4054174e-05 0.00082138786 0.00019416635
0.042153277 0.00010195161 0.0021237093 0.026173221 0.0005128114 6.9704365e-05 0.00013621751 0.0012753833
0.003583168 9.892842e-06

exp_avg f4 [18]
00000000: 9b01 4e3b 7fe3 0e3a 83e7 133a 8d76 12bb
00000010: 8e8a e53a 3888 f03a a79c 9fba 9752 843a
00000020: f4c9 0f3a 4966 75ba d8c1 08bb 78f7 5939
00000030: 2b9b 493b b44a d73a a6aa 93b9 05f1 9cba
00000040: 0374 043b 9486 83ba
0.0031434062 0.00054507697 0.0005642103 -0.0022348494 0.0017512606 0.0018351143 -0.0012177423 0.0010095414
0.00054851105 -0.000936125 -0.0020867493 0.00020786922 0.0030762653 0.0016425462 -0.00028165168 -0.0011973685
0.002021075 -0.0010034614

exp_avg_sq f4 [18]
00000000: e8ba 4939 9acc 0839 7796 a037 9be3 4b38
00000010: 0bcb c938 3abe 0039 69ca 8c39 f578 1639
00000020: 4f1d ec3a 69e4 bf38 baac cd39 69ed 8d39
00000030: 8f0b 5239 a592 1739 952c 7939 cdeb 6a3a
00000040: 8a1c 363a 010e 5f38
0.00019238482 0.0001304619 1.9143552e-05 4.8610946e-05 9.6222466e-05 0.00012277896 0.00026853688 0.00014350175
0.0018014106 9.1501344e-05 0.00039229338 0.000270705 0.00020031467 0.00014455112 0.00023763099 0.00089615287
0.00069470017 5.3180385e-05

exp_avg f4 [18]
00000000: 7bd6 ef3a 7d82 623b 42fe b039 38b0 da3a
00000010: f4a6 71bb 192c a53b 04e0 72b9 6d16 fc3a
00000020: 27d6 5d3b 0492 07bb a204 843a a6ce bd3b
00000030: c07a 033c 09a8 3b3a 40a5 a63b 50bf c53b
00000040: e57e 55bb 9ed4 13ba
0.0018298173 0.003456264 0.00033758773 0.0016684597 -0.0036873193 0.0050406572 -0.00023162371 0.0019232758
0.0033849569 -0.0020686397 0.0010072181 0.0057924567 0.008024871 0.0007158523 0.0050856173 0.006034769
-0.0032576856 -0.00056392874

exp_avg_sq f4 [18]
00000000: e533 9d39 0732 ca39 2a30 ec37 02a4 043a
00000010: 857b 8e39 ba6c 9439 2317 ce3a 90bb 143a
00000020: 5056 103c 97c9 f839 ff0e 253a 764c 023b
00000030: bc17 2c3a 3c9a b539 6925 153a 8693 823b
00000040: d7c5 aa3b 06a2 0537
0.00029984038 0.00038565716 2.815582e-05 0.00050598395 0.0002717638 0.00028309767 0.0015723448 0.0005673701
0.008809641 0.00047452442 0.0006296485 0.0019882 0.0006564816 0.00034637924 0.00056894735 0.0039848713
0.0052115726 7.965142e-06

exp_avg f4 [18]
00000000: 9b01 4e3b 7fe3 0e3a 83e7 133a 8d76 12bb
00000010: 8e8a e53a 3888 f03a a79c 9fba 9752 843a
00000020: f4c9 0f3a 4966 75ba d8c1 08bb 78f7 5939
00000030: 2b9b 493b b44a d73a a6aa 93b9 05f1 9cba
00000040: 0374 043b 9486 83ba
0.0031434062 0.00054507697 0.0005642103 -0.0022348494 0.0017512606 0.0018351143 -0.0012177423 0.0010095414
0.00054851105 -0.000936125 -0.0020867493 0.00020786922 0.0030762653 0.0016425462 -0.00028165168 -0.0011973685
0.002021075 -0.0010034614

exp_avg_sq f4 [18]
00000000: e8ba 4939 9acc 0839 7796 a037 9be3 4b38
00000010: 0bcb c938 3abe 0039 69ca 8c39 f578 1639
00000020: 4f1d ec3a 69e4 bf38 baac cd39 69ed 8d39
00000030: 8f0b 5239 a592 1739 952c 7939 cdeb 6a3a
00000040: 8a1c 363a 010e 5f38
0.00019238482 0.0001304619 1.9143552e-05 4.8610946e-05 9.6222466e-05 0.00012277896 0.00026853688 0.00014350175
0.0018014106 9.1501344e-05 0.00039229338 0.000270705 0.00020031467 0.00014455112 0.00023763099 0.00089615287
0.00069470017 5.3180385e-05

exp_avg f4 [36, 36]
00000000: bcbe a5b5 fd9c d038 4fd7 bb38 0400 0080
00000010: 0400 0000 0400 0080 0400 0080 0400 0000
00000020: b737 3639 2407 82b7 6aa0 a737 a060 3439
00000030: 5b03 2739 4d12 37b7 8916 f6ae f7ec 3339
00000040: 1c11 1739 55d1 8938 acc1 ab38 cc5c fb37
00000050: 2d9a ef37 d64e d338 a14f 6a39 402c 9337
00000060: bf30 0138 d30c 003a 11ad 8d39 09d5 823a
00000070: 6f2e d139 2007 c038 7919 5f39 e8a9 9f39
00000080: a7a0 293a f442 3a3a 05e5 a638 31f7 a438
00000090: fdb4 20b8 0fec 02b8 f015 abb8 0400 0000
000000a0: 0400 0000 0400 0080 0400 0000 0400 0000
000000b0: 26aa f2b8 76bb 2738 71f2 92b7 3543 15b9
000000c0: 25f5 93b8 112a 51b6 c73a 11b1 2f47 27b9
000000d0: 219a d7b8 4984 42b8 26c9 08b8 31bf 5a36
000000e0: 3601 3638 e429 9e36 525a 58b8 d788 5d36
000000f0: efc9 3b37 9e03 62b8 5033 fcb5 0fb3 5fb9
00000100: 3356 e837 0024 3539 d79f a138 b40b e2b8
00000110: cb63 b5b9 993c a4b8 bd9a 4e38 ec25 f437
00000120: 8f6f d438 88f3 a539 38fe 5fb9 0400 0000
00000130: 0400 0080 0400 0080 0400 0000 0400 0000
00000140: d403 cb37 349a d4b8 25d3 39b6 d974 99b9
00000150: 153e 8c39 eca6 b9b7 32ab bdb2 6c1f e5b9
00000160: 3686 9bb8 5db0 36b7 e455 3c39 f7fa 0ab8
00000170: 0f64 61b7 01a3 9d38 a199 7ab8 6c1c f638
00000180: 3bce 42b8 d774 d939 985e b8b8 d379 793a
00000190: 8291 1539 f650 9339 195f 123a ba2e 133a
000001a0: 2170 2eb8 25f0 a239 a793 af38 9084 3538
000001b0: 4af8 edb6 fea1 11ba 3e18 a338 0400 0000
000001c0: 0400 0080 0400 0080 0400 0000 0400 0080
000001d0: 54c5 9638 f52d d7b6 9aef f237 fdc1 c937
000001e0: 3a07 3c39 cd61 4037 0fd9 1fb1 bc3c 1439
000001f0: fcd0 07b9 b961 8237 2cd1 b837 f7c6 1c38
00000200: 110e ab38 e1e4 7bb8 fbd1 8eb7 24b6 0b38
00000210: 626d cc38 4241 1c39 a3ce 92b9 1a85 243a
00000220: 5fa7 a4b7 b97c d739 06c7 003a 0a48 e539
00000230: 0c5e 5639 1e31 a839 be46 b937 c554 f637
00000240: fa2d 96b8 6189 0cb6 764c 4638 0400 0000
00000250: 0400 0000 0400 0000 0400 0000 0400 0080
00000260: de2a e138 566d 5c37 0ffc 5ba7 cb99 b137
00000270: d327 2fb8 eeb9 20b7 2673 b731 2c0a 1e38
00000280: 79ac 7837 df04 1438 187f 9137 026f f537
00000290: 68a9 83b7 0368 f138 0180 3738 381e 9137
000002a0: 52dc 94b7 5d0b 0038 7db9 9938 0aa6 d5b7
000002b0: 806a 1db7 1425 4338 1738 2f37 54d2 1cb8
000002c0: 21e7 7fb7 a808 0b39 42f5 6438 8242 a2b7
000002d0: 2434 4a39 dad0 b138 b7fc 7eb9 0400 0080
000002e0: 0400 0000 0400 0080 0400 0080 0400 0000
000002f0: b304 17b9 5e5d ea38 c69a 3eb7 7f7b b1b9
00000300: 7d9f a239 96cf 1c38 e42b 5533 d8bf eeb9
00000310: d06d 40b9 26ae 88b8 d2a6 b138 4d8f 37b8
00000320: e52d d9b8 27ca 84b9 db8f 46b8 ccdc 4539
00000330: 3106 8f38 4c71 143a 818a 02ba d60e 673a
00000340: 4663 ffb9 ee06 b0b9 1e17 eb39 bf83 9c3a
00000350: 56b5 f339 193d 403a 2cd1 8e39 080c 40b8
00000360: 933c feb6 7669 063a ca0f 6db9 0400 0000
00000370: 0400 0080 0400 0080 0400 0000 0400 0000
00000380: 422c 31b8 aefa 6638 7a4d acb7 5896 9eb9
00000390: 6d50 58b8 a6ff b837 bf7b 0fb2 5331 fbb9
000003a0: 3368 0eb8 b91c b4b7 b4be 0e38 72f3 28b8
000003b0: 0ec0 e4b8 9262 d938 1b9a 7836 1340 6438
000003c0: 3674 30b8 75bf 8d38 dd1a ba38 be11 82b9
000003d0: ef5e 15b9 1177 d1b7 0724 feb7 cb31 8fb8
000003e0: 3186 58b9 28b2 a4b9 e6d3 d5b8 5d12 99b7
000003f0: 4c2b ce36 636b bf39 0400 0080 0400 0000
-1.2348969e-06 9.947454e-05 8.956959e-05 -6e-45 6e-45 -6e-45 -6e-45 6e-45
0.00017377628 -1.5500533e-05 1.998265e-05 0.00017202133 0.00015927611 -1.0911911e-05 -1.1190788e-10 0.00017159047
0.00014406856 6.57166e-05 8.1899896e-05 2.9964744e-05 2.8562814e-05 0.000100759484 0.00022345643 1.7544371e-05
3.0801395e-05 0.00048847235 0.0002702256 0.0009981702 0.00039898182 9.1566006e-05 0.00021276427 0.00030453433
0.00064707774 0.00071053137 7.958155e-05 7.8661724e-05 -3.831553e-05 -3.1214262e-05 -8.1580016e-05 6e-45
6e-45 -6e-45 6e-45 6e-45 -0.00011571152 3.999049e-05 -1.7517452e-05 -0.00014234784
-7.055168e-05 -3.1167913e-06 -2.1133688e-09 -0.00015952879 -0.00010280708 -4.6376404e-05 -3.261226e-05 3.259582e-06
4.339331e-05 4.7136436e-06 -5.158253e-05 3.3011218e-06 1.1193085e-05 -5.3885968e-05 -1.8790397e-06 -0.00021333642
2.7696695e-05 0.00017274916 7.706851e-05 -0.000107787 -0.00034597362 -7.8314166e-05 4.925834e-05 2.9104725e-05
0.00010129727 0.00031652697 -0.00021361641 6e-45 -6e-45 -6e-45 6e-45 6e-45
2.4201268e-05 -0.0001013767 -2.769005e-06 -0.00029269492 0.00026749136 -2.2131448e-05 -2.2080346e-08 -0.00043701695
-7.415975e-05 -1.0889108e-05 0.00017961074 -3.3135493e-05 -1.3434342e-05 7.516705e-05 -5.9747723e-05 0.00011735488
-4.644527e-05 0.00041476518 -8.791423e-05 0.00095167494 0.00014263953 0.00028098346 0.00055836287 0.0005614568
-4.158926e-05 0.0003107797 8.372153e-05 4.327722e-05 -7.092055e-06 -0.000555545 7.776961e-05 6e-45
-6e-45 -6e-45 6e-45 -6e-45 7.1893126e-05 -6.4128494e-06 2.8960221e-05 2.40514e-05
0.00017931769 1.1466863e-05 -2.3260929e-09 0.00014137005 -0.00012952456 1.5542713e-05 2.2031913e-05 3.73786e-05
8.1565355e-05 -6.0056223e-05 -1.7025499e-05 3.3309814e-05 9.747852e-05 0.0001490163 -0.00028001246 0.0006275937
-1.9628262e-05 0.0004110092 0.00049124693 0.00043731957 0.00020443666 0.00032080052 2.208666e-05 2.936496e-05
-7.161121e-05 -2.094159e-06 4.727809e-05 6e-45 6e-45 6e-45 6e-45 -6e-45
0.00010736821 1.3138479e-05 -3.0528997e-15 2.117166e-05 -4.176034e-05 -9.580033e-06 5.339092e-09 3.767961e-05
1.4822109e-05 3.5290486e-05 1.734453e-05 2.9257968e-05 -1.5695303e-05 0.00011511149 4.3749813e-05 1.7299419e-05
-1.774557e-05 3.052816e-05 7.3301584e-05 -2.5468897e-05 -9.382726e-06 4.6526155e-05 1.0443872e-05 -3.738918e-05
-1.5252998e-05 0.00013259298 5.458785e-05 -1.9342875e-05 0.00019283645 8.478919e-05 -0.00024317471 -6e-45
6e-45 -6e-45 -6e-45 6e-45 -0.00014402233 0.000111753805 -1.13609185e-05 -0.00033852083
0.00031017876 3.7386628e-05 4.9632845e-08 -0.00045537832 -0.00018351455 -6.517423e-05 8.4710904e-05 -4.376406e-05
-0.00010355915 -0.00025327617 -4.7340855e-05 0.00018869637 6.8199246e-05 0.00056626345 -0.0004979745 0.00088141614
-0.00048711355 -0.000335745 0.00044839917 0.0011941119 0.00046483678 0.0007333323 0.00027240196 -4.5787572e-05
-7.5768417e-06 0.0005127409 -0.00022607963 6e-45 -6e-45 -6e-45 6e-45 6e-45
-4.2241307e-05 5.5069737e-05 -2.0540076e-05 -0.00030248123 -5.1573315e-05 2.2053555e-05 -8.351832e-09 -0.000479112
-3.395248e-05 -2.1471047e-05 3.4033044e-05 -4.0281047e-05 -0.0001090766 0.000103657265 3.704458e-06 5.441911e-05
-4.20699e-05 6.7590656e-05 8.874175e-05 -0.0002480875 -0.00014245113 -2.4970186e-05 -3.0295936e-05 -6.828046e-05
-0.00020649355 -0.00031413254 -0.000101961006 -1.8247572e-05 6.144319e-06 0.00036510368 -6e-45 6e-45

exp_avg_sq f4 [36, 36]
00000000: 24c9 e332 172a 8f37 dbc8 5434 5b80 f60f
00000010: f401 0000 f401 0000 f401 0000 f401 0000
00000020: 295e b434 ad77 4134 2391 2033 3627 ed35
00000030: 6c56 ef34 a3a4 6231 42fa 2d2c 09cf 5735
00000040: 9a51 7f36 40ba 9d33 c462 9c34 0d13 9932
00000050: ed1a 0733 8884 0035 cdb7 4134 6537 fe33
00000060: ec08 3333 e037 ce35 51ab 8b35 6e00 1c37
00000070: a04e b836 aeaf 0536 f48f cb35 db70 3636
00000080: f521 1736 31ba 0536 2f90 eb33 d7dc 7533
00000090: 8253 9e33 844e 4a37 3031 2534 e96d ab0f
000000a0: f401 0000 f401 0000 f401 0000 f401 0000
000000b0: 4298 7b34 6e2a 1d34 8ace 1d33 de36 3f35
000000c0: 9ba2 8734 4984 9931 77af 7d2c 9555 2335
000000d0: 3bbb 0636 20c8 2533 732d b832 5696 4132
000000e0: dfb3 4133 eef3 6a31 aa5f 0034 51a0 2533
000000f0: 26bf 4033 2aab 9d35 8183 2f30 5f6d 6036
00000100: ab2b f932 06e8 1035 364c b635 1eb3 0036
00000110: 8a4a ff35 935d 9c36 83d2 1e35 623a a033
00000120: f1b4 c733 82ac ca37 2f1a 1736 1dc6 2511
00000130: f401 0000 f401 0000 f401 0000 f401 0000
00000140: 54ca 7935 355d b034 3abb e633 a426 a336
00000150: 569d 5435 780d 4533 65e1 b52d 04b9 1737
00000160: f3ee 6636 1b40 5434 2fa8 e634 6d33 d433
00000170: 0911 e534 3647 1d36 f433 8935 7161 1334
00000180: 2b8c 3034 5c94 da35 4f84 a237 1c42 2437
00000190: 3675 9937 fc36 a737 1541 3537 e41c 1f37
000001a0: f3c3 8437 6b2b fe37 2103 9b36 d445 a034
000001b0: 6509 7032 d1bb 3337 b8af fd34 e29e fd0f
000001c0: f401 0000 f401 0000 f401 0000 f401 0000
000001d0: 13c0 d634 e167 ff33 ec80 6233 bfda a235
000001e0: 6265 4234 1c45 bf31 23ce d22c 105e 0036
000001f0: a8d9 e035 796a 9233 959b 5534 4429 e432
00000200: bd6c 7133 d770 1435 f3f7 2934 53b7 8033
00000210: 0d86 8233 853d ac35 65aa 2835 486a fb36
00000220: da4e 6536 6828 0a36 a338 1c36 7034 4b36
00000230: 53f3 3736 27fe e236 b234 a335 9e71 f832
00000240: dc2b aa32 17b8 5c32 8bec f334 9227 8211
00000250: f401 0000 f401 0000 f401 0000 f401 0000
00000260: 0b40 b934 b05c 0533 aa6a 902e 10c3 a735
00000270: 31df a734 c619 a832 0056 212e beec f435
00000280: a0c7 df34 a348 7833 9cd5 c632 20ac 9033
00000290: 478e c533 a753 5b35 84ef 0134 e900 aa33
000002a0: 6aa5 2534 d9da 0335 46ef 7f36 862f 8337
000002b0: 3d6c 9b36 14ea e436 c2dc db36 9e4f 9436
000002c0: 5c97 d535 cb91 7136 a7b1 2134 762b 9533
000002d0: ed6b 5b34 3253 8637 eb5d 3b36 7826 3611
000002e0: f401 0000 f401 0000 f401 0000 f401 0000
000002f0: 9c15 f435 7067 a834 6b14 7033 c013 0a37
00000300: 1f7b 0536 3c19 c033 b4c5 432f f8c6 3d37
00000310: 6ab1 ab36 f392 ba34 f3ee ea34 0b83 0334
00000320: 9348 3435 333c be35 0f3e b935 d20a 2335
00000330: 2e80 8434 44de c536 7a60 b437 06d8 b237
00000340: 6283 7137 f1fe b937 458d 8b37 46f2 9137
00000350: 5605 0037 454c 3737 1516 3036 c786 9a34
00000360: e786 be32 8b8a 4737 8dad d534 c29c d00f
00000370: f401 0000 f401 0000 f401 0000 f401 0000
00000380: 4189 ef34 1bf9 2634 b6bc 7a33 ebab 8a35
00000390: 6f4b 9934 d895 9632 c53c f52d b614 d435
000003a0: 85b4 ee35 70f7 9133 9b28 b833 2ec1 2f33
000003b0: c49f ed33 fd81 1c35 8258 8534 6794 b933
000003c0: dc2a bd33 ea0e 1736 33f3 9535 42a6 9c36
000003d0: ea5e 3136 a187 2f36 e319 1836 3a3f 7036
000003e0: 2145 3236 132d 8436 456a 0935 9e06 c132
000003f0: 6c67 eb32 5b6d c036 fc70 5a28 23fc fd0f
2.6517746e-08 1.7066528e-05 1.981711e-07 2.4306914e-29 7e-43 7e-43 7e-43 7e-43
3.3596123e-07 1.8018063e-07 3.7384904e-08 1.7669288e-06 4.45801e-07 3.2980914e-09 2.47237e-12 8.039502e-07
3.804546e-06 7.344761e-08 2.9129126e-07 1.7820208e-08 3.1456626e-08 4.7876574e-07 1.8041392e-07 1.1837873e-07
4.16848e-08 1.5364458e-06 1.0406167e-06 9.298425e-06 5.4927805e-06 1.9920803e-06 1.5166574e-06 2.7185804e-06
2.252052e-06 1.9926922e-06 1.0969267e-07 5.724436e-08 7.372638e-08 1.2058419e-05 1.5384717e-07 1.6904238e-29
7e-43 7e-43 7e-43 7e-43 2.3431588e-07 1.46372e-07 3.6742257e-08 7.1232887e-07
2.526402e-07 4.467925e-09 3.6050865e-12 6.084677e-07 2.0076538e-06 3.859907e-08 2.1441087e-08 1.1268261e-08
4.5099906e-08 3.419014e-09 1.1955731e-07 3.8562863e-08 4.4877332e-08 1.1747227e-06 6.385151e-10 3.3442263e-06
2.9007273e-08 5.398182e-07 1.3582237e-06 1.9177746e-06 1.9020674e-06 4.6600558e-06 5.916592e-07 7.4612004e-08
9.299573e-08 2.4160607e-05 2.2515994e-06 1.3077253e-28 7e-43 7e-43 7e-43 7e-43
9.3054155e-07 3.2850372e-07 1.0744266e-07 4.862277e-06 7.920511e-07 4.5879887e-08 2.0677413e-11 9.043379e-06
3.4411757e-06 1.976736e-07 4.2963208e-07 9.8813736e-08 4.266697e-07 2.3436273e-06 1.0222416e-06 1.3725891e-07
1.644227e-07 1.6285444e-06 1.9373516e-05 9.790554e-06 1.8293602e-05 1.9933555e-05 1.0803594e-05 9.483865e-06
1.5826872e-05 3.0299378e-05 4.619724e-06 2.985313e-07 1.3971975e-08 1.0712961e-05 4.7252774e-07 2.5008926e-29
7e-43 7e-43 7e-43 7e-43 4.000036e-07 1.1893258e-07 5.273698e-08 1.2133604e-06
1.8104541e-07 5.5666884e-09 5.9914448e-12 1.9128238e-06 1.6752647e-06 6.818022e-08 1.9893771e-07 2.6561459e-08
5.6211082e-08 5.52985e-07 1.5829555e-07 5.993811e-08 6.0779804e-08 1.2832903e-06 6.2832834e-07 7.4927557e-06
3.4169557e-06 2.0587122e-06 2.3278778e-06 3.027988e-06 2.7410758e-06 6.764912e-06 1.2159783e-06 2.8922667e-08
1.981055e-08 1.2847543e-08 4.5434385e-07 2.053477e-28 7e-43 7e-43 7e-43 7e-43
3.4505533e-07 3.1050774e-08 6.567309e-11 1.249924e-06 3.1268567e-07 1.9569494e-08 3.6683545e-11 1.8248318e-06
4.1682233e-07 5.7808062e-08 2.3147372e-08 6.736832e-08 9.1994075e-08 8.170559e-07 1.2101196e-07 7.9164074e-08
1.5427e-07 4.911977e-07 3.8137237e-06 1.5638547e-05 4.6319606e-06 6.82218e-06 6.552408e-06 4.4200124e-06
1.5913788e-06 3.5996661e-06 1.5058923e-07 6.946259e-08 2.0435228e-07 1.6012786e-05 2.791984e-06 1.4369123e-28
7e-43 7e-43 7e-43 7e-43 1.8185706e-06 3.13677e-07 5.5897925e-08 8.230039e-06
1.989021e-06 8.945287e-08 1.7805385e-10 1.1311604e-05 5.116851e-06 3.475212e-07 4.3759755e-07 1.2247999e-07
6.7160835e-07 1.4173623e-06 1.3801636e-06 6.073798e-07 2.468018e-07 5.8969326e-06 2.1502598e-05 2.1319847e-05
1.4395309e-05 2.2172435e-05 1.6635875e-05 1.7398164e-05 7.630637e-06 1.0925408e-05 2.6238897e-06 2.87828e-07
2.2180258e-08 1.1893581e-05 3.9800616e-07 2.0570764e-29 7e-43 7e-43 7e-43 7e-43
4.4617084e-07 1.5550579e-07 5.8379293e-08 1.0331836e-06 2.8553356e-07 1.753044e-08 2.7880262e-11 1.5801259e-06
1.778492e-06 6.797097e-08 8.575554e-08 4.092106e-08 1.1065234e-07 5.8303687e-07 2.4837578e-07 8.641728e-08
8.8087944e-08 2.2509435e-06 1.1172145e-06 4.6685172e-06 2.6430303e-06 2.6155979e-06 2.2664833e-06 3.579959e-06
2.6564305e-06 3.939154e-06 5.119112e-07 2.2471166e-08 2.7404631e-08 5.7347766e-06 1.21259305e-14 2.5044846e-29

exp_avg f4 [36]
00000000: bd64 823a f95d b8b8 9779 0f3a 0a3c f539
00000010: 49f0 f938 32b7 183a c248 9bb9 71c4 183a
00000020: b366 e439 c0d7 87b8 0400 0000 173a 61b9
00000030: 602d 31b9 837d d039 a4cc 8fb9 8a11 deb9
00000040: 4109 05b9 d26f 8cb9 5ce6 973a cde0 053a
00000050: d31f bf38 4d6c 47b8 b311 0a3a eb2f 70b9
00000060: f383 1e3a 4bf8 5d39 124e a4b9 ec46 a63a
00000070: 0f27 75ba fc14 48b9 1f2a 1eb9 e937 db39
00000080: a732 073a 7bb8 00ba b19e 0339 9e2d 0639
0.0009948235 -8.7913075e-05 0.00054731354 0.00046774774 0.00011918002 0.0005825638 -0.00029618113 0.0005827612
0.00043564066 -6.477488e-05 6e-45 -0.00021479312 -0.00016896939 0.00039766365 -0.00027427555 -0.00042356207
-0.00012687316 -0.00026786193 0.0011589038 0.0005107045 9.1135174e-05 -4.754616e-05 0.00052669196 -0.00022906034
0.00060468836 0.00021168699 -0.00031338684 0.0012685931 -0.00093518285 -0.00019081304 -0.00015083746 0.0004181259
0.0005157389 -0.0004910302 0.0001255225 0.0001279623

exp_avg_sq f4 [36]
00000000: 6f59 3f36 3406 b436 7d1d 6637 3120 b536
00000010: 8e40 2437 7c6a 2937 a19d 9d36 96f5 e136
00000020: a032 3136 f98d d937 161d 2300 2ce8 2737
00000030: 5cf1 0837 7a7e ac36 9f94 8437 c33c 4236
00000040: 32e6 3a36 90c5 7337 9331 3337 6d04 ac36
00000050: 4ac6 f436 3c8a bb36 c9bf a736 0774 9d36
00000060: 4988 8837 a6e1 bb36 7f4f a837 34b5 f937
00000070: 2423 0537 3249 1e37 5ba3 e636 7b24 1437
00000080: 1de8 0537 76dd 0b38 8680 7b35 5317 d736
2.8513275e-06 5.36514e-06 1.3715934e-05 5.397968e-06 9.790192e-06 1.0097978e-05 4.697315e-06 6.7341125e-06
2.6404523e-06 2.5934527e-05 3.224676e-39 1.0008032e-05 8.162428e-06 5.1407233e-06 1.5804833e-05 2.894362e-06
2.785015e-06 1.4529927e-05 1.0680774e-05 5.1265147e-06 7.2948505e-06 5.589127e-06 4.9993146e-06 4.692472e-06
1.6275926e-05 5.599303e-06 2.0064179e-05 2.9767492e-05 7.9356e-06 9.434576e-06 6.8735512e-06 8.829981e-06
7.981461e-06 3.3346434e-05 9.369181e-07 6.4102146e-06

exp_avg f4 [36, 36]
00000000: d368 1239 866b 0bb8 dea4 a7b8 faf2 9db9
00000010: 7b28 63b9 2b21 1439 955b 36b9 1b22 2039
00000020: ac83 8bb9 6201 a638 0400 0080 95ba 73b9
00000030: 7857 f639 c1fd c6b9 3ef7 ecb9 5c24 5037
00000040: fe0a fcb8 727c 3038 f2df 01ba 7247 8d39
00000050: 7fc4 3b37 ed43 c1b9 3bc0 3838 0df7 33b7
00000060: 23d2 62b9 1e1b cdb8 b30e 5739 27c7 7fb9
00000070: 2a7b 1fb9 0450 1d39 0d0e df39 8cc3 d7b9
00000080: 8fcd cdb8 03ac 0538 66ba 6fb6 bc2a e2b8
00000090: 0ae3 97b8 eef6 42b8 7fa6 0c39 7cfc 59b8
000000a0: f3e8 5339 c402 a538 f3dc 4c39 edde 1eb9
000000b0: ec9c a4b8 186c cc38 0400 0080 0cd5 2939
000000c0: 0e2a ad37 85bf 7db8 2640 db39 ca88 8039
000000d0: 13b8 59b9 000f 14b7 1ee1 9039 f26c f7b7
000000e0: 6b12 c3b7 19f4 1139 4ca2 25b9 e7d3 8cb7
000000f0: 3deb f838 996a 86b7 9e4a a636 eb28 0e3a
00000100: 0dbc 0c39 bbed 31b6 5ae8 1cb8 8bff 7b39
00000110: f1eb 0739 3d8d 05b8 f8d1 8139 7564 88b9
00000120: 1c75 1e3a eda7 0d39 7808 17b8 0de8 323a
00000130: a237 0839 0473 bf39 209b 8239 4de2 fcb9
00000140: d28c 9036 c5c4 e7b8 0400 0080 7a12 c438
00000150: d83a bc38 ffc6 37b9 36f6 e839 04ac b4b8
00000160: a71c 2638 dc11 9237 48db 7fb9 cec5 bd39
00000170: b9b9 5fb9 fe93 2f39 ee95 b7b9 9a8a bc39
00000180: b071 053a 8ee1 d7b9 f81b 38b9 d556 7639
00000190: eaa2 0c3a 8197 59b8 663e 6338 aae8 723a
000001a0: afca fe39 ab31 d739 8c9d 02b5 c613 07ba
000001b0: 6c85 5fb8 d590 8fb8 a474 7b37 261a 58b8
000001c0: 18ce 2537 ee31 ffb8 1011 c738 658c a2b8
000001d0: aa7e 69b8 40cd 0cb8 0400 0000 7c75 ffb8
000001e0: 6eb6 bf37 d36e 4cb8 351e 1339 d5f6 0ab8
000001f0: e032 40b8 d6b9 cfb8 f610 54b9 be92 cfb8
00000200: d60e ecb7 d980 5bb8 3a54 0db8 4dc3 a1b7
00000210: fd0a aa38 bbf9 c3b8 3b51 7634 9784 9db7
00000220: bfc4 bb38 d059 4737 bfe1 f4b7 64fe a5b7
00000230: 9bc5 8cb7 1762 bdb6 bd66 5f38 2ad6 96b8
00000240: b1c4 cab7 0b7c 2f39 927f 19b9 c615 38b9
00000250: 7c2f dab8 9052 4fb8 afa2 97b8 8ff7 5bb8
00000260: f300 1d36 69c4 89b8 0400 0080 1402 c538
00000270: cd00 61b9 7b66 52b9 9e53 43b8 e313 88b8
00000280: 3ec0 e4b8 fda1 8db7 4b5c 8939 af41 0fba
00000290: 652b 28b8 2ef6 8a37 b798 22b9 a7f3 5ab7
000002a0: d963 e5b9 f318 6838 2d54 a0b9 af8b 81b8
000002b0: 5a74 ed37 0f49 f9b5 507e 28b9 00d3 9837
000002c0: 5a5d 38b9 e6a2 e438 64f2 2ab9 4936 fe38
000002d0: 23db 3d39 d87c c238 a42c 55b7 2cd7 e138
000002e0: 8c65 f637 d37d ce38 6d3d dcb7 e65a 9938
000002f0: afb6 e038 7f89 fb38 0400 0080 9e5b 1c38
00000300: 79da db38 0683 1539 55e4 8db9 71e5 4fb9
00000310: 3657 e938 9d91 9a38 09ba 0939 f9a0 abb8
00000320: 7946 e338 fa0b c238 2ef7 9b39 e877 3939
00000330: d94c 4cb8 0917 b938 1f74 8039 024d a6b9
00000340: 56e7 85b7 4028 a038 03cc 3438 2656 88b8
00000350: 8a6e eb37 98d6 f938 f593 9137 60ed 9639
00000360: 0569 dab9 ec83 c4b9 64a6 d4b9 b07d 03ba
00000370: 4d60 1d3a 8722 f4b9 0155 1fb6 6707 da38
00000380: 2902 10ba 242c 5138 0400 0080 5952 4bba
00000390: 9278 abb8 0a37 5239 0e88 95b8 2054 08ba
000003a0: af21 f4b9 77c0 51b9 9e88 75ba bb29 a5ba
000003b0: cc09 9bb9 70c3 6ab9 a83f 2139 37f8 89b9
000003c0: bff7 2ab9 5511 a9b9 7b83 9239 2b11 62ba
000003d0: d0ca c0b9 9a4c d7b7 d36e b2b9 c850 e0ba
000003e0: 6f17 dbb9 758b 49ba 9571 493a d611 ba39
000003f0: 7451 0e39 be7f f6b7 04f9 c237 c5f4 0c39
0.00013962695 -3.324032e-05 -7.9938894e-05 -0.00030126405 -0.00021663487 0.00014126736 -0.0001739099 0.00015271494
-0.0002661025 7.9157544e-05 -6e-45 -0.00023243793 0.00046985946 -0.00037954564 -0.00045197638 1.2406232e-05
-0.00012018344 4.207757e-05 -0.000495433 0.00026946847 1.1191819e-05 -0.00036862437 4.4048047e-05 -1.0726752e-05
-0.00021631322 -9.780213e-05 0.00020509474 -0.00024392885 -0.00015209304 0.00015002495 0.00042544343 -0.0004115369
-9.81345e-05 3.186987e-05 -3.5722273e-06 -0.0001078448 -7.2425304e-05 -4.6483176e-05 0.00013413465 -5.1971976e-05
0.00020209308 7.868328e-05 0.00019537266 -0.000151511 -7.8493584e-05 9.747612e-05 -6e-45 0.00016196462
2.064279e-05 -6.0498267e-05 0.0004181873 0.00024515978 -0.00020763306 -8.82498e-06 0.00027633546 -2.9495426e-05
-2.3254388e-05 0.00013919211 -0.00015796087 -1.6787975e-05 0.00011869378 -1.6023683e-05 4.955872e-06 0.00054229674
0.00013421495 -2.6513433e-06 -3.7409693e-05 0.00024032423 0.00012962498 -3.184121e-05 0.00024761236 -0.00026014788
0.00060446723 0.00013509365 -3.6009093e-05 0.00068247394 0.00012990696 0.00036516052 0.0002491111 -0.00048233793
4.307928e-06 -0.000110515895 -6e-45 9.34945e-05 8.975499e-05 -0.00017526372 0.0004443393 -8.615109e-05
3.960417e-05 1.7412873e-05 -0.00024400384 0.00036196265 -0.00021336124 0.00016744432 -0.00035016186 0.0003596142
0.0005090488 -0.00041176047 -0.00017558027 0.00023492736 0.0005364852 -5.187793e-05 5.417913e-05 0.0009266237
0.00048597666 0.00041045 -4.8658035e-07 -0.0005152788 -5.3291602e-05 -6.8457484e-05 1.4987923e-05 -5.1522766e-05
9.882751e-06 -0.00012168648 9.4922376e-05 -7.7509125e-05 -5.5669494e-05 -3.3569755e-05 6e-45 -0.00012181231
2.2853925e-05 -4.8740603e-05 0.00014030265 -3.3131644e-05 -4.582375e-05 -9.905144e-05 -0.00020224214 -9.897862e-05
-2.81403e-05 -5.2333668e-05 -3.369546e-05 -1.928364e-05 8.1082784e-05 -9.3448405e-05 2.2940087e-07 -1.87776e-05
8.953502e-05 1.1882235e-05 -2.9192188e-05 -1.9787993e-05 -1.6781318e-05 -5.644058e-06 5.3263026e-05 -7.1924485e-05
-2.4171868e-05 0.0001673551 -0.0001463874 -0.00017555719 -0.00010403895 -4.942954e-05 -7.230543e-05 -5.2444226e-05
2.3395376e-06 -6.569253e-05 -6e-45 9.394079e-05 -0.0002145797 -0.00020065338 -4.6569497e-05 -6.4886895e-05
-0.00010907695 -1.6883941e-05 0.0002619944 -0.00054648047 -4.0094736e-05 1.6565518e-05 -0.00015506415 -1.3050542e-05
-0.00043752676 5.5336346e-05 -0.00030580294 -6.1772174e-05 2.8306782e-05 -1.8573209e-06 -0.00016068784 1.8218067e-05
-0.00017582384 0.000109022294 -0.00016302761 0.00012121775 0.0001810608 9.273895e-05 -1.2706183e-05 0.00010768915
2.9372772e-05 9.846282e-05 -2.6254647e-05 7.31254e-05 0.0001071518 0.00011994223 -6e-45 3.7278623e-05
0.000104834275 0.00014258557 -0.00027063736 -0.00019826532 0.0001112655 7.370415e-05 0.00013134642 -8.183899e-05
0.0001083733 9.252872e-05 0.00029748067 0.00017687643 -4.870896e-05 8.825778e-05 0.0002450058 -0.00031719363
-1.596256e-05 7.636892e-05 4.3105345e-05 -6.501032e-05 2.8065657e-05 0.000119132164 1.7354245e-05 0.00028787088
-0.00041658446 -0.00037482323 -0.00040559762 -0.00050159823 0.00060034246 -0.00046565032 -2.3742325e-06 0.00010396429
-0.0005493486 4.9870592e-05 -6e-45 -0.0007756106 -8.1763734e-05 0.00020047664 -7.130216e-05 -0.0005200524
-0.00046564403 -0.00020003492 -0.0009366366 -0.0012600938 -0.00029571203 -0.00022388785 0.0001537787 -0.0002631561
-0.00016304756 -0.00032247105 0.0002794525 -0.0008623774 -0.000367722 -2.5665668e-05 -0.00034033376 -0.0017113918
-0.00041788394 -0.0007688322 0.00076844665 0.00035489973 0.00013572519 -2.938497e-05 2.324256e-05 0.00013442624

exp_avg_sq f4 [36, 36]
00000000: 4f99 a935 ef0a 4c36 fd0c 7136 6ab7 9936
00000010: aa83 2035 1d32 db34 6205 5136 28dc 7f35
00000020: 233c 9f35 dabf 4137 f401 0000 3a71 b035
00000030: 88d1 7336 ef54 0936 099f cb36 8260 8336
00000040: 236f 9e36 4d24 9c35 07a8 f835 b71d dd35
00000050: 55f8 0b36 6f83 1f35 ccde cd35 aab1 8635
00000060: 7736 db36 4426 3c35 170b 4337 a2d8 6935
00000070: 1be0 8335 2b99 1035 7c19 a836 0c86 f336
00000080: 9a2a 5635 5572 d337 1de9 4834 26b2 1e35
00000090: 1bac ec33 9bd3 a635 70d4 3f36 0fbc b234
000000a0: a277 1736 fb18 ba34 7ff7 6935 0d98 4135
000000b0: 1ffc 8234 6ef6 8835 f401 0000 dabd 9835
000000c0: 7da1 1934 2a21 b735 c415 1137 73d0 7336
000000d0: 93ab 9a35 fa68 1134 5f4b 1b36 dc29 5736
000000e0: 90f9 cf35 97e6 d734 14d4 2836 8f20 4834
000000f0: a949 9c36 4b3d aa35 ee18 0e36 fe0e ce36
00000100: 8636 5f35 09e5 d631 65ee 2335 2e6c a135
00000110: 8e67 a034 d861 9436 55ae 8b36 0aef 9c36
00000120: b6f0 d836 f53a e436 a0e6 9937 8397 4a37
00000130: 0c36 1a36 c5b4 af35 3e9a 8335 680f cb35
00000140: a2cc dd36 0280 3038 aa05 0000 83ce f135
00000150: 7788 a737 94c1 3b36 befd c837 6bea a535
00000160: 737c 6036 30f6 5c36 a87d 8037 cceb c735
00000170: eac9 7536 ab9b 6236 d943 1337 881c c136
00000180: 36ba 2137 89b5 bc37 1a78 3738 8a9d 5e36
00000190: 081c 0036 43f6 c935 0634 3137 f817 9937
000001a0: 1265 4e36 df02 aa37 0fa0 8731 c8f8 4b37
000001b0: 083f 3733 35d7 f233 4b76 0c34 1a53 9933
000001c0: d448 ff33 8c0a c233 a690 9b34 eca9 6c34
000001d0: f999 8f33 dcf9 4433 8c04 0000 c212 6934
000001e0: 88a8 4e34 050f ca34 1577 7034 6201 9333
000001f0: c5ff 1434 7392 e633 1cbf 1335 15ab bf33
00000200: f605 1334 8334 1134 fd7a e434 27a9 7333
00000210: 24f6 4334 e392 e834 0fb4 1c34 5c5c 2e35
00000220: 5c09 0134 3ead 8d31 4786 9033 c60e 2135
00000230: 1a1f 1733 b783 b335 429d ac32 edf7 8635
00000240: 29b4 0236 3303 ed36 fc56 9e36 4083 ba35
00000250: 6bc1 a637 3dcc 2936 e156 c835 f3b5 1537
00000260: 83fc ba35 4ebd f336 f401 0000 491e 0637
00000270: ea92 2537 d205 9237 d0c0 bb37 fd8f d935
00000280: 3b24 de37 7354 0935 f2fa f338 7311 6636
00000290: 6509 fe35 6239 0637 38c7 3138 001c c735
000002a0: f3a1 4f36 2ff9 6536 e37f 4438 4621 2438
000002b0: 09a4 ad35 ed32 0834 8d4f ff37 04ff 9b37
000002c0: ed24 7235 c450 dc37 a640 ae37 1f00 5238
000002d0: 6f11 7034 11a8 3834 2d7f 5b34 96b6 7134
000002e0: c505 3f33 ad8b 6633 8a1a d033 97f7 2034
000002f0: 30ac e733 d08d 3934 f401 0000 eb82 f233
00000300: 0770 2a34 61ed a934 f905 8f35 b7ad 1535
00000310: 5927 fa34 0818 6033 bafe 8235 7064 d834
00000320: 6919 c534 f6a8 9134 1504 bc35 84c2 2f34
00000330: ba3b 1835 01ed 5c35 2275 1735 d458 3735
00000340: e4ad 0034 6095 f132 b47b 5f33 ee96 c333
00000350: 254e 3834 a7f2 0835 81b3 fc32 05ec 0e36
00000360: 5639 6e36 b338 5936 f113 8837 59a8 0437
00000370: 3d93 a337 2031 7036 9936 1237 9f8e 4736
00000380: e572 3a36 f4bd e835 f401 0000 14b2 bd36
00000390: 8123 8336 df68 cf36 046b f937 db60 d836
000003a0: 577e 9d36 1ba4 ad35 ae53 c237 8717 6d37
000003b0: b549 1a36 f422 4136 2a66 b236 f92e 8035
000003c0: a759 b737 9e62 1937 a729 2937 2ef3 5337
000003d0: 91f1 1737 b39f 6034 70f8 d636 fcb1 9f37
000003e0: 6c99 1836 e1fe 3737 7782 f937 3076 3637
000003f0: a230 4e35 5bf5 2235 d3db 0935 86f7 a635
1.26361e-06 3.0404733e-06 3.5919359e-06 4.5811075e-06 5.979624e-07 4.082839e-07 3.114656e-06 9.531527e-07
1.1863925e-06 1.1548365e-05 7e-43 1.3145975e-06 3.6331785e-06 2.0464029e-06 6.0683856e-06 3.915339e-06
4.721705e-06 1.1633471e-06 1.8526342e-06 1.6474431e-06 2.0857162e-06 5.9423377e-07 1.5338533e-06 1.0035485e-06
6.533049e-06 7.009114e-07 1.1625488e-05 8.7114506e-07 9.825484e-07 5.386707e-07 5.009757e-06 7.2575695e-06
7.9783206e-07 2.52064e-05 1.8711258e-07 5.9118827e-07 1.1020912e-07 1.2429549e-06 2.8584873e-06 3.3291914e-07
2.257039e-06 3.4663375e-07 8.715942e-07 7.2119366e-07 2.439783e-07 1.020451e-06 7e-43 1.1380137e-06
1.4307984e-07 1.3644215e-06 8.647741e-06 3.6331155e-06 1.1523829e-06 1.3542368e-07 2.3140672e-06 3.2061862e-06
1.5495334e-06 4.0214647e-07 2.5157397e-06 1.8638296e-07 4.6577375e-06 1.2683826e-06 2.117416e-06 6.1410237e-06
8.3153316e-07 6.254258e-09 6.106914e-07 1.2026919e-06 2.9877668e-07 4.422134e-06 4.1628177e-06 4.67699e-06
6.465324e-06 6.801793e-06 1.8346414e-05 1.2075415e-05 2.2979248e-06 1.3091127e-06 9.805151e-07 1.5129162e-06
6.6101356e-06 4.2080886e-05 2.032e-42 1.8016002e-06 1.9971498e-05 2.7977849e-06 2.3960016e-05 1.2361683e-06
3.345104e-06 3.2925855e-06 1.5317302e-05 1.4895281e-06 3.6625374e-06 3.3767235e-06 8.77768e-06 5.7551697e-06
9.639703e-06 2.249588e-05 4.3742453e-05 3.3172278e-06 1.9089803e-06 1.5047339e-06 1.0562135e-05 1.8250183e-05
3.0755223e-06 2.0266916e-05 3.9472137e-09 1.2157667e-05 4.2665334e-08 1.1308149e-07 1.3081551e-07 7.139734e-08
1.188761e-07 9.0357474e-08 2.8976245e-07 2.204103e-07 6.686964e-08 4.5862052e-08 1.631e-42 2.170664e-07
1.9246556e-07 3.763636e-07 2.2395064e-07 6.8454725e-08 1.3876623e-07 1.07368486e-07 5.503987e-07 8.92525e-08
1.369261e-07 1.3523281e-07 4.2557795e-07 5.673169e-08 1.8250336e-07 4.3320242e-07 1.4594137e-07 6.495445e-07
1.2017466e-07 4.1233355e-09 6.7299474e-08 5.999867e-07 3.5185714e-08 1.3374873e-06 2.0094948e-08 1.0055934e-06
1.9476377e-06 7.063523e-06 4.7188933e-06 1.3896279e-06 1.987881e-05 2.5301845e-06 1.4926446e-06 8.923455e-06
1.393157e-06 7.2640023e-06 7e-43 7.994074e-06 9.8689725e-06 1.7407267e-05 2.2381922e-05 1.6209666e-06
2.6481333e-05 5.1159367e-07 0.00011633885 3.4282828e-06 1.8927209e-06 8.000383e-06 4.2385625e-05 1.4834804e-06
3.093967e-06 3.4268703e-06 4.6849145e-05 3.9131635e-05 1.2937245e-06 1.2684514e-07 3.0435413e-05 1.859619e-05
9.020576e-07 2.6263653e-05 2.077252e-05 5.0068014e-05 2.2358084e-07 1.7197478e-07 2.044223e-07 2.2511298e-07
4.44759e-08 5.3678082e-08 9.690582e-08 1.4991234e-07 1.07880965e-07 1.7281059e-07 7e-43 1.1292817e-07
1.5873239e-07 3.165142e-07 1.0656069e-06 5.5759614e-07 4.6594758e-07 5.217592e-08 9.75989e-07 4.0306213e-07
3.6712598e-07 2.713129e-07 1.400828e-06 1.636891e-07 5.6711326e-07 8.230127e-07 5.6422334e-07 6.8302074e-07
1.198419e-07 2.812402e-08 5.203374e-08 9.107849e-08 1.7164764e-07 5.1017054e-07 2.941829e-08 2.129703e-06
3.5498138e-06 3.2368523e-06 1.622175e-05 7.90701e-06 1.9499677e-05 3.5791381e-06 8.71499e-06 2.9736327e-06
2.7783037e-06 1.7340631e-06 7e-43 5.65337e-06 3.9082374e-06 6.1812893e-06 2.9732946e-05 6.448577e-06
4.6936725e-06 1.2937265e-06 2.3165569e-05 1.4131779e-05 2.2990691e-06 2.8779587e-06 5.316707e-06 9.550414e-07
2.1857048e-05 9.142472e-06 1.0082883e-05 1.26332e-05 9.056545e-06 2.0919724e-07 6.406619e-06 1.9037157e-05
2.2739068e-06 1.0966994e-05 2.9743866e-05 1.0875563e-05 7.681175e-07 6.070674e-07 5.1356363e-07 1.2440003e-06
