1-Atomic_force/input/checkpoint.pkl (torch, 546427 bytes, 144 tensors)

exp_avg f4 [100, 18]
000000 00 00 00 00 00 00 00 00 00 00 00 00 00 00 00 00
       0.0 0.0 0.0 0.0
000010 00 00 00 00 00 00 00 00 00 00 00 00 00 00 00 00
       0.0 0.0 0.0 0.0
000020 00 00 00 00 00 00 00 00 00 00 00 00 00 00 00 00
       0.0 0.0 0.0 0.0
000030 00 00 00 00 00 00 00 00 00 00 00 00 00 00 00 00
       0.0 0.0 0.0 0.0
000040 00 00 00 00 00 00 00 00 00 00 00 00 00 00 00 00
       0.0 0.0 0.0 0.0
000050 00 00 00 00 00 00 00 00 00 00 00 00 00 00 00 00
       0.0 0.0 0.0 0.0
000060 00 00 00 00 00 00 00 00 00 00 00 00 00 00 00 00
       0.0 0.0 0.0 0.0
000070 00 00 00 00 00 00 00 00 00 00 00 00 00 00 00 00
       0.0 0.0 0.0 0.0
000080 00 00 00 00 00 00 00 00 00 00 00 00 00 00 00 00
       0.0 0.0 0.0 0.0
000090 00 00 00 00 00 00 00 00 00 00 00 00 00 00 00 00
       0.0 0.0 0.0 0.0
0000a0 00 00 00 00 00 00 00 00 00 00 00 00 00 00 00 00
       0.0 0.0 0.0 0.0
0000b0 00 00 00 00 00 00 00 00 00 00 00 00 00 00 00 00
       0.0 0.0 0.0 0.0
0000c0 00 00 00 00 00 00 00 00 00 00 00 00 00 00 00 00
       0.0 0.0 0.0 0.0
0000d0 00 00 00 00 00 00 00 00 40 55 44 b3 93 2f 71 34
       0.0 0.0 -4.571234e-08 2.2462181e-07
0000e0 9e a5 4d bb cc d8 a6 34 0f 4c 2c b5 3a c5 be 39
       -0.0031379233 3.107765e-07 -6.4185673e-07 0.0003638657
0000f0 65 a5 15 b5 00 df 94 ba 2d 3c 88 b4 2f 2c 04 b4
       -5.5747506e-07 -0.0011357963 -2.5375758e-07 -1.2309532e-07
000100 38 70 8c 38 a8 66 2a ba 61 9e c6 ba bb 41 e5 b3
       6.6966226e-05 -0.00065002823 -0.0015153402 -1.06756e-07
000110 83 29 24 35 76 bd bc 3a 15 48 1c b9 17 58 28 b5
       6.115517e-07 0.0014399725 -0.00014904172 -6.2713065e-07
000120 00 00 00 00 00 00 00 00 00 00 00 00 00 00 00 00
       0.0 0.0 0.0 0.0
000130 00 00 00 00 00 00 00 00 00 00 00 00 00 00 00 00
       0.0 0.0 0.0 0.0
000140 00 00 00 00 00 00 00 00 00 00 00 00 00 00 00 00
       0.0 0.0 0.0 0.0
000150 00 00 00 00 00 00 00 00 00 00 00 00 00 00 00 00
       0.0 0.0 0.0 0.0
000160 00 00 00 00 00 00 00 00 00 00 00 00 00 00 00 00
       0.0 0.0 0.0 0.0
000170 00 00 00 00 00 00 00 00 00 00 00 00 00 00 00 00
       0.0 0.0 0.0 0.0
000180 00 00 00 00 00 00 00 00 00 00 00 00 00 00 00 00
       0.0 0.0 0.0 0.0
000190 00 00 00 00 00 00 00 00 00 00 00 00 00 00 00 00
       0.0 0.0 0.0 0.0
0001a0 00 00 00 00 00 00 00 00 00 00 00 00 00 00 00 00
       0.0 0.0 0.0 0.0
0001b0 00 00 00 00 00 00 00 00 00 00 00 00 00 00 00 00
       0.0 0.0 0.0 0.0
0001c0 00 00 00 00 00 00 00 00 00 00 00 00 00 00 00 00
       0.0 0.0 0.0 0.0
0001d0 00 00 00 00 00 00 00 00 00 00 00 00 00 00 00 00
       0.0 0.0 0.0 0.0
0001e0 00 00 00 00 00 00 00 00 00 00 00 00 00 00 00 00
       0.0 0.0 0.0 0.0
0001f0 00 00 00 00 00 00 00 00 00 00 00 00 00 00 00 00
       0.0 0.0 0.0 0.0
000200 00 00 00 00 00 00 00 00 00 00 00 00 00 00 00 00
       0.0 0.0 0.0 0.0
000210 00 00 00 00 00 00 00 00 00 00 00 00 00 00 00 00
       0.0 0.0 0.0 0.0
000220 00 00 00 00 00 00 00 00 00 00 00 00 00 00 00 00
       0.0 0.0 0.0 0.0
000230 00 00 00 00 00 00 00 00 00 00 00 00 00 00 00 00
       0.0 0.0 0.0 0.0
000240 06 d4 ed 35 67 e6 c4 b6 03 af 45 3b 39 74 23 b7
       1.7719583e-06 -5.8680776e-06 0.003016413 -9.742617e-06
000250 44 fb e9 36 56 52 ea 36 d4 87 df 36 88 e3 e9 b9
       6.9731923e-06 6.9833286e-06 6.6617304e-06 -0.00044610747
000260 01 8f 93 36 90 b9 65 34 67 17 7f b7 6f b4 b7 b6
       4.3975892e-06 2.1394794e-07 -1.5204633e-05 -5.4748302e-06
000270 7b 9c 14 37 23 e2 7b 37 69 74 6d b6 42 9d e2 b6
       8.857921e-06 1.5013417e-05 -3.5383512e-06 -6.753632e-06
000280 ad 32 47 36 d0 00 04 b7 00 00 00 00 00 00 00 00
       2.9682808e-06 -7.868002e-06 0.0 0.0
000290 00 00 00 00 00 00 00 00 00 00 00 00 00 00 00 00
       0.0 0.0 0.0 0.0
0002a0 00 00 00 00 00 00 00 00 00 00 00 00 00 00 00 00
       0.0 0.0 0.0 0.0
0002b0 00 00 00 00 00 00 00 00 00 00 00 00 00 00 00 00
       0.0 0.0 0.0 0.0
0002c0 00 00 00 00 00 00 00 00 00 00 00 00 00 00 00 00
       0.0 0.0 0.0 0.0
0002d0 00 00 00 00 00 00 00 00 00 00 00 00 00 00 00 00
       0.0 0.0 0.0 0.0
0002e0 00 00 00 00 00 00 00 00 00 00 00 00 00 00 00 00
       0.0 0.0 0.0 0.0
0002f0 00 00 00 00 00 00 00 00 00 00 00 00 00 00 00 00
       0.0 0.0 0.0 0.0
000300 00 00 00 00 00 00 00 00 00 00 00 00 00 00 00 00
       0.0 0.0 0.0 0.0
000310 00 00 00 00 00 00 00 00 00 00 00 00 00 00 00 00
       0.0 0.0 0.0 0.0
000320 00 00 00 00 00 00 00 00 00 00 00 00 00 00 00 00
       0.0 0.0 0.0 0.0
000330 00 00 00 00 00 00 00 00 00 00 00 00 00 00 00 00
       0.0 0.0 0.0 0.0
000340 00 00 00 00 00 00 00 00 00 00 00 00 00 00 00 00
       0.0 0.0 0.0 0.0
000350 00 00 00 00 00 00 00 00 00 00 00 00 00 00 00 00
       0.0 0.0 0.0 0.0
000360 00 00 00 00 00 00 00 00 00 00 00 00 00 00 00 00
       0.0 0.0 0.0 0.0
000370 00 00 00 00 00 00 00 00 00 00 00 00 00 00 00 00
       0.0 0.0 0.0 0.0
000380 00 00 00 00 00 00 00 00 00 00 00 00 00 00 00 00
       0.0 0.0 0.0 0.0
000390 00 00 00 00 00 00 00 00 00 00 00 00 00 00 00 00
       0.0 0.0 0.0 0.0
0003a0 00 00 00 00 00 00 00 00 00 00 00 00 00 00 00 00
       0.0 0.0 0.0 0.0
0003b0 00 00 00 00 00 00 00 00 00 00 00 00 00 00 00 00
       0.0 0.0 0.0 0.0
0003c0 00 00 00 00 00 00 00 00 00 00 00 00 00 00 00 00
       0.0 0.0 0.0 0.0
0003d0 00 00 00 00 00 00 00 00 00 00 00 00 00 00 00 00
       0.0 0.0 0.0 0.0
0003e0 00 00 00 00 00 00 00 00 00 00 00 00 00 00 00 00
       0.0 0.0 0.0 0.0
0003f0 00 00 00 00 00 00 00 00 00 00 00 00 00 00 00 00
       0.0 0.0 0.0 0.0

exp_avg_sq f4 [100, 18]
000000 00 00 00 00 00 00 00 00 00 00 00 00 00 00 00 00
       0.0 0.0 0.0 0.0
000010 00 00 00 00 00 00 00 00 00 00 00 00 00 00 00 00
       0.0 0.0 0.0 0.0
000020 00 00 00 00 00 00 00 00 00 00 00 00 00 00 00 00
       0.0 0.0 0.0 0.0
000030 00 00 00 00 00 00 00 00 00 00 00 00 00 00 00 00
       0.0 0.0 0.0 0.0
000040 00 00 00 00 00 00 00 00 00 00 00 00 00 00 00 00
       0.0 0.0 0.0 0.0
000050 00 00 00 00 00 00 00 00 00 00 00 00 00 00 00 00
       0.0 0.0 0.0 0.0
000060 00 00 00 00 00 00 00 00 00 00 00 00 00 00 00 00
       0.0 0.0 0.0 0.0
000070 00 00 00 00 00 00 00 00 00 00 00 00 00 00 00 00
       0.0 0.0 0.0 0.0
000080 00 00 00 00 00 00 00 00 00 00 00 00 00 00 00 00
       0.0 0.0 0.0 0.0
000090 00 00 00 00 00 00 00 00 00 00 00 00 00 00 00 00
       0.0 0.0 0.0 0.0
0000a0 00 00 00 00 00 00 00 00 00 00 00 00 00 00 00 00
       0.0 0.0 0.0 0.0
0000b0 00 00 00 00 00 00 00 00 00 00 00 00 00 00 00 00
       0.0 0.0 0.0 0.0
0000c0 00 00 00 00 00 00 00 00 00 00 00 00 00 00 00 00
       0.0 0.0 0.0 0.0
0000d0 00 00 00 00 00 00 00 00 0f ef 93 34 f3 06 66 34
       0.0 0.0 2.7554822e-07 2.1422947e-07
0000e0 51 35 6e 39 a8 30 29 34 a2 21 bd 33 0e 24 9e 39
       0.0002271731 1.5757053e-07 8.807116e-08 0.0003016297
0000f0 0c 9a 88 32 76 b2 49 39 b3 57 28 32 a4 87 77 34
       1.5902536e-08 0.00019235336 9.7988275e-09 2.3053013e-07
000100 7b 98 a4 3a 3c c5 52 3a fd 3c 36 3a bd 1b 57 34
       0.001255765 0.00080402545 0.0006951837 2.0033526e-07
000110 9b a3 78 33 64 c3 a0 39 c0 46 d8 39 1a 8a d8 34
       5.7890798e-08 0.00030663155 0.00041251443 4.0333617e-07
000120 00 00 00 00 00 00 00 00 00 00 00 00 00 00 00 00
       0.0 0.0 0.0 0.0
000130 00 00 00 00 00 00 00 00 00 00 00 00 00 00 00 00
       0.0 0.0 0.0 0.0
000140 00 00 00 00 00 00 00 00 00 00 00 00 00 00 00 00
       0.0 0.0 0.0 0.0
000150 00 00 00 00 00 00 00 00 00 00 00 00 00 00 00 00
       0.0 0.0 0.0 0.0
000160 00 00 00 00 00 00 00 00 00 00 00 00 00 00 00 00
       0.0 0.0 0.0 0.0
000170 00 00 00 00 00 00 00 00 00 00 00 00 00 00 00 00
       0.0 0.0 0.0 0.0
000180 00 00 00 00 00 00 00 00 00 00 00 00 00 00 00 00
       0.0 0.0 0.0 0.0
000190 00 00 00 00 00 00 00 00 00 00 00 00 00 00 00 00
       0.0 0.0 0.0 0.0
0001a0 00 00 00 00 00 00 00 00 00 00 00 00 00 00 00 00
       0.0 0.0 0.0 0.0
0001b0 00 00 00 00 00 00 00 00 00 00 00 00 00 00 00 00
       0.0 0.0 0.0 0.0
0001c0 00 00 00 00 00 00 00 00 00 00 00 00 00 00 00 00
       0.0 0.0 0.0 0.0
0001d0 00 00 00 00 00 00 00 00 00 00 00 00 00 00 00 00
       0.0 0.0 0.0 0.0
0001e0 00 00 00 00 00 00 00 00 00 00 00 00 00 00 00 00
       0.0 0.0 0.0 0.0
0001f0 00 00 00 00 00 00 00 00 00 00 00 00 00 00 00 00
       0.0 0.0 0.0 0.0
000200 00 00 00 00 00 00 00 00 00 00 00 00 00 00 00 00
       0.0 0.0 0.0 0.0
000210 00 00 00 00 00 00 00 00 00 00 00 00 00 00 00 00
       0.0 0.0 0.0 0.0
000220 00 00 00 00 00 00 00 00 00 00 00 00 00 00 00 00
       0.0 0.0 0.0 0.0
000230 00 00 00 00 00 00 00 00 00 00 00 00 00 00 00 00
       0.0 0.0 0.0 0.0
000240 5c 15 b6 34 a9 9e 04 35 6d e0 86 3a e3 d2 24 34
       3.3915683e-07 4.9404713e-07 0.0010290273 1.535041e-07
000250 f7 55 82 33 88 ff 8a 33 52 36 65 33 1c e0 8f 39
       6.069234e-08 6.4726066e-08 5.336762e-08 0.0002744206
000260 5e 4b d9 33 2f a6 e2 33 8e d6 92 35 ae f9 54 33
       1.0118559e-07 1.0554174e-07 1.0940291e-06 4.958718e-08
000270 e3 fc 02 34 12 4c ee 35 b4 a6 80 35 37 29 03 33
       1.2199193e-07 1.7754521e-06 9.58526e-07 3.05383e-08
000280 25 4c 45 35 52 a5 38 36 00 00 00 00 00 00 00 00
       7.3499024e-07 2.7514366e-06 0.0 0.0
000290 00 00 00 00 00 00 00 00 00 00 00 00 00 00 00 00
       0.0 0.0 0.0 0.0
0002a0 00 00 00 00 00 00 00 00 00 00 00 00 00 00 00 00
       0.0 0.0 0.0 0.0
0002b0 00 00 00 00 00 00 00 00 00 00 00 00 00 00 00 00
       0.0 0.0 0.0 0.0
0002c0 00 00 00 00 00 00 00 00 00 00 00 00 00 00 00 00
       0.0 0.0 0.0 0.0
0002d0 00 00 00 00 00 00 00 00 00 00 00 00 00 00 00 00
       0.0 0.0 0.0 0.0
0002e0 00 00 00 00 00 00 00 00 00 00 00 00 00 00 00 00
       0.0 0.0 0.0 0.0
0002f0 00 00 00 00 00 00 00 00 00 00 00 00 00 00 00 00
       0.0 0.0 0.0 0.0
000300 00 00 00 00 00 00 00 00 00 00 00 00 00 00 00 00
       0.0 0.0 0.0 0.0
000310 00 00 00 00 00 00 00 00 00 00 00 00 00 00 00 00
       0.0 0.0 0.0 0.0
000320 00 00 00 00 00 00 00 00 00 00 00 00 00 00 00 00
       0.0 0.0 0.0 0.0
000330 00 00 00 00 00 00 00 00 00 00 00 00 00 00 00 00
       0.0 0.0 0.0 0.0
000340 00 00 00 00 00 00 00 00 00 00 00 00 00 00 00 00
       0.0 0.0 0.0 0.0
000350 00 00 00 00 00 00 00 00 00 00 00 00 00 00 00 00
       0.0 0.0 0.0 0.0
000360 00 00 00 00 00 00 00 00 00 00 00 00 00 00 00 00
       0.0 0.0 0.0 0.0
000370 00 00 00 00 00 00 00 00 00 00 00 00 00 00 00 00
       0.0 0.0 0.0 0.0
000380 00 00 00 00 00 00 00 00 00 00 00 00 00 00 00 00
       0.0 0.0 0.0 0.0
000390 00 00 00 00 00 00 00 00 00 00 00 00 00 00 00 00
       0.0 0.0 0.0 0.0
0003a0 00 00 00 00 00 00 00 00 00 00 00 00 00 00 00 00
       0.0 0.0 0.0 0.0
0003b0 00 00 00 00 00 00 00 00 00 00 00 00 00 00 00 00
       0.0 0.0 0.0 0.0
0003c0 00 00 00 00 00 00 00 00 00 00 00 00 00 00 00 00
       0.0 0.0 0.0 0.0
0003d0 00 00 00 00 00 00 00 00 00 00 00 00 00 00 00 00
       0.0 0.0 0.0 0.0
0003e0 00 00 00 00 00 00 00 00 00 00 00 00 00 00 00 00
       0.0 0.0 0.0 0.0
0003f0 00 00 00 00 00 00 00 00 00 00 00 00 00 00 00 00
       0.0 0.0 0.0 0.0

exp_avg f4 [18]
000000 99 60 98 38 0b aa 90 1d ba 41 be a9 ae 31 ec 3a
       7.2659175e-05 3.8292303e-21 -8.449097e-14 0.0018020177
000010 6c 80 19 be 00 00 00 00 88 c8 65 23 00 00 00 00
       -0.14990395 0.0 1.2456579e-17 0.0
000020 7f f7 04 bd 51 c0 b5 bc bf 82 91 bb a6 9d 5d bc
       -0.032462593 -0.02218643 -0.004440635 -0.013526356
000030 af c1 53 bc c4 25 3c 2b 39 37 00 3b 33 1a b0 3a
       -0.012924596 6.684343e-13 0.0019564165 0.0013435542
000040 59 c8 c8 3b 36 30 a2 2a
       0.006127399 2.8810434e-13

exp_avg_sq f4 [18]
000000 4c 9f 26 36 a0 7a 32 01 a4 d1 0a 19 bf ee d2 37
       2.482865e-06 3.2781416e-38 7.176769e-24 2.5145126e-05
000010 ee 5b bb 3e 00 00 00 00 7f 2e f2 12 00 00 00 00
       0.36593574 0.0 1.5283809e-27 0.0
000020 b5 c0 60 3c f5 f3 3c 3c 51 c6 d5 38 dd fb 20 3b
       0.01371782 0.011532773 0.00010193571 0.0024564185
000030 b2 38 a2 3b 84 6b 21 1a a3 0c ed 38 ec 9d ce 37
       0.0049506063 3.338087e-23 0.000113033944 2.4630652e-05
000040 3e 25 01 3b 33 b3 be 19
       0.0019706036 1.9717918e-23

exp_avg f4 [18]
000000 32 35 ec b9 3a bb f1 9b 1f f2 4b 28 f1 be 26 3a
       -0.0004505306 -3.9991098e-22 1.1321265e-14 0.000636085
000010 1d 1d c3 bd 00 00 00 00 12 7c d2 21 00 00 00 00
       -0.09527037 0.0 1.4262995e-18 0.0
000020 59 d5 e3 bc 34 b3 32 bc 41 32 83 bc 7b 54 b0 bc
       -0.027811693 -0.010906983 -0.016015174 -0.021524658
000030 d3 28 62 3c 84 84 cf a9 f3 b2 ba ba f9 b0 64 3a
       0.013803679 -9.2156344e-14 -0.0014244005 0.0008723881
000040 b7 88 73 bb ac 26 37 a9
       -0.0037160346 -4.0667705e-14

exp_avg_sq f4 [18]
000000 a2 1c 4e 37 98 e4 03 00 09 84 1f 16 3c c4 8e 37
       1.2285223e-05 3.5751e-40 1.2885581e-25 1.7019098e-05
000010 79 5f 0a 3e 00 00 00 00 3f 29 00 10 00 00 00 00
       0.13512982 0.0 2.5275324e-29 0.0
000020 81 aa 03 3c b6 a7 a4 3b 30 b4 20 3a 28 a0 01 3c
       0.008036257 0.0050248755 0.00061303657 0.007911719
000030 79 0d 68 3b 20 ab 43 17 a4 ce c2 38 38 68 50 37
       0.003540842 6.322389e-25 9.289131e-05 1.2422031e-05
000040 ae 89 62 3a 5f 96 ee 16
       0.00086417317 3.8545871e-25

exp_avg f4 [18]
000000 55 7c 28 1b af 63 cf 39 8f e9 a8 bb 04 00 00 00
       1.3936808e-22 0.00039556387 -0.0051547955 6e-45
000010 04 00 00 00 1e 8a f2 b9 04 00 00 00 9d 06 cd 3a
       6e-45 -0.00046260742 6e-45 0.001564223
000020 04 00 00 80 00 00 00 00 c5 e7 3b ba 50 e3 9f ba
       -6e-45 0.0 -0.000716802 -0.0012198482
000030 64 66 93 b5 04 00 00 00 04 00 00 00 48 d8 f3 b8
       -1.0982153e-06 6e-45 6e-45 -0.000116274285
000040 b5 6f f0 3a 00 00 00 00
       0.0018343838 0.0

exp_avg_sq f4 [18]
000000 3c 30 cd 30 a3 db 59 39 08 be c0 3a f4 01 00 00
       1.4929422e-09 0.00020776554 0.0014705071 7e-43
000010 f4 01 00 00 ad 0e 00 3a f4 01 00 00 2c 40 ed 39
       7e-43 0.00048849994 7e-43 0.00045251974
000020 f4 01 00 00 00 00 00 00 85 48 fb 39 1d f1 92 3a
       7e-43 0.0 0.00047928482 0.0011210773
000030 7c 64 e5 30 f4 01 00 00 f4 01 00 00 03 7c 1b 3a
       1.6690502e-09 7e-43 7e-43 0.000593126
000040 0a 9a b3 3a 00 00 00 00
       0.0013702523 0.0

exp_avg f4 [18]
000000 aa 7f 8c 1c 63 ee ba 3a 56 b7 00 b9 04 00 00 00
       9.297423e-22 0.0014261719 -0.00012275329 6e-45
000010 04 00 00 00 fb a3 be 39 04 00 00 00 c3 9f cd ba
       6e-45 0.000363618 6e-45 -0.0015687871
000020 04 00 00 00 00 00 00 00 ca 51 8d 38 07 3e 9f 3a
       6e-45 0.0 6.738638e-05 0.0012149223
000030 31 a0 c6 ba 04 00 00 00 04 00 00 00 c9 2d c8 3a
       -0.0015153942 6e-45 6e-45 0.0015272434
000040 cb c8 f3 ba 00 00 00 00
       -0.001859927 0.0

exp_avg_sq f4 [18]
000000 d3 ae 8e 33 a6 d8 00 3a 01 bf 8b 3a f4 01 00 00
       6.6441906e-08 0.00049150956 0.0010661782 7e-43
000010 f4 01 00 00 d9 1c 9e 39 f4 01 00 00 58 ce 9f 39
       7e-43 0.00030157602 7e-43 0.0003048058
000020 f4 01 00 00 00 00 00 00 b6 60 a4 3a b9 75 9d 3a
       7e-43 0.0 0.0012541029 0.0012013233
000030 b5 74 36 3a f4 01 00 00 f4 01 00 00 fd 67 ed 39
       0.000696014 7e-43 7e-43 0.0004528164
000040 c8 26 b8 3a 00 00 00 00
       0.0014049644 0.0

exp_avg f4 [18]
000000 04 00 00 80 e4 b1 90 35 ad 63 ce 37 dc ff 70 3a
       -6e-45 1.0780609e-06 2.4603529e-05 0.00091933995
000010 df 6a bc 3c 12 01 36 3a 96 51 44 3a b3 51 13 37
       0.023000179 0.00069429085 0.0007488964 8.780905e-06
000020 80 72 80 bc 0f 2f 99 3c 0f d6 aa b7 b5 f0 b3 ba
       -0.015679598 0.018699197 -2.0365258e-05 -0.0013728352
000030 6a 96 90 bb 12 0e 2a 38 fe 4c 1c 37 04 00 00 80
       -0.004412462 4.0544262e-05 9.316251e-06 -6e-45
000040 1b 38 dd bb 6a 0d 04 ba
       -0.006751073 -0.0005037399

exp_avg_sq f4 [18]
000000 f4 01 00 00 a3 70 1c 33 09 39 9d 38 18 34 43 38
       7e-43 3.6424023e-08 7.496967e-05 4.654014e-05
000010 de a4 f9 3d ce b9 38 3a d5 ba 8d 3c 29 10 5d 39
       0.12189649 0.000704673 0.017301003 0.00021082223
000020 6e 8d db 3b e6 56 bc 3b 4e d1 c6 38 33 b9 a2 3b
       0.0067002093 0.005747664 9.480362e-05 0.004965925
000030 0f 53 4d 39 db 4d be 36 18 33 8b 38 f4 01 00 00
       0.00019581265 5.671505e-06 6.6375535e-05 7e-43
000040 26 07 47 3a ea 7d c8 39
       0.0007592313 0.00038240786

exp_avg f4 [18]
000000 04 00 00 00 20 09 2d b5 10 1c 94 36 7b 80 e2 b9
       6e-45 -6.44608e-07 4.4140106e-06 -0.00043201805
000010 c6 29 09 3d 23 68 ec 39 01 a7 8c 39 5d e6 e7 37
       0.033487104 0.00045091016 0.00026827308 2.7644617e-05
000020 62 e6 8f bb 94 74 28 bc 2f f1 24 b8 92 e7 ba bc
       -0.0043914774 -0.010281701 -3.9325267e-05 -0.0228155
000030 54 88 c2 3b 05 9c e9 37 4d 69 3a b8 04 00 00 00
       0.0059366617 2.7848417e-05 -4.4443925e-05 6e-45
000040 17 51 0a 3b fa 7d 37 3a
       0.0021105462 0.0006999668

exp_avg_sq f4 [18]
000000 f4 01 00 00 9a f7 14 32 e8 83 0c 39 b0 91 9e 38
       7e-43 8.671032e-09 0.0001340058 7.5611635e-05
000010 d4 ba ff 3b 2f 50 0f 3b d2 a5 ea 39 c7 ca ac 39
       0.007804254 0.0021867862 0.00044755504 0.00032957477
000020 6a ac 8f 3a f0 34 42 3b 7a da 6f 38 f6 d9 a1 3b
       0.0010961418 0.0029633604 5.7185513e-05 0.004939313
000030 7a ce 0e 3a 72 ca ef 37 15 06 84 39 f4 01 00 00
       0.00054476375 2.8585291e-05 0.00025181533 7e-43
000040 89 ed 9c 3a 51 80 30 3a
       0.0011972646 0.0006732988

exp_avg f4 [18]
000000 04 00 00 00 d7 58 94 34 56 74 9d b7 60 71 be b8
       6e-45 2.7631788e-07 -1.8770032e-05 -9.081024e-05
000010 a8 86 cc 3d 95 24 4d b9 0b f8 25 3b 81 7f a5 b7
       0.09986621 -0.00019563951 0.0025324847 -1.9728906e-05
000020 e5 23 c0 3b 2c 08 92 3c fb a8 c9 b6 91 bc 08 3d
       0.005863654 0.017826162 -6.0099387e-06 0.033382956
000030 b7 ad be bb 86 37 b3 b7 67 2c 58 38 04 00 00 00
       -0.0058190483 -2.1364318e-05 5.1539766e-05 6e-45
000040 75 7f c7 ba 16 79 db 39
       -0.001522048 0.0004186115

exp_avg_sq f4 [18]
000000 f4 01 00 00 20 c2 5d 31 1a ff c8 39 6f 2a a6 38
       7e-43 3.227008e-09 0.00038337038 7.923401e-05
000010 fc d5 98 3e e6 af bb 38 68 71 f3 3b d8 fd e6 38
       0.29850757 8.9496185e-05 0.0074292906 0.00011014537
000020 7a a9 0a 3b 7c 34 91 3b 1a 49 65 37 9e 15 48 3c
       0.0021158145 0.0044313055 1.3666484e-05 0.012212185
000030 0e 38 08 39 a3 ec 64 36 63 af 2c 35 f4 01 00 00
       0.00012990853 3.4112388e-06 6.4330214e-07 7e-43
000040 78 a6 58 3a de 48 4b 39
       0.0008264552 0.00019386734

exp_avg f4 [18]
000000 04 00 00 00 20 09 2d b5 10 1c 94 36 7b 80 e2 b9
       6e-45 -6.44608e-07 4.4140106e-06 -0.00043201805
000010 c6 29 09 3d 23 68 ec 39 01 a7 8c 39 5d e6 e7 37
       0.033487104 0.00045091016 0.00026827308 2.7644617e-05
000020 62 e6 8f bb 94 74 28 bc 2f f1 24 b8 92 e7 ba bc
       -0.0043914774 -0.010281701 -3.9325267e-05 -0.0228155
000030 54 88 c2 3b 05 9c e9 37 4d 69 3a b8 04 00 00 00
       0.0059366617 2.7848417e-05 -4.4443925e-05 6e-45
000040 17 51 0a 3b fa 7d 37 3a
       0.0021105462 0.0006999668

exp_avg_sq f4 [18]
000000 f4 01 00 00 9a f7 14 32 e8 83 0c 39 b0 91 9e 38
       7e-43 8.671032e-09 0.0001340058 7.5611635e-05
000010 d4 ba ff 3b 2f 50 0f 3b d2 a5 ea 39 c7 ca ac 39
       0.007804254 0.0021867862 0.00044755504 0.00032957477
000020 6a ac 8f 3a f0 34 42 3b 7a da 6f 38 f6 d9 a1 3b
       0.0010961418 0.0029633604 5.7185513e-05 0.004939313
000030 7a ce 0e 3a 72 ca ef 37 15 06 84 39 f4 01 00 00
       0.00054476375 2.8585291e-05 0.00025181533 7e-43
000040 89 ed 9c 3a 51 80 30 3a
       0.0011972646 0.0006732988

exp_avg f4 [18]
000000 20 0d f9 3b 04 00 00 00 85 ae 0c 3b 00 00 00 00
       0.0076004416 6e-45 0.0021466326 0.0
000010 04 00 00 00 04 00 00 80 00 00 00 00 04 00 00 80
       6e-45 -6e-45 0.0 -6e-45
000020 04 00 00 00 04 00 00 00 00 00 00 00 1e 59 ea 39
       6e-45 6e-45 0.0 0.00044698355
000030 80 0e 28 3a 00 00 00 00 04 00 00 00 bd 22 02 3b
       0.0006410852 0.0 6e-45 0.0019857131
000040 f5 93 f0 3a 04 00 00 00
       0.0018354642 6e-45

exp_avg_sq f4 [18]
000000 7e 41 e3 3a a3 a0 09 00 54 76 81 3a 00 00 00 00
       0.0017338244 8.84145e-40 0.0009877183 0.0
000010 f4 01 00 00 f4 01 00 00 00 00 00 00 f4 01 00 00
       7e-43 7e-43 0.0 7e-43
000020 f4 01 00 00 f4 01 00 00 00 00 00 00 63 c6 78 3a
       7e-43 7e-43 0.0 0.0009490011
000030 b1 a7 1d 3b 00 00 00 00 f4 01 00 00 86 56 9b 39
       0.002405625 0.0 7e-43 0.0002962837
000040 83 b1 a4 39 f4 01 00 00
       0.00031412774 7e-43

exp_avg f4 [18]
000000 03 f8 0a 3c 04 00 00 00 7c c4 96 3a 00 00 00 00
       0.008481982 6e-45 0.0011502649 0.0
000010 04 00 00 00 04 00 00 00 00 00 00 00 04 00 00 00
       6e-45 6e-45 0.0 6e-45
000020 04 00 00 00 04 00 00 00 00 00 00 00 d3 87 d8 3a
       6e-45 6e-45 0.0 0.0016519971
000030 6b d0 5e ba 00 00 00 00 04 00 00 80 2e e0 d6 3a
       -0.00084996846 0.0 -6e-45 0.0016393715
000040 d9 dd e3 b9 04 00 00 00
       -0.00043462103 6e-45

exp_avg_sq f4 [18]
000000 1d ed 28 3a db 0f 00 00 76 7d 1d 3a 00 00 00 00
       0.0006444024 5.688e-42 0.000600777 0.0
000010 f4 01 00 00 f4 01 00 00 00 00 00 00 f4 01 00 00
       7e-43 7e-43 0.0 7e-43
000020 f4 01 00 00 f4 01 00 00 00 00 00 00 9c f9 6d 39
       7e-43 7e-43 0.0 0.00022695068
000030 c7 88 2b 3a 00 00 00 00 f4 01 00 00 d6 7e 2a 39
       0.0006543514 0.0 7e-43 0.00016259713
000040 16 5e f0 39 f4 01 00 00
       0.00045846467 7e-43

exp_avg f4 [18]
000000 00 00 00 00 04 00 00 80 04 00 00 00 c1 c1 8f b9
       0.0 -6e-45 6e-45 -0.00027419443
000010 d6 9a fd bc 89 c3 b1 38 b5 d1 3e 39 04 00 00 00
       -0.03095762 8.476439e-05 0.00018197934 6e-45
000020 40 5a 6c ba 07 f7 7a ba 9f cb e2 35 98 f4 ba 39
       -0.0009016134 -0.0009573553 1.6897574e-06 0.0003565892
000030 a7 7e f2 3a 3c 1b 93 29 04 00 00 00 04 00 00 80
       0.001850088 6.532836e-14 6e-45 -6e-45
000040 a7 d7 9e ba a3 7d 1e ba
       -0.0012118713 -0.0006045943

exp_avg_sq f4 [18]
000000 00 00 00 00 f4 01 00 00 f4 01 00 00 6e d8 81 36
       0.0 7e-43 7e-43 3.8696953e-06
000010 9a 39 da 3c a5 f6 3e 39 83 8a 25 3a f4 01 00 00
       0.026638795 0.00018211694 0.00063148903 7e-43
000020 cd 90 e2 3a 7c 9a 3a 3b 2c 43 cc 2f 2c 75 04 3b
       0.0017285586 0.0028473428 3.7155112e-10 0.0020211441
000030 16 66 14 3a af 15 15 2b 65 41 a1 07 f4 01 00 00
       0.0005660964 5.2965526e-13 2.4263023e-34 7e-43
000040 41 65 85 39 e9 cf 1c 37
       0.00025443177 9.346732e-06

exp_avg f4 [18]
000000 00 00 00 00 04 00 00 00 04 00 00 00 07 b3 e2 b9
       0.0 6e-45 6e-45 -0.00043239465
000010 c6 0f 09 3d 04 b8 11 3a af 85 4e 39 04 00 00 00
       0.03346231 0.00055587315 0.00019695492 6e-45
000020 95 1b 8c bb 78 c1 2a bc 38 bd 6e 35 cc 69 ba bc
       -0.004275749 -0.010422103 8.893726e-07 -0.022755526
000030 cf 66 c0 3b de 2a e8 aa 04 00 00 00 04 00 00 00
       0.0058716307 -4.1241224e-13 6e-45 6e-45
000040 af 7d 0b 3b b1 af 35 3a
       0.002128463 0.0006930782

exp_avg_sq f4 [18]
000000 00 00 00 00 f4 01 00 00 f4 01 00 00 1e 1b 2b 37
       0.0 7e-43 7e-43 1.0198708e-05
000010 db 22 ff 3b ec b5 04 3a 53 9a 37 3b f4 01 00 00
       0.0077861375 0.0005062509 0.0028015568 7e-43
000020 22 9b 80 3a 9a 0c 3d 3b 8a 4d f4 2e 54 7d 9f 3b
       0.0009811858 0.0028846622 1.1109609e-10 0.004867235
000030 a3 8e 03 3a 7c 99 8b 2b 5c b6 4a 09 f4 01 00 00
       0.0005018508 9.919144e-13 2.440061e-33 7e-43
000040 a2 56 29 3a 65 95 39 38
       0.00064597477 4.424657e-05

exp_avg f4 [18]
000000 00 00 00 00 04 00 00 00 04 00 00 00 3f 9c 65 b9
       0.0 6e-45 6e-45 -0.00021897348
000010 79 e5 ce 3c c6 89 c3 39 ed 94 dd 39 04 00 00 80
       0.025255905 0.00037295948 0.00042263363 -6e-45
000020 97 43 95 3a e8 25 1a 3a 66 bb 31 34 a3 23 2b bc
       0.0011387941 0.0005880282 1.6552585e-07 -0.010445508
000030 2f 81 69 3b dd 77 11 2d 04 00 00 80 04 00 00 00
       0.0035629978 8.268911e-12 -6e-45 6e-45
000040 d9 d5 a6 ba 83 37 b8 39
       -0.0012728526 0.00035136574

exp_avg_sq f4 [18]
000000 00 00 00 00 f4 01 00 00 f4 01 00 00 44 40 e2 36
       0.0 7e-43 7e-43 6.7428064e-06
000010 a6 a2 78 3d 8a 94 fc 38 fd 6c 16 3a f4 01 00 00
       0.06070199 0.00012043964 0.00057382864 7e-43
000020 8f ef 9a 3b cc fb 51 3c c0 99 f4 2d fc 2e 24 3c
       0.0047282646 0.012816381 2.7807867e-11 0.010020968
000030 9e ad d8 39 4e e9 08 30 10 29 ea 06 f4 01 00 00
       0.00041328085 4.980806e-10 8.8081353e-35 7e-43
000040 17 8e 7e 3a 28 2f e6 37
       0.0009710504 2.7440095e-05

exp_avg f4 [18]
000000 00 00 00 00 04 00 00 00 04 00 00 00 07 b3 e2 b9
       0.0 6e-45 6e-45 -0.00043239465
000010 c6 0f 09 3d 04 b8 11 3a af 85 4e 39 04 00 00 00
       0.03346231 0.00055587315 0.00019695492 6e-45
000020 95 1b 8c bb 78 c1 2a bc 38 bd 6e 35 cc 69 ba bc
       -0.004275749 -0.010422103 8.893726e-07 -0.022755526
000030 cf 66 c0 3b de 2a e8 aa 04 00 00 00 04 00 00 00
       0.0058716307 -4.1241224e-13 6e-45 6e-45
000040 af 7d 0b 3b b1 af 35 3a
       0.002128463 0.0006930782

exp_avg_sq f4 [18]
000000 00 00 00 00 f4 01 00 00 f4 01 00 00 1e 1b 2b 37
       0.0 7e-43 7e-43 1.0198708e-05
000010 db 22 ff 3b ec b5 04 3a 53 9a 37 3b f4 01 00 00
       0.0077861375 0.0005062509 0.0028015568 7e-43
000020 22 9b 80 3a 9a 0c 3d 3b 8a 4d f4 2e 54 7d 9f 3b
       0.0009811858 0.0028846622 1.1109609e-10 0.004867235
000030 a3 8e 03 3a 7c 99 8b 2b 5c b6 4a 09 f4 01 00 00
       0.0005018508 9.919144e-13 2.440061e-33 7e-43
000040 a2 56 29 3a 65 95 39 38
       0.00064597477 4.424657e-05

exp_avg f4 [36, 36]
000000 58 0f f0 b9 04 00 00 80 95 49 63 b9 00 00 00 00
       -0.000457878 -6e-45 -0.00021675818 0.0
000010 04 00 00 00 04 00 00 00 00 00 00 00 04 00 00 00
       6e-45 6e-45 0.0 6e-45
000020 04 00 00 00 04 00 00 00 00 00 00 00 04 00 00 80
       6e-45 6e-45 0.0 -6e-45
000030 cb 5d f2 b7 00 00 00 00 04 00 00 00 5c 7e ad b6
       -2.8892324e-05 0.0 6e-45 -5.170512e-06
000040 f4 3b 16 b7 04 00 00 80 00 00 00 00 04 00 00 00
       -8.954656e-06 -6e-45 0.0 6e-45
000050 04 00 00 80 04 00 00 80 bb 32 30 b8 74 c9 87 38
       -6e-45 -6e-45 -4.2008916e-05 6.474825e-05
000060 6a 95 76 b9 04 00 00 80 ef 09 62 b9 db 0f 5e b9
       -0.00023516049 -6e-45 -0.0002155674 -0.00021177476
000070 fc 62 ec b3 ea 1b 9a b9 ca c4 a3 b9 c4 33 52 2b
       -1.10076115e-07 -0.00029393967 -0.00031236402 7.4678826e-13
000080 04 00 00 00 04 00 00 00 ef 50 bb 37 46 d1 5a b8
       6e-45 6e-45 2.2329825e-05 -5.217015e-05
000090 10 b2 2a 3a 04 00 00 80 15 33 92 38 00 00 00 00
       0.0006511519 -6e-45 6.971337e-05 0.0
0000a0 04 00 00 80 04 00 00 80 00 00 00 00 04 00 00 80
       -6e-45 -6e-45 0.0 -6e-45
0000b0 04 00 00 00 04 00 00 00 00 00 00 00 75 1d 49 39
       6e-45 6e-45 0.0 0.00019179827
0000c0 20 35 75 ba 00 00 00 00 04 00 00 80 62 8e dd b8
       -0.00093539245 0.0 -6e-45 -0.00010564622
0000d0 fb 37 80 b9 04 00 00 80 00 00 00 00 04 00 00 00
       -0.0002445577 -6e-45 0.0 6e-45
0000e0 04 00 00 80 c1 ef 66 28 7d c5 02 bc c9 88 71 39
       -6e-45 1.2819553e-14 -0.007981655 0.00023034507
0000f0 6f 6a c1 ba 04 00 00 80 56 cd 01 bc 44 b1 17 bc
       -0.0014756451 -6e-45 -0.007922491 -0.009258572
000100 eb 28 a2 b5 85 b7 59 37 e9 46 7f 3b 71 36 49 ad
       -1.2081849e-06 1.2976937e-05 0.0038952178 -1.1437616e-11
000110 04 00 00 00 04 00 00 00 ad 89 d0 b8 cc ef 53 b7
       6e-45 6e-45 -9.943857e-05 -1.2632412e-05
000120 a1 07 08 3b 04 00 00 00 7c 44 5a 3a 00 00 00 00
       0.00207565 6e-45 0.0008326245 0.0
000130 04 00 00 00 04 00 00 00 00 00 00 00 04 00 00 80
       6e-45 6e-45 0.0 -6e-45
000140 04 00 00 80 04 00 00 80 00 00 00 00 cc 9b 3c 39
       -6e-45 -6e-45 0.0 0.00017987116
000150 39 7b ad 3a 00 00 00 00 04 00 00 00 ca 12 47 39
       0.0013235576 0.0 6e-45 0.00018985118
000160 bd 08 b6 39 04 00 00 00 00 00 00 00 04 00 00 80
       0.00034720256 6e-45 0.0 -6e-45
000170 04 00 00 00 98 e1 51 28 2a 94 9e bb f9 41 ce 39
       6e-45 1.16507485e-14 -0.00483944 0.00039340535
000180 79 47 61 3a 04 00 00 00 c7 71 34 bb ab 5e 68 bb
       0.0008593719 6e-45 -0.0027533637 -0.0035456817
000190 9c 7a 28 35 bc 9b da 3a 67 38 8f 3a d1 64 24 2d
       6.2763297e-07 0.0016678493 0.0010926843 9.344706e-12
0001a0 04 00 00 80 04 00 00 80 5a e0 ad 36 84 73 24 39
       -6e-45 -6e-45 5.1819197e-06 0.00015683292
0001b0 24 7c e2 39 04 00 00 80 4b f3 57 39 00 00 00 00
       0.0004319857 -6e-45 0.00020594631 0.0
0001c0 04 00 00 80 04 00 00 00 00 00 00 00 04 00 00 00
       -6e-45 6e-45 0.0 6e-45
0001d0 00 00 00 00 04 00 00 00 00 00 00 00 04 00 00 00
       0.0 6e-45 0.0 6e-45
0001e0 43 f3 56 38 00 00 00 00 04 00 00 80 1e df 56 b7
       5.124813e-05 0.0 -6e-45 -1.28073425e-05
0001f0 f4 b0 87 37 04 00 00 00 00 00 00 00 04 00 00 00
       1.6175654e-05 6e-45 0.0 6e-45
000200 04 00 00 00 04 00 00 00 d5 62 25 38 b9 bb 96 38
       6e-45 6e-45 3.943111e-05 7.1875234e-05
000210 cd 61 92 37 04 00 00 00 34 47 23 39 1b 2b 20 39
       1.7450098e-05 6e-45 0.00015571417 0.00015274847
000220 49 05 69 26 68 0d 64 39 e0 c9 ad 39 f9 c1 ab ab
       8.0845277e-16 0.00021748769 0.0003314754 -1.2204119e-12
000230 04 00 00 80 00 00 00 00 e6 51 65 38 c1 07 80 37
       -6e-45 0.0 5.467413e-05 1.52624e-05
000240 92 36 70 38 04 00 00 80 75 09 94 38 00 00 00 00
       5.727128e-05 -6e-45 7.0589515e-05 0.0
000250 04 00 00 80 04 00 00 00 00 00 00 00 04 00 00 00
       -6e-45 6e-45 0.0 6e-45
000260 04 00 00 00 04 00 00 00 00 00 00 00 1d 84 3e b8
       6e-45 6e-45 0.0 -4.542257e-05
000270 36 d5 8d 36 00 00 00 00 04 00 00 00 81 87 1c b7
       4.2269485e-06 0.0 6e-45 -9.329874e-06
000280 c7 db 37 36 04 00 00 80 00 00 00 00 04 00 00 80
       2.7397052e-06 -6e-45 0.0 -6e-45
000290 04 00 00 80 42 b3 f7 27 a9 30 3f bb c3 71 e4 36
       -6e-45 6.8750623e-15 -0.002917329 6.808173e-06
0002a0 ec 72 d1 39 04 00 00 80 9c 2c 35 bb e9 d6 54 bb
       0.0003994921 -6e-45 -0.0027644997 -0.003247673
0002b0 b4 eb 6c 34 80 26 3f b8 bd 76 37 3a ae 17 95 ac
       2.2064961e-07 -4.5573805e-05 0.00069985894 -4.2374637e-12
0002c0 04 00 00 00 04 00 00 80 b7 8f 1b b6 94 bb c4 b6
       6e-45 -6e-45 -2.3180453e-06 -5.863092e-06
0002d0 3f aa 4f ba 04 00 00 00 82 58 ba b9 00 00 00 00
       -0.0007921792 6e-45 -0.00035542628 0.0
0002e0 04 00 00 00 04 00 00 80 00 00 00 00 04 00 00 80
       6e-45 -6e-45 0.0 -6e-45
0002f0 04 00 00 80 04 00 00 00 00 00 00 00 11 b8 50 b7
       -6e-45 6e-45 0.0 -1.2440622e-05
000300 0b af 1b 39 00 00 00 00 04 00 00 00 08 6b 40 38
       0.0001484716 0.0 6e-45 4.5876048e-05
000310 18 57 1b 38 04 00 00 80 00 00 00 00 04 00 00 00
       3.7035992e-05 -6e-45 0.0 6e-45
000320 04 00 00 00 f5 58 74 a6 81 d0 12 bb 27 c0 17 ba
       6e-45 -8.4775065e-16 -0.002240211 -0.0005788826
000330 72 c6 48 ba 04 00 00 00 00 fe 3e bb 6d 25 57 bb
       -0.0007658965 6e-45 -0.0029143095 -0.0032828704
000340 2b 2c 21 27 fa 29 44 ba ac 71 1a 3a b5 ac 17 2d
       2.2367182e-15 -0.00074830616 0.0005891572 8.621705e-12
000350 04 00 00 00 00 00 00 00 2d 2e a3 b8 63 3d 48 37
       6e-45 0.0 -7.7810466e-05 1.1935222e-05
000360 fb c6 ee 3b 04 00 00 80 a7 aa 46 3b 00 00 00 00
       0.007286904 -6e-45 0.003031412 0.0
000370 04 00 00 80 04 00 00 00 00 00 00 00 04 00 00 80
       -6e-45 6e-45 0.0 -6e-45
000380 04 00 00 80 04 00 00 80 00 00 00 00 31 8b be 39
       -6e-45 -6e-45 0.0 0.0003634333
000390 12 89 37 b9 00 00 00 00 04 00 00 00 1c df 34 b8
       -0.00017503303 0.0 6e-45 -4.312313e-05
0003a0 82 de 23 b8 04 00 00 00 00 00 00 00 04 00 00 80
       -3.9069455e-05 6e-45 0.0 -6e-45
0003b0 04 00 00 80 ea 9d 01 29 bc 46 28 3a 91 04 0f ba
       -6e-45 2.8780723e-14 0.00064192316 -0.00054556975
0003c0 d9 f1 d2 3b 04 00 00 80 2d f9 cd 3b 49 85 cc 3b
       0.006437522 -6e-45 0.0062858076 0.0062414748
0003d0 de ba 2d 35 1d 22 cb 3b 4d 70 97 b9 04 00 00 00
       6.471945e-07 0.006199135 -0.00028884635 6e-45
0003e0 04 00 00 80 04 00 00 80 91 4b 8c b8 91 53 3d 3a
       -6e-45 -6e-45 -6.6897956e-05 0.000722223
0003f0 c1 77 be 38 04 00 00 00 5a fc 40 b8 00 00 00 00
       9.082212e-05 6e-45 -4.6011388e-05 0.0

exp_avg_sq f4 [36, 36]
000000 43 c6 44 36 f4 01 00 00 f8 39 43 35 00 00 00 00
       2.932168e-06 7e-43 7.2727516e-07 0.0
000010 f4 01 00 00 f4 01 00 00 00 00 00 00 f4 01 00 00
       7e-43 7e-43 0.0 7e-43
000020 f4 01 00 00 f4 01 00 00 00 00 00 00 f0 6f aa 1f
       7e-43 7e-43 0.0 7.2182986e-20
000030 6c 09 32 36 00 00 00 00 f4 01 00 00 d3 04 6f 33
       2.6529551e-06 0.0 7e-43 5.565091e-08
000040 2b df 46 34 f4 01 00 00 00 00 00 00 f4 01 00 00
       1.8521375e-07 7e-43 0.0 7e-43
000050 f4 01 00 00 db 32 6e 15 9a b8 d3 32 fd b0 98 34
       7e-43 4.8103835e-26 2.464758e-08 2.8440982e-07
000060 98 e9 9e 35 f4 01 00 00 69 d5 92 35 2f 5d 8e 35
       1.1839902e-06 7e-43 1.0939958e-06 1.0606944e-06
000070 ee 90 3d 2c 7e 43 cf 35 54 90 df 35 81 ff 11 2a
       2.6938968e-12 1.5442345e-06 1.66568e-06 1.2967233e-13
000080 50 11 35 04 f4 01 00 00 d4 2f 71 33 81 59 82 33
       2.1284397e-36 7e-43 5.6155685e-08 6.0698774e-08
000090 19 b2 04 38 f4 01 00 00 d7 43 24 37 00 00 00 00
       3.163712e-05 7e-43 9.790957e-06 0.0
0000a0 f4 01 00 00 f4 01 00 00 00 00 00 00 f4 01 00 00
       7e-43 7e-43 0.0 7e-43
0000b0 f4 01 00 00 f4 01 00 00 00 00 00 00 6d 6f 92 36
       7e-43 7e-43 0.0 4.3641107e-06
0000c0 0b 6d 19 38 00 00 00 00 f4 01 00 00 1c a7 54 35
       3.6579597e-05 0.0 7e-43 7.921933e-07
0000d0 88 df 29 36 f4 01 00 00 00 00 00 00 f4 01 00 00
       2.5313075e-06 7e-43 0.0 7e-43
0000e0 f4 01 00 00 26 8d 26 2e 2b fa 27 39 c0 99 92 36
       7e-43 3.7869395e-11 0.00016019556 4.369038e-06
0000f0 1b 54 7c 38 f4 01 00 00 a7 2b 38 38 45 ba 58 38
       6.015981e-05 7e-43 4.3909673e-05 5.167189e-05
000100 06 e7 50 2f b8 b6 f5 37 21 83 e4 37 4e 7b 31 2f
       1.8999566e-10 2.9291361e-05 2.724078e-05 1.6141863e-10
000110 69 11 02 06 f4 01 00 00 45 03 35 35 9f 14 37 36
       2.4463073e-35 7e-43 6.743251e-07 2.7281128e-06
000120 9e 63 70 37 f4 01 00 00 41 c1 84 36 00 00 00 00
       1.4328309e-05 7e-43 3.9564043e-06 0.0
000130 f4 01 00 00 f4 01 00 00 00 00 00 00 f4 01 00 00
       7e-43 7e-43 0.0 7e-43
000140 f4 01 00 00 f4 01 00 00 00 00 00 00 9a 22 d4 35
       7e-43 7e-43 0.0 1.5805301e-06
000150 aa 90 06 38 00 00 00 00 f4 01 00 00 04 f8 3d 35
       3.208282e-05 0.0 7e-43 7.0768897e-07
000160 10 a1 15 36 f4 01 00 00 00 00 00 00 f4 01 00 00
       2.229648e-06 7e-43 0.0 7e-43
000170 f4 01 00 00 70 0b a2 2d 15 36 6d 38 92 4b 2c 36
       7e-43 1.8422347e-11 5.655557e-05 2.5673985e-06
000180 42 77 01 38 f4 01 00 00 4e 56 9a 37 1f 7e ae 37
       3.0867064e-05 7e-43 1.839842e-05 2.0801146e-05
000190 24 4a 6d 2e 78 3d 5f 37 ab 44 e6 36 7d 5e 58 30
       5.395341e-11 1.3306148e-05 6.862528e-06 7.871462e-10
0001a0 7a 2a b4 06 f4 01 00 00 34 63 68 34 a4 39 3b 36
       6.777089e-35 7e-43 2.1642774e-07 2.7898723e-06
0001b0 c2 89 06 36 f4 01 00 00 00 ca 07 35 00 00 00 00
       2.0047742e-06 7e-43 5.058537e-07 0.0
0001c0 f4 01 00 00 f4 01 00 00 00 00 00 00 f4 01 00 00
       7e-43 7e-43 0.0 7e-43
0001d0 00 00 00 00 f4 01 00 00 00 00 00 00 dc 69 94 20
       0.0 7e-43 0.0 2.5142227e-19
0001e0 1f 73 30 36 00 00 00 00 f4 01 00 00 b9 94 75 33
       2.6293053e-06 0.0 7e-43 5.717877e-08
0001f0 41 8b 43 34 f4 01 00 00 00 00 00 00 f4 01 00 00
       1.821145e-07 7e-43 0.0 7e-43
000200 f4 01 00 00 c1 de b9 16 23 42 8c 32 54 e3 11 34
       7e-43 3.002894e-25 1.632822e-08 1.3586879e-07
000210 13 b5 c0 35 f4 01 00 00 c3 7c 3b 34 ed 49 34 34
       1.4357814e-06 7e-43 1.746112e-07 1.67907e-07
000220 86 68 18 2b 2d 2f cf 34 c8 ce 68 35 d4 a6 f3 2c
       5.4146303e-13 3.859108e-07 8.672764e-07 6.924997e-12
000230 f4 01 00 00 00 00 00 00 f6 ae 8b 33 d0 68 12 32
       7e-43 0.0 6.504517e-08 8.52215e-09
000240 1b 11 21 36 f4 01 00 00 ca a0 0f 35 00 00 00 00
       2.4000826e-06 7e-43 5.350563e-07 0.0
000250 f4 01 00 00 f4 01 00 00 00 00 00 00 f4 01 00 00
       7e-43 7e-43 0.0 7e-43
000260 f4 01 00 00 f4 01 00 00 00 00 00 00 05 a1 84 33
       7e-43 7e-43 0.0 6.176018e-08
000270 31 b5 a0 35 00 00 00 00 f4 01 00 00 08 44 d4 32
       1.1973663e-06 0.0 7e-43 2.4710985e-08
000280 98 01 b1 33 f4 01 00 00 00 00 00 00 f4 01 00 00
       8.242495e-08 7e-43 0.0 7e-43
000290 f4 01 00 00 bf 12 c9 2c 44 3b bc 37 54 28 1a 33
       7e-43 5.714845e-12 2.2438944e-05 3.5892597e-08
0002a0 9d c2 13 37 f4 01 00 00 3a 1d a7 36 89 3c cb 36
       8.807195e-06 7e-43 4.9803903e-06 6.0569187e-06
0002b0 e7 58 03 2d a9 ca 55 36 77 0c 8c 34 e8 4b 81 30
       7.466228e-12 3.1857437e-06 2.6086101e-07 9.407559e-10
0002c0 55 be 60 04 f4 01 00 00 f7 a4 30 33 ac 8b 11 32
       2.641847e-36 7e-43 4.1128228e-08 8.4718685e-09
0002d0 fe 47 27 37 f4 01 00 00 14 87 30 36 00 00 00 00
       9.970738e-06 7e-43 2.630467e-06 0.0
0002e0 f4 01 00 00 f4 01 00 00 00 00 00 00 f4 01 00 00
       7e-43 7e-43 0.0 7e-43
0002f0 f4 01 00 00 f4 01 00 00 00 00 00 00 73 12 58 33
       7e-43 7e-43 0.0 5.03082e-08
000300 ac 66 9b 37 00 00 00 00 f4 01 00 00 77 9c d4 34
       1.852525e-05 0.0 7e-43 3.960192e-07
000310 22 a3 ab 35 f4 01 00 00 00 00 00 00 f4 01 00 00
       1.2787971e-06 7e-43 0.0 7e-43
000320 f4 01 00 00 3a d0 3b 2c 32 d8 7e 37 68 bf 81 36
       7e-43 2.6689887e-12 1.5189917e-05 3.866782e-06
000330 69 a5 0e 38 f4 01 00 00 49 5c dc 36 bc fa f8 36
       3.400949e-05 7e-43 6.5672543e-06 7.4201653e-06
000340 20 61 01 2d 88 1a 8e 36 f7 e6 9f 35 ff a1 bd 2f
       7.354367e-12 4.2350184e-06 1.1913643e-06 3.4494005e-10
000350 3e 85 d9 05 00 00 00 00 b1 05 0e 35 82 e0 2a 31
       2.0455527e-35 0.0 5.2907404e-07 2.4865874e-09
000360 e9 3c 27 39 f4 01 00 00 45 3f 55 38 00 00 00 00
       0.00015949052 7e-43 5.084208e-05 0.0
000370 f4 01 00 00 f4 01 00 00 00 00 00 00 f4 01 00 00
       7e-43 7e-43 0.0 7e-43
000380 f4 01 00 00 f4 01 00 00 00 00 00 00 0a 62 f8 37
       7e-43 7e-43 0.0 2.9609557e-05
000390 7c 65 d6 38 00 00 00 00 f4 01 00 00 f2 1f 0f 36
       0.00010223218 0.0 7e-43 2.1327255e-06
0003a0 5c e0 ec 36 f4 01 00 00 00 00 00 00 f4 01 00 00
       7.059467e-06 7e-43 0.0 7e-43
0003b0 f4 01 00 00 17 0d 00 2e b3 ad 51 37 2c 6c 2c 37
       7e-43 2.9115457e-11 1.2497813e-05 1.0277185e-05
0003c0 91 97 63 3a f4 01 00 00 b5 e5 01 39 7e f3 00 39
       0.0008681948 7e-43 0.00012387971 0.00012297739
0003d0 82 c8 cf 2e 7c 06 ed 38 74 0f cc 36 fd 08 51 20
       9.4488875e-11 0.000113022485 6.0814727e-06 1.7705963e-19
0003e0 40 76 e7 07 f4 01 00 00 a5 43 8b 34 d8 8d 98 36
       3.4826518e-34 7e-43 2.5939985e-07 4.546466e-06
0003f0 99 b9 2d 36 f4 01 00 00 36 4f 98 34 00 00 00 00
       2.588704e-06 7e-43 2.836984e-07 0.0

exp_avg f4 [36]
000000 0d b1 de b9 1b 05 2a 3a ba f4 fd 3a 56 3f d2 39
       -0.00042475053 0.0006485746 0.0019375302 0.0004010151
000010 6b 42 66 38 29 9b 3d ba 09 a6 dd 3b 77 66 b0 38
       5.489813e-05 -0.00072328985 0.0067641777 8.4114195e-05
000020 cd 61 47 ba 22 b8 4c 39 2e 07 2d 37 ab e8 e1 39
       -0.0007605821 0.00019523551 1.0313275e-05 0.00043088695
000030 f9 a4 e2 b9 93 fc 37 b9 d3 6e 00 3a 2f 57 ae b9
       -0.00043228993 -0.00017546331 0.00048993266 -0.00033252823
000040 2b 57 be 39 ac 97 4d 39 0f 0b af b8 56 2f 75 b9
       0.0003630457 0.00019606826 -8.34671e-05 -0.00023382655
000050 9e 30 a9 39 63 d5 f8 b8 04 00 00 80 04 00 00 00
       0.00032270415 -0.00011865308 -6e-45 6e-45
000060 7c 2e 0a ba 34 d9 62 b7 f6 63 f3 39 25 d9 5c ba
       -0.0005271209 -1.3521221e-05 0.00046423048 -0.0008424691
000070 bf a7 e7 39 4a d4 7b 3a c6 3d 1b ba a0 6c 05 ba
       0.00044184734 0.00096065237 -0.0005921986 -0.0005089734
000080 97 80 a6 39 da e2 a1 b9 b8 d2 92 b8 a2 c0 ae 37
       0.00031757794 -0.0003087733 -7.001072e-05 2.0832118e-05

exp_avg_sq f4 [36]
000000 d5 85 29 36 29 e0 e1 37 e0 54 4c 37 90 10 e7 35
       2.5260863e-06 2.6926473e-05 1.2179109e-05 1.7215662e-06
000010 de a9 0a 36 9c 99 0f 37 e8 dc 0f 39 88 0c 15 36
       2.0662478e-06 8.559229e-06 0.00013719837 2.2210024e-06
000020 df 26 c8 36 b8 ff f1 35 09 e3 6f 36 5f 33 da 36
       5.9649897e-06 1.8030323e-06 3.5745927e-06 6.5028867e-06
000030 a0 a8 14 37 01 a1 9f 35 8c c1 7a 37 70 3d 60 37
       8.8607485e-06 1.1893281e-06 1.4946225e-05 1.3365745e-05
000040 e5 52 bc 36 c8 c7 bf 37 e3 7a 07 38 a2 9e 7a 36
       5.612487e-06 2.2862005e-05 3.2300955e-05 3.734524e-06
000050 63 3e 04 37 07 02 b1 36 f4 01 00 00 f4 01 00 00
       7.882339e-06 5.275247e-06 7e-43 7e-43
000060 7e 5f 51 37 c4 b7 d1 37 4e c4 56 37 ff 5a 03 38
       1.2479604e-05 2.5000314e-05 1.28011e-05 3.131758e-05
000070 bf 7c 36 37 5a 27 5c 37 7d a7 62 36 36 89 91 35
       1.087709e-05 1.3122184e-05 3.3774115e-06 1.0843276e-06
000080 8a 44 c8 36 d8 a7 8f 37 a5 ee 55 37 95 29 9d 37
       5.9684435e-06 1.7125087e-05 1.2751353e-05 1.8735222e-05

exp_avg f4 [36, 36]
000000 e1 38 ae b8 ea 5e 94 39 b9 2f ca 3a 3e c2 14 ba
       -8.307561e-05 0.00028299476 0.0015425599 -0.00056746963
000010 da 36 b4 b8 1c 25 5e ba c5 73 78 38 d0 f7 16 ba
       -8.593286e-05 -0.00084741577 5.9235626e-05 -0.0005758973
000020 b1 3b 99 b8 04 07 68 b9 f1 3d c8 b7 60 0e 9d b9
       -7.306727e-05 -0.00022127858 -2.3870702e-05 -0.00029956084
000030 c6 60 80 3a e4 08 0d 39 83 9a 30 36 2d 77 a3 b7
       0.0009794466 0.0001345012 2.6315981e-06 -1.948661e-05
000040 cd d7 dd 38 aa 46 60 3a 31 a1 da 37 34 27 3d b9
       0.00010578297 0.00085554516 2.6062686e-05 -0.00018039049
000050 a0 09 57 3a 5c 6d be 39 04 00 00 80 00 00 00 00
       0.00082030334 0.00036321103 -6e-45 0.0
000060 cd 2a b6 39 28 71 4b b9 48 40 88 b7 39 e9 0d 38
       0.00034745634 -0.00019401743 -1.6242397e-05 3.3834225e-05
000070 b2 40 19 ba 83 d8 ed 39 92 4f 0b 38 ab a5 1b b9
       -0.0005846127 0.00045365476 3.3214288e-05 -0.00014843668
000080 52 7c ab 3a 29 7b d4 b9 f4 3c 24 39 19 c2 40 39
       0.0013083315 -0.00040527552 0.00015662966 0.00018382854
000090 04 fa 9e b8 2a 50 fd b8 d9 00 20 39 be 8f 0c b9
       -7.580596e-05 -0.00012078912 0.00015259105 -0.00013404989
0000a0 07 1c 8f 38 44 70 be b9 b5 4c b2 39 c3 0d b5 b7
       6.823992e-05 -0.00036323268 0.00034007957 -2.158329e-05
0000b0 18 c9 35 b9 89 d3 c8 b8 19 40 5c b5 df d9 8c b7
       -0.00017336418 -9.576145e-05 -8.204966e-07 -1.6790755e-05
0000c0 a1 38 a2 37 8e a6 71 39 5f 42 59 39 f1 17 b9 b7
       1.9338275e-05 0.00023045597 0.00020719458 -2.2064867e-05
0000d0 57 68 ef 38 52 11 04 b7 b1 4d 4f b6 8d b8 91 38
       0.00011415843 -7.871846e-06 -3.0890626e-06 6.948514e-05
0000e0 f4 d9 1f 39 01 b2 56 39 04 00 00 00 00 00 00 00
       0.00015244615 0.00020474942 6e-45 0.0
0000f0 09 56 cd 37 b4 1b d1 b8 1f b2 dd b8 00 f5 c0 39
       2.4477968e-05 -9.971057e-05 -0.00010571279 0.00036803633
000100 73 9a cc b9 13 07 0f b8 6e 43 e2 38 e0 b6 74 38
       -0.00039024986 -3.4100445e-05 0.000107890795 5.834445e-05
000110 12 7f 3b 38 fd 02 8d b8 de 39 ea b2 21 19 f0 37
       4.4702618e-05 -6.7239605e-05 -2.72675e-08 2.8621931e-05
000120 eb e2 ed b7 55 e4 93 b9 de 48 81 ba 84 7f bc b7
       -2.8358269e-05 -0.00028208146 -0.0009863635 -2.2470726e-05
000130 98 ea 9c b8 b3 18 8d b8 31 8e 3c 39 67 1c 15 38
       -7.482356e-05 -6.7280045e-05 0.00017982048 3.555082e-05
000140 f0 e5 88 b8 cb 35 9f b8 aa 74 91 b5 37 0e 8f 37
       -6.5278145e-05 -7.5917305e-05 -1.0837296e-06 1.7053548e-05
000150 0a 51 e4 38 c3 6e e4 b7 87 64 b3 39 94 c1 e0 b5
       0.00010886982 -2.7231295e-05 0.0003421644 -1.6745639e-06
000160 f1 99 55 b9 be df d9 38 24 d3 1d b6 c9 f8 c4 b6
       -0.0002037061 0.000103890416 -2.3517723e-06 -5.8702176e-06
000170 9c 0c a1 b9 bd 93 e7 b9 04 00 00 80 00 00 00 00
       -0.00030717708 -0.00044169827 -6e-45 0.0
000180 10 e3 e5 ba 04 80 3f b6 aa 88 2d b8 ab 92 06 3a
       -0.0017538983 -2.8535733e-06 -4.1373693e-05 0.00051335496
000190 40 5a bd b7 7b 30 0d b9 a3 41 03 ba a2 1e 12 39
       -2.2572582e-05 -0.00013464868 -0.0005007034 0.00013935057
0001a0 ba 8b 99 ba ce 05 3e b7 2a 5d 59 b4 76 6a 7b 38
       -0.0011714615 -1.1326234e-05 -2.0243593e-07 5.9942213e-05
0001b0 0a 29 b9 38 2d 6d 6a 38 e3 6a 1b 39 f8 a0 2c 38
       8.8291315e-05 5.5891625e-05 0.0001482177 4.115791e-05
0001c0 8c 63 eb b6 e9 94 df 39 7b cf 40 37 fb 83 e4 b0
       -7.0151345e-06 0.0004264482 1.14924e-05 -1.6626694e-09
0001d0 03 fb 67 39 3c 8f b6 b5 db 99 19 ac 9d ba 82 b4
       0.00022123386 -1.3601743e-06 -2.1828015e-12 -2.4350166e-07
0001e0 77 59 fa 30 35 38 2b b7 cc db 59 b6 37 2a 80 b4
       1.8215321e-09 -1.0205481e-05 -3.2463458e-06 -2.3872573e-07
0001f0 c1 80 a0 b6 67 01 4d 35 16 11 dc b5 fa 23 90 b6
       -4.7833605e-06 7.637049e-07 -1.639625e-06 -4.2957226e-06
000200 13 89 f1 b6 41 32 a4 b6 04 00 00 00 00 00 00 00
       -7.1983172e-06 -4.893431e-06 6e-45 0.0
000210 58 ba a0 35 c1 a9 f7 38 3c db 88 39 1d 33 3f b7
       1.1975162e-06 0.00011809497 0.00026103284 -1.1396388e-05
000220 0e 75 d5 39 02 a8 fe b5 01 9f cd b6 32 b5 ff 37
       0.00040713738 -1.8973371e-06 -6.1279866e-06 3.0482744e-05
000230 68 a8 04 33 4e b5 d9 32 ea 43 e4 b5 ef e4 cc 32
       3.088681e-08 2.5344573e-08 -1.7007089e-06 2.3852833e-08
000240 76 59 11 b9 5f 84 d0 b8 0c 8e d4 39 ad ae 9e b8
       -0.00013861604 -9.942869e-05 0.00040541624 -7.566563e-05
000250 fb c8 f0 37 e4 bd 2d b9 3a cd 2f 39 50 37 ee 38
       2.8703818e-05 -0.00016569305 0.00016765753 0.00011359027
000260 79 b4 1b b9 b0 21 b0 b8 d0 9e 29 39 17 8e bb 38
       -0.00014849183 -8.398609e-05 0.00016176258 8.943321e-05
000270 79 2c 4f b9 2b 66 12 38 ec b7 4d 37 05 2e 20 b9
       -0.00019757626 3.4904264e-05 1.2261775e-05 -0.00015275933
000280 30 3b 02 39 6e 4b 00 b9 79 12 92 b9 0d 2a 11 b7
       0.00012419815 -0.00012235131 -0.00027861053 -8.652464e-06
000290 3c b3 db b8 49 a1 8a 39 04 00 00 00 04 00 00 80
       -0.00010476119 0.00026441578 6e-45 -6e-45
0002a0 61 6d c5 39 97 1c e5 b8 ed 64 81 38 b6 f4 af b8
       0.00037656262 -0.00010924896 6.169998e-05 -8.390231e-05
0002b0 a4 56 56 b9 75 e4 b4 b9 fd eb da 38 96 13 d5 39
       -0.00020440907 -0.0003450249 0.00010439006 0.00040641119
0002c0 f1 c8 7a 39 45 f3 99 38 a7 d4 de 39 07 51 af ba
       0.00023916714 7.340921e-05 0.00042501578 -0.0013375588
0002d0 40 a2 d2 37 32 82 d4 38 11 10 17 3a ab 8f 21 b8
       2.5109504e-05 0.000101331985 0.0005762587 -3.8519192e-05
0002e0 a8 1c b0 39 19 c6 8b 39 7d 3a 7f 38 1b 7e f2 b8
       0.00033590687 0.0002665974 6.085121e-05 -0.00011562948
0002f0 33 c4 53 39 41 34 59 b9 e2 a1 3a 38 4b f5 ea b8
       0.00020195618 -0.00020714199 4.449662e-05 -0.00011203679
000300 2d 00 4c b6 a9 b5 40 3a f3 0f 80 39 89 78 18 b6
       -3.0398471e-06 0.0007351288 0.00024425946 -2.2719926e-06
000310 38 72 98 39 5a c7 01 35 25 13 23 39 0f ec 4a 39
       0.000290768 4.834634e-07 0.00015552023 0.0001935216
000320 8d 5c e6 39 0a 00 05 3a 04 00 00 00 04 00 00 80
       0.00043937974 0.0005073553 6e-45 -6e-45
000330 a8 82 bb 38 1d e4 1e 38 a1 8d ee 39 b2 81 87 3a
       8.9411915e-05 3.7882583e-05 0.0004550042 0.0010338335
000340 e8 c3 2a 39 89 7c 08 39 cc 32 d9 39 c6 36 f4 38
       0.00016285444 0.00013016364 0.00041427312 0.00011645029
000350 2d a0 5b 39 61 5e 29 b8 45 04 1a 39 33 04 7d ba
       0.00020945138 -4.0380637e-05 0.00014688175 -0.000965181
000360 c8 71 b4 35 31 96 c9 38 2b d6 86 b7 90 40 49 37
       1.344416e-06 9.612402e-05 -1.6073775e-05 1.1995566e-05
000370 54 d1 fe 37 bc 5a 30 37 4c da 90 37 3c 64 2d 39
       3.0376636e-05 1.0511543e-05 1.726779e-05 0.00016535906
000380 53 e9 e0 b8 3b c1 95 39 2a 6a 0d b6 99 08 cd 38
       -0.000107246124 0.00028563463 -2.1072433e-06 9.776763e-05
000390 1c 71 63 b6 e1 25 85 39 e8 42 77 38 48 a9 8a b7
       -3.3891474e-06 0.0002539596 5.89517e-05 -1.652971e-05
0003a0 a1 30 2f 39 41 32 92 b2 bd ec c5 b7 d4 63 e5 38
       0.00016707416 -1.701949e-08 -2.359447e-05 0.00010938165
0003b0 e1 92 16 39 68 c1 32 36 04 00 00 80 04 00 00 00
       0.00014359831 2.6636644e-06 -6e-45 6e-45
0003c0 e7 80 c6 37 16 2e a5 35 62 c8 38 b8 f3 bc 7c b8
       2.3663464e-05 1.2306871e-06 -4.405564e-05 -6.0257455e-05
0003d0 70 60 bb b7 7a 90 9d b8 1c d0 09 b9 27 d4 9a 38
       -2.2337044e-05 -7.513254e-05 -0.00013142865 7.382809e-05
0003e0 5e e9 81 b8 db 43 81 39 79 03 32 b8 97 ac 55 b8
       -6.1946674e-05 0.00024655354 -4.244174e-05 -5.0943894e-05
0003f0 e6 62 d9 37 39 c4 1a ba 8c 13 4f b9 49 ea bc b9
       2.5914469e-05 -0.0005903873 -0.0001974834 -0.0003603271
